pivae_sde/experiments/2024-9-1_16-6-38-483003_Graphs/piae_night.pt (torch, 28642 bytes, 22 tensors)

weight f4 [16, 18]
000000 16 68 72 3e fa 43 8b 3e ec 97 6d bd 42 a1 b3 3e
       0.23672518 0.272003 -0.058006212 0.35083967
000010 e7 8d f3 3e e2 c5 1e 3e 81 5c 0a be 62 85 7e 3d
       0.475692 0.15505174 -0.1351185 0.062138923
000020 80 af 81 3e a2 a3 47 be 83 b3 c9 3e 8e f3 d6 3e
       0.25329208 -0.19496015 0.3939477 0.41982692
000030 bc e4 3a 3e 14 4c a9 3e 68 6b bd bc 7f 46 d6 be
       0.18251318 0.33065856 -0.023122504 -0.4185066
000040 a8 fa 59 be 94 98 53 bf b1 ec 13 3d e7 6a 41 3e
       -0.21287024 -0.8265469 0.0361144 0.18888436
000050 e5 9d b2 be f1 78 67 3f 7e 9a 35 bf 16 b7 d1 3c
       -0.3488609 0.90418917 -0.7093886 0.025599997
000060 11 f4 b7 be fa 0f 6b be 04 8c 90 bd 68 0a 9e 3e
       -0.35928395 -0.22955313 -0.07057956 0.30867314
000070 ab 89 b1 bd 35 21 e7 3e 19 a1 8d be 4b 9a c2 3e
       -0.08668836 0.45142522 -0.2766197 0.3800834
000080 43 e3 db bd 7e 4a a5 be ab 19 15 3e aa 6c 50 bf
       -0.10736706 -0.32283396 0.14560573 -0.8141581
000090 f1 b4 1a 3e 0c 46 60 be ba 90 b4 bd 6c 2f 05 3e
       0.15108086 -0.21901721 -0.08816667 0.13006371
0000a0 81 49 0f bf 54 c4 25 3d 45 a3 04 3f e4 af 83 be
       -0.55971533 0.040470436 0.5181163 -0.2572013
0000b0 33 48 4d be 80 9e f9 3d aa 7a 9c bd 28 d1 45 3e
       -0.20047073 0.121884346 -0.07640584 0.19318068
0000c0 0f 1b 36 3e d8 7c 0a 3f 1e 47 30 be 8f a3 d8 3e
       0.1778376 0.54096746 -0.17214629 0.42312285
0000d0 70 79 92 be 3b 91 43 be e6 5c 32 3e 51 21 04 3e
       -0.28608274 -0.1909837 0.1741825 0.12903334
0000e0 ee ac 85 3e 33 f7 be bd 65 90 48 3d 6b ca 31 be
       0.26108497 -0.09324493 0.04896583 -0.17362373
0000f0 28 9b 6a 3e f4 a5 f7 be 5d 62 05 be 9e 78 59 3d
       0.2291075 -0.483688 -0.13025804 0.053093545
000100 49 cc 60 bd ff ab 95 be 9d 39 1f 3e e4 d3 03 bf
       -0.05488232 -0.29232785 0.15549321 -0.51495194
000110 86 6f 15 3f e3 6c e3 bd cb 3a e0 3d a8 ea 8f bf
       0.58373296 -0.11104753 0.10948714 -1.1243486
000120 b2 1b 9f bd a4 7d 0c be 20 46 44 3f d4 30 f6 be
       -0.07768954 -0.13719803 0.766695 -0.48084128
000130 5d 9f d3 3e 29 83 b6 3e 6c c2 4b 3e 3b dc aa 3e
       0.41332522 0.35646942 0.19898385 0.33371148
000140 67 08 df 3e 8d ef be 3e b0 a1 c4 bc 2b 41 85 bd
       0.43561098 0.37292138 -0.02400288 -0.065065704
000150 e1 d6 34 be de d3 0e 3d 15 d4 92 3d e8 43 86 be
       -0.17660095 0.03487002 0.07169358 -0.26223683
000160 d3 0f 1c ba 12 61 43 bd a4 73 45 be 97 01 91 bd
       -0.0005953286 -0.047699995 -0.19282395 -0.07080381
000170 99 24 2c be 09 9a ed be bb f1 97 be 98 8c f9 be
       -0.16810836 -0.46406582 -0.29676613 -0.48740077
000180 fd d5 04 3e bb c4 bd be 42 19 09 3e 97 1b 53 be
       0.12972255 -0.37064156 0.13388541 -0.20615993
000190 4a ee 3b bd ff e0 e3 be 4c 54 92 be 72 40 ea 3e
       -0.045881547 -0.44507596 -0.28579938 0.45752293
0001a0 0e bc 0a bf 12 70 49 bf 50 3f 22 be a7 a4 45 bc
       -0.541932 -0.7868663 -0.15844464 -0.012063182
0001b0 ce 2a 5f bd 82 7c 43 3e 4f b7 86 bc 86 b7 d5 bd
       -0.05448418 0.19090465 -0.01644483 -0.10435395
0001c0 4e 12 e9 bd da b9 34 3e 82 d5 8a be ce 4b a6 3c
       -0.113804445 0.17649022 -0.2711602 0.020299818
0001d0 df 01 db 3d ae 61 e1 be 06 e8 b6 3e 70 20 67 be
       0.10693716 -0.44019836 0.35723895 -0.22570968
0001e0 bc 76 05 bf 1c 9d 50 be 34 c1 26 3f 47 b7 a7 3e
       -0.521343 -0.20372432 0.65138555 0.32757017
0001f0 7a 69 ae be 1e 4d 04 be 76 c0 0f 3e c5 95 27 be
       -0.34064847 -0.12920043 0.14038262 -0.16365726
000200 85 cb b9 3d bd 69 ca 3d 4c 06 d0 3e f1 07 b0 be
       0.090720214 0.09883449 0.40629804 -0.3438106
000210 f8 ad 7a ba dd ac 87 bd ce 54 86 bd dc 4a 1a bf
       -0.00095626665 -0.06624768 -0.06559144 -0.60270476
000220 ea 80 88 3c d4 ab c9 be a3 38 6f bd f1 1d 39 be
       0.016663034 -0.39388907 -0.058403622 -0.18077828
000230 4c 7e 07 be 4c b2 97 3d 79 a9 16 bd 32 df 49 bf
       -0.13231772 0.07407054 -0.036782715 -0.78856194
000240 ac 1b 97 3e cb 04 44 3e 6f 5a 83 3e 70 f8 d9 3f
       0.295133 0.19142453 0.25654933 1.7028942
000250 2e 83 bf be 12 84 9e bd 24 0a b9 be 33 d8 03 3f
       -0.3740477 -0.07740034 -0.3614055 0.5150177
000260 4f ca 2e be e8 e9 7e be 1c 35 e9 3d 5f 2d e2 be
       -0.17069362 -0.24893916 0.11387083 -0.4417524
000270 fa 68 f1 3c b8 22 26 be 40 4c 6a 3e 96 97 1d 3f
       0.029469002 -0.16224182 0.2288065 0.61559427
000280 68 88 03 3d e7 67 ce be 2a 14 4c be 62 8c 00 3e
       0.03211251 -0.40313646 -0.19929567 0.12553552
000290 fa b9 2e 3e 79 ec 2a 3d 39 a8 48 3f b2 b2 b3 bc
       0.17063132 0.041729424 0.7838169 -0.021935795
0002a0 a4 6c 89 be b0 85 0d be 87 8e 7b 3e b1 07 0c be
       -0.268407 -0.13820529 0.24566089 -0.13674809
0002b0 65 50 47 bc 58 3a 29 3f 8c 6a c3 3d 91 d0 8e bc
       -0.012165164 0.6610465 0.095418066 -0.017433437
0002c0 21 c8 9a bd 7d 7a 70 3f 29 ee aa 3b 35 b3 12 bf
       -0.07557703 0.939369 0.005216379 -0.573047
0002d0 d0 dd 3b 3e 15 f6 84 3c ae 5f 93 be cc 5a 78 be
       0.18346334 0.016230622 -0.28783935 -0.24253386
0002e0 7e c3 a2 3a 6a b5 ee 3d 24 e6 4a 3c 1e dd 2a 3d
       0.001241788 0.11655696 0.012383971 0.04171478
0002f0 5f e7 51 3d 9a fb 24 3e 98 93 ae 3a c3 74 bf 3d
       0.051246043 0.16111603 0.0013319133 0.093484424
000300 a6 91 95 3e 5b d1 b2 3e 70 c4 46 be 36 90 84 be
       0.29212683 0.3492535 -0.19410872 -0.25891274
000310 32 de 3f 3e 46 cc c2 3d e6 52 24 3e 49 de 33 3e
       0.18737105 0.09511618 0.16047248 0.17565264
000320 81 2f 32 be 5e 0a 51 be 86 ea c2 be 2a 7e fd 3d
       -0.17400934 -0.20414111 -0.38069552 0.123775795
000330 13 04 1c 3f f7 e7 ce be f3 ae b6 3e e2 83 c4 be
       0.60943717 -0.4041135 0.3568035 -0.3838187
000340 cb 4f 0b be f3 0d d5 be 2c b0 71 3d 7c b1 ff be
       -0.13604657 -0.41612205 0.0590059 -0.49940097
000350 50 50 25 3f 9f 4e 8c bd c8 65 c9 3d f1 10 67 3e
       0.6457567 -0.06850933 0.09833866 0.22565056
000360 d6 27 bc 3c 1e 10 d7 be ac 46 ca 3d de 8a 98 3e
       0.022968214 -0.42004484 0.09876761 0.29793447
000370 8f 19 e7 3d 96 91 c4 3e e0 16 98 3e c8 d8 f2 bd
       0.11284172 0.38392323 0.29704952 -0.11857754
000380 43 46 33 bd c6 02 a6 3e 9e db 3d be ce 20 85 3c
       -0.04376818 0.3242399 -0.18540809 0.016250994
000390 7f b4 c0 3d 18 c0 9d be d8 ab 97 3e 12 89 5a be
       0.09409427 -0.30810618 0.29623294 -0.2134135
0003a0 1f c4 87 be a7 4a 3c bd af 60 9c 3e 06 21 84 be
       -0.26516816 -0.04596963 0.30542514 -0.25806445
0003b0 3a 85 02 be f9 39 06 3f df da 36 bf 13 41 97 bd
       -0.12746134 0.5243221 -0.7142772 -0.07385459
0003c0 38 93 05 3f c0 c7 03 3c af 71 c7 be 0c f1 14 be
       0.52177763 0.00804323 -0.3895392 -0.14545077
0003d0 86 51 63 3e 93 37 be 3e 0a a3 b7 3f c4 2c 35 3f
       0.22199067 0.37151775 1.434663 0.7077143
0003e0 d8 d6 d5 be bd 91 36 3f 63 96 a9 bb 5c 83 40 be
       -0.41765475 0.7131613 -0.005175398 -0.1880011
0003f0 8a 0c 0a 3e 5e 3a 7a 3e e3 d8 8d be 62 4a 40 3e
       0.13481346 0.24436328 -0.27704534 0.18778375

bias f4 [16]
000000 00 00 00 00 6a a7 e3 3d 00 00 00 00 f0 f5 01 bd
       0.0 0.11115916 0.0 -0.031728685
000010 33 e9 95 be 11 18 9a bd 00 00 00 00 1c 52 40 bd
       -0.2927948 -0.075241216 0.0 -0.046953306
000020 6a 2d e2 bd fc 44 ab be 0e bf ef be 8a 8b 17 bf
       -0.11043818 -0.33451068 -0.4682545 -0.59197295
000030 00 00 00 00 7b 5a 29 bc 00 00 00 00 9f 4f 07 bf
       0.0 -0.010336514 0.0 -0.5285587

weight f4 [16, 16]
000000 85 40 1a bf ff 98 cb be be 4d 10 3e 6c 9a 82 bd
       -0.602547 -0.39765164 0.14092156 -0.0637711
000010 d5 04 f1 bd 9f 39 73 3e ad f2 84 3e 1a aa f2 bd
       -0.117685 0.2375245 0.25966397 -0.118488505
000020 31 ca 11 3f eb 9a e8 be 3a 70 b5 3d bd 8a a9 3e
       0.56949145 -0.45430693 0.08859296 0.3311366
000030 80 5c 03 3d d3 2e a7 3e 1b 00 01 bf 27 1d d5 bc
       0.032070637 0.32652912 -0.50390786 -0.026014877
000040 07 0b 53 3e c8 86 db be 13 76 d6 3e eb 4c 1b bf
       0.20609675 -0.42876267 0.41886958 -0.6066424
000050 3e a0 24 3e e0 ba a4 3e 1a 6d a9 be 2c 0f 3c be
       0.16076753 0.32173824 -0.3309105 -0.18365163
000060 64 8e 48 3d 90 41 b3 bd 40 d4 06 be 39 f1 a0 be
       0.04896392 -0.087527394 -0.13166904 -0.31434038
000070 c1 b1 d0 be b9 66 3f bf 0b dd 8c be 08 50 07 3d
       -0.40760615 -0.7476612 -0.27512392 0.033035308
000080 0f 57 d5 bd 6d 7a 18 3f b1 f3 0f 3e ab 0b d3 be
       -0.10416996 0.59561807 0.14057805 -0.4121984
000090 ca 83 cf bd 29 6f 23 3e 5d 68 f5 3b 2d 4a 5a be
       -0.10132559 0.15960373 0.0074892477 -0.21317358
0000a0 b3 ab 86 bf e0 57 c5 3e 29 91 01 3e c0 63 02 be
       -1.0521148 0.38543606 0.1265303 -0.12733364
0000b0 d0 0a 2d 3f 69 79 5e bf 76 a2 bf bd a4 69 46 bf
       0.67594624 -0.8690401 -0.09357159 -0.77504945
0000c0 1c a3 34 3e ca e5 a7 3d b8 e6 b4 be 4a 64 be be
       0.17640346 0.08198126 -0.35332274 -0.3718589
0000d0 e7 da af 3c 73 84 b9 3d 76 f2 a0 be 2d 78 dd 3e
       0.021466685 0.09058466 -0.31434983 0.4325575
0000e0 a0 8b a0 bd e3 25 e7 be fd c5 5b bc e5 a8 20 3e
       -0.07839131 -0.45146093 -0.013413903 0.15689428
0000f0 20 d9 85 3e 10 8c b8 bd 09 b4 9f bd f7 37 63 be
       0.26142216 -0.0901109 -0.07798011 -0.22189318
000100 d0 5a b0 3e 70 95 46 be 89 2d 23 3d b0 3e dc 3d
       0.34444284 -0.19392943 0.039838348 0.10754144
000110 fa a0 03 be 14 6f cf 3e 4e 3a 34 bf 0d c0 e6 bd
       -0.12854376 0.40514433 -0.70401466 -0.112670995
000120 0e 5e 92 bd 47 1d 7c be 16 52 24 be dd cc cb 3c
       -0.07146846 -0.24620543 -0.16046938 0.02487796
000130 97 75 37 3d 27 6f d7 be 3a fd f7 3e f2 3e 46 3f
       0.044789877 -0.4207699 0.48435384 0.77439797
000140 60 92 17 3e b0 ae b1 3b a0 9f 37 bd c7 03 05 3f
       0.14801931 0.0054224357 -0.044829965 0.5195889
000150 08 54 11 bd 29 3c 36 be ba 90 a2 be 63 e8 8f be
       -0.03548053 -0.17796387 -0.31751043 -0.28106984
000160 de f7 d5 3e 97 fe 28 bf 47 5e 73 bd f1 40 4c 3d
       0.4179067 -0.66013473 -0.05941608 0.04986662
000170 e7 53 a3 3e e7 e3 40 3e d7 f7 4d 3e a6 4d c9 be
       0.3189995 0.18836938 0.20114075 -0.39317054
000180 43 4c 44 bf 0d ed 41 3e 0e da 96 be b1 e0 1b bf
       -0.76678866 0.18938084 -0.29463238 -0.60889727
000190 48 ea aa 3e 1a f2 55 bf c1 12 f2 3e 09 de e8 bd
       0.33381867 -0.8357254 0.47279933 -0.11370475
0001a0 13 25 c7 be a7 1e 02 3f e2 03 88 3b 04 8d 99 be
       -0.38895473 0.5082802 0.0041508535 -0.299904
0001b0 ab a5 d0 3c c8 b1 00 be 92 aa c0 3e ac 3d 13 3f
       0.025469622 -0.12567818 0.37630135 0.5751598
0001c0 90 40 5d 3e c1 a3 8c 3e f9 cd 39 bd 48 41 39 3f
       0.2160666 0.27468684 -0.045362446 0.72365236
0001d0 1b f7 28 be d8 33 95 3e 64 98 01 3f 6b b8 15 3f
       -0.16500513 0.29141116 0.50623155 0.58484524
0001e0 91 dd 04 bf 1b 2b 49 3e a8 47 be bd fd f8 1c be
       -0.51900584 0.1964535 -0.09291011 -0.15329356
0001f0 25 e0 92 be 34 27 ae 3e 5b 86 9b 3e b0 88 1a bf
       -0.28686634 0.34014285 0.30375943 -0.6036482
000200 96 a9 37 3d be 83 12 bf 51 9e 7c 3d d2 91 43 3f
       0.044839464 -0.5723227 0.06167442 0.7639438
000210 83 f4 c5 bd 09 09 0d 3e 51 15 5d 3e cd 30 fc be
       -0.096657775 0.13772978 0.21590163 -0.49255982
000220 d8 55 c2 be c7 16 87 3d 3f b6 7d bd 9a 8c a6 3e
       -0.3795612 0.06596141 -0.06194138 0.32529145
000230 31 06 ae bd 4d be b2 3e 68 bd ce be 34 02 e4 3d
       -0.08497275 0.34910813 -0.4037888 0.11133233
000240 4a ed 89 3d 91 34 89 3e bc a1 ef be e0 61 6f 3e
       0.067347124 0.26797917 -0.4680308 0.2337718
000250 62 79 20 3d d1 1e a4 3d 03 c2 0b 3e 54 41 bd 3e
       0.03917826 0.0801369 0.13648228 0.36963904
000260 a3 00 c2 bd 15 a2 45 3f 05 b8 ad be 8c 9d bd be
       -0.09472778 0.7720044 -0.33929458 -0.3703426
000270 34 f3 ea bc 2c 0d 5f bd dc f5 21 be cd c4 f0 3e
       -0.028680421 -0.05445592 -0.15816444 0.47025147
000280 21 9b aa be 59 ca 09 bf 99 f1 76 bd 1d ba a7 bd
       -0.3332148 -0.53824383 -0.060289 -0.08189795
000290 0a 10 c5 bc f8 0f c6 be 82 35 e3 3d ea f5 a9 3d
       -0.0240555 -0.38684058 0.1109419 0.082988575
0002a0 e9 9a 95 bf 6d 61 5c be 9a d4 0d 3f fb 2a a5 3e
       -1.16879 -0.2152154 0.5540253 0.32259354
0002b0 be dd 89 be d7 9d 99 3d 54 e1 ad be d1 34 29 bb
       -0.26926988 0.07500809 -0.33960974 -0.0025818835
0002c0 86 97 0c be 0a c8 ca 3e 6c d3 23 be 4c 9c 31 bf
       -0.13729677 0.39605743 -0.1599862 -0.69379115
0002d0 ea ce 8f 3e f8 e8 ff bc e3 a0 d5 be ab bd f2 be
       0.2808755 -0.031239018 -0.4172431 -0.4741033
0002e0 21 0c 67 3e 18 29 9c 3e 25 ae 85 3e ba a8 7c be
       0.2256322 0.30500102 0.26109424 -0.24673739
0002f0 97 49 9d be e7 2c 7d be ac df 44 bf 42 8b 73 3d
       -0.30720207 -0.2472416 -0.76903796 0.05945898
000300 8c 73 0e bf b7 5e 82 be 3c e6 e3 3d 2b ee cd 3d
       -0.5564506 -0.25462887 0.11127898 0.100551926
000310 df 56 f7 bd f1 be 61 be e9 fc b1 3c 49 4f e9 3e
       -0.12077116 -0.22045495 0.021727042 0.45568302
000320 d6 04 fd be e1 20 36 be b8 9d 61 bf 0e 4a 7b bf
       -0.49417752 -0.1778598 -0.88131285 -0.98159873
000330 7d 31 ce 3e 3c 94 f8 bd 05 6b bf 3e 69 ce a8 3e
       0.40272132 -0.121376485 0.37386337 0.32969978
000340 75 72 b1 3e 5c e1 f6 be 74 e0 90 bd 98 c1 63 3e
       0.34657636 -0.4821881 -0.07074061 0.22241819
000350 2c 39 02 be dd 16 80 3d 94 f1 39 3f 1b 4e 7f 3e
       -0.12717122 0.06254361 0.72634244 0.24932139
000360 3a 50 4d 3e fa 28 45 3e d8 15 f8 3e 95 f6 f8 bd
       0.20050135 0.19253913 0.48454165 -0.12156407
000370 6d 64 f0 bd c2 10 8b be b4 13 3e 3f 95 b0 8b be
       -0.11737905 -0.27161223 0.74248815 -0.2728316
000380 91 84 f9 bd 25 00 f2 bd 9a 57 e5 3e 75 a8 27 3f
       -0.12183488 -0.11816434 0.44793397 0.6549142
000390 5b 01 b4 3f 69 a6 d9 be f1 7c f4 3b 28 0d 2b 3e
       1.4062914 -0.42509773 0.0074611832 0.16704237
0003a0 85 64 3a 3f 65 7d b0 bd 95 77 4d bd 3c a9 5a bf
       0.7280963 -0.08617667 -0.05016287 -0.8541448
0003b0 9f b7 47 be 61 d7 c2 be c6 92 90 bd 7a 17 c0 3d
       -0.1950364 -0.38054946 -0.07059245 0.09379478
0003c0 4d fc a7 be ce 3f ca 3d 09 76 af 3e 10 78 b4 3e
       -0.32809678 0.09875451 0.3426974 0.3524785
0003d0 a8 28 1a be 92 65 8f 3e 0e b0 e6 3e a0 bd fb 3e
       -0.15054572 0.2800718 0.45056194 0.4916811
0003e0 2a b5 c1 be fe ec cd 3d 67 87 90 bd e2 5e eb bc
       -0.3783353 0.10054968 -0.07057076 -0.028731767
0003f0 34 7e 0f 3f 7e 46 d8 3d c1 5e 6a 3e a9 6f 5b bd
       0.56051946 0.1056032 0.22887708 -0.053573284

bias f4 [16]
000000 11 f0 81 be af b9 f1 bd a3 74 55 be c1 f4 8c 3c
       -0.2537847 -0.118029945 -0.20845275 0.017206552
000010 d7 80 86 be 86 37 8f bd 4d 17 97 3e b7 2c f4 be
       -0.26270172 -0.06993012 0.29509965 -0.47690365
000020 e9 af d2 be 7c 73 89 be c0 db 98 be 11 20 a4 be
       -0.41149834 -0.2684592 -0.29855156 -0.32055715
000030 00 00 00 00 8e de 8f be fa 04 ce 3d 9b be 5e be
       0.0 -0.28099483 0.10059543 -0.21752398

weight f4 [32, 16]
000000 23 c4 6f 3d fe d1 0d 3e cc f3 58 be 28 07 80 3e
       0.05853666 0.13849637 -0.21186751 0.2500546
000010 03 aa ca 3d 22 c2 10 be 86 2b a1 be 4f e9 0c 3f
       0.098957084 -0.14136556 -0.31478518 0.550435
000020 fb 18 21 bf 07 a2 17 bf 5b 8f 55 bc e0 00 02 3e
       -0.6292874 -0.5923161 -0.013034667 0.12695646
000030 b6 9b 0e 3f 08 c0 8c 3c 20 d3 91 3e 70 7f 9e bc
       0.55706346 0.017181411 0.28481388 -0.019347876
000040 71 29 0c bf 63 ce 58 be f9 8e 96 bd 71 9e b5 3e
       -0.54750735 -0.2117248 -0.073514886 0.35472444
000050 95 c3 eb be 66 45 43 bd 37 10 5b 3f a1 23 76 be
       -0.46047655 -0.047673605 0.85571617 -0.24037029
000060 c0 4a 32 be fc 15 89 bd f4 dd 92 be 20 60 0d 3e
       -0.17411327 -0.06693646 -0.28684962 0.138062
000070 12 36 8c 3d 34 98 45 3f 8d 2f 08 bf c3 2d 80 3e
       0.068462506 0.7718537 -0.53197557 0.25034913
000080 28 d1 3b be cd d0 90 3e 95 f9 6a be ff 40 80 3e
       -0.18341506 0.28284302 -0.2294677 0.25049588
000090 85 51 2a bd 51 b9 fa 3e d8 f4 e4 3d 2e bf 44 bd
       -0.04158165 0.4896951 0.11179513 -0.048033886
0000a0 b0 53 87 be 2f 6b ab 3d bd f7 8f be 26 65 90 3e
       -0.26431036 0.08370053 -0.28118697 0.2820217
0000b0 03 e6 9e 3e 9e 40 81 be 0a 07 db bc b4 00 dc 3e
       0.3103486 -0.25244612 -0.026736755 0.42969286
0000c0 ba fa 6a 3e 58 58 69 3d 16 b6 37 be 36 c7 36 be
       0.22947207 0.056969017 -0.17940554 -0.1784943
0000d0 f6 06 de bd 86 b0 10 be bb 4e 80 3e f8 34 c4 3e
       -0.108411714 -0.14129838 0.25060067 0.38321662
0000e0 d9 22 03 3e 16 b8 17 be be 0e 64 3e f3 b8 a0 3e
       0.12806262 -0.14816317 0.22271249 0.31391105
0000f0 f1 22 e8 bb 79 bd 72 bf 37 4c 98 be c5 7d 3c 3e
       -0.0070842435 -0.9482036 -0.29745647 0.18407352
000100 09 6a be 3e 41 60 e0 bd 02 01 31 3e 50 40 44 be
       0.37190273 -0.10955859 0.1728554 -0.19165158
000110 82 0c 5d bb 96 f0 4b 3d 21 2e f3 bd 6a c2 93 3d
       -0.003372938 0.049789988 -0.11874033 0.07214816
000120 4c 35 18 3f 54 89 00 be d4 56 59 3f 96 55 2e bf
       0.59456325 -0.12552387 0.84898114 -0.68099344
000130 e7 12 91 be c0 56 c9 be dd aa 45 be dc aa 44 be
       -0.28334734 -0.39323997 -0.1930346 -0.19205803
000140 83 6e 4f bd bc 81 2f bd 22 b8 66 3d d2 55 93 3e
       -0.0506425 -0.042848334 0.056327946 0.28776413
000150 7b e7 6c 3e 66 4b a9 3d 41 eb 2d be 5e 13 21 bd
       0.23135178 0.08266334 -0.16984273 -0.03932511
000160 c0 d4 73 3e f7 ee b9 3e 8d ce 15 3d f9 02 62 be
       0.23811626 0.36315128 0.036573935 -0.22071446
000170 55 af 77 bb 00 13 d2 3e f3 fd 67 bd dd 31 8b be
       -0.0037793715 0.4103012 -0.05663867 -0.2718648
000180 b4 b2 9f bd ea 92 0d 3e 62 7d 55 be 31 2e b6 be
       -0.07797757 0.13825575 -0.20848611 -0.35582116
000190 53 38 b5 be 6b cc 36 be 8a 6d 38 be 90 d9 90 bd
       -0.35394534 -0.17851417 -0.18010536 -0.07072747
0001a0 9e 11 8d bc ce be 93 be d8 af 56 be a5 89 cd 3e
       -0.017220315 -0.2885651 -0.20965517 0.40144077
0001b0 da a4 fe bc fe ca eb 3e cd cf df 3d e3 53 08 be
       -0.031084467 0.46053308 0.10928307 -0.1331325
0001c0 f8 e7 ce be 6d df bb bd 72 9f 2d bf 51 92 4d 3c
       -0.40411353 -0.091734745 -0.6782142 0.012547092
0001d0 21 3d 16 bf ce 52 82 be e4 a0 1a be 4d 6e 56 3f
       -0.58687025 -0.254538 -0.15100437 0.83762056
0001e0 3f dc 54 3f 78 8e 93 be 57 89 87 be 83 57 f4 3e
       0.8314857 -0.28819633 -0.2647197 0.47723016
0001f0 fc c4 89 be fb 21 3e bd 77 41 32 be e5 cb bb bd
       -0.269081 -0.046419125 -0.17407785 -0.09169749
000200 b6 95 d7 bc 2d 71 a8 be 77 70 19 be 80 0a 28 3d
       -0.026316505 -0.32898846 -0.14984308 0.04102564
000210 84 72 6f 3f fc 39 4d be 02 8d 02 3e fd 4d 92 3d
       0.9353411 -0.2004165 0.12749103 0.07143781
000220 20 96 b1 be 80 9b b7 3c e8 45 bc bd dd b8 98 be
       -0.3468485 0.022413015 -0.09193021 -0.2982854
000230 fe 37 e7 3d d4 f9 2c be e7 14 96 3e f4 80 52 3e
       0.112899765 -0.16892177 0.29312822 0.20557004
000240 80 6e bd bd 87 61 8b 3f eb ef 2c be 2c a7 e9 3e
       -0.09249592 1.0889138 -0.16888396 0.45635355
000250 5e 1c 88 be 71 0a 9b 3e cf e9 40 be c5 14 11 bd
       -0.26584142 0.30281404 -0.18839191 -0.035420198
000260 5c f6 51 3e 47 5c ac 3e 2b 12 2b 3f 8c f7 7b be
       0.20504135 0.33664152 0.668246 -0.2460615
000270 e3 ac f4 3e 69 fd 0b be 8d 80 a2 bd ce 0f b9 be
       0.47788152 -0.13670887 -0.07934675 -0.3614487
000280 5b 70 2c bf cf b0 8e 3e 61 fc 60 bc 28 b6 64 3e
       -0.6735894 0.2786927 -0.013732047 0.22335112
000290 1b 0f 00 3f 37 9b 4b bd b5 36 c7 3e 2b bf a2 bd
       0.5002305 -0.04970857 0.38908926 -0.07946619
0002a0 19 4a 84 be 8e 8d cd bd 45 31 48 3d 46 a0 2d 3e
       -0.25837782 -0.10036765 0.048875112 0.1695567
0002b0 d0 1d 19 bf c1 aa 8c bc 44 4b 7b bd 25 57 ba be
       -0.59811115 -0.017171266 -0.061351076 -0.3639461
0002c0 e5 0d 44 3e e4 88 bf 3e 12 27 02 3f 15 7b 1d be
       0.19145925 0.37409127 0.50840867 -0.15378983
0002d0 f9 8e ae be 1a 75 d5 3e e7 da ba be 7d 5b 62 3e
       -0.34093454 0.41690904 -0.36495134 0.22105213
0002e0 f0 7d a7 be b0 72 ce be dc 19 1e 3e 12 31 ba 3e
       -0.3271327 -0.40321875 0.15439552 0.36365563
0002f0 15 8c 94 3e 7f f2 1b be 26 36 8e be 47 5d a1 be
       0.29013124 -0.15229224 -0.27775687 -0.31516477
000300 d5 84 96 3e 45 5a d0 3d 79 f7 a0 be bd 6e df 3d
       0.29398218 0.101734675 -0.31438807 0.109097935
000310 c2 63 17 3f 72 28 09 3f 38 8b 6b 3e 52 18 0f bf
       0.59136593 0.5357734 0.23002326 -0.55896485
000320 eb 90 1f bd cf 6d d3 bd 44 fc 3f bf 00 58 6b be
       -0.038956564 -0.10323679 -0.749943 -0.22982788
000330 40 ed 1b bf 69 02 ba 3e 06 01 bf be 9b d7 c9 be
       -0.6090889 0.36329964 -0.37305468 -0.39422306
000340 40 31 01 3e 7f fb 11 3f 34 40 45 3f 96 fd 1e bf
       0.12616444 0.5702438 0.7705109 -0.6210569
000350 a7 6f dc 3e a7 69 01 bf 94 27 84 3e b2 cb 00 3f
       0.43053934 -0.5055184 0.25811446 0.50310814
000360 02 d2 d8 3d 4d 26 1c bd 52 98 18 bd 42 ca bb be
       0.10586931 -0.038122464 -0.03725464 -0.36677748
000370 6c d6 a3 be b1 db b4 3e d7 e4 55 3d 35 dd 12 3f
       -0.31999528 0.3532386 0.05222019 0.57368785
000380 90 aa 5f be fd c3 0e 3d 99 a5 be bd 9a 7e 09 3e
       -0.21842408 0.034854878 -0.09308929 0.13427201
000390 6d d3 02 3f 52 92 c2 3e fd c3 63 3e 5f a2 47 bf
       0.5110386 0.3800226 0.22242732 -0.77982134
0003a0 a8 43 68 be cf f5 a2 bb 66 db b0 bd 11 06 98 be
       -0.22682059 -0.0049731503 -0.08635597 -0.29692128
0003b0 37 a4 5c 3e 62 e6 0f 3f 28 24 96 be 0e 2a 40 be
       0.21547018 0.5621091 -0.2932446 -0.18766043
0003c0 f3 22 0a bf 17 d9 5a be 51 97 ab be 69 06 42 bf
       -0.5395958 -0.21371876 -0.33513883 -0.7579103
0003d0 13 28 96 bc b2 e5 18 be 1d 97 e7 3d fb 43 b8 3d
       -0.018329656 -0.14931372 0.113081194 0.08997341
0003e0 b1 14 a6 3e 47 64 cf be 55 33 4c be d3 8f d9 3e
       0.3243766 -0.40506193 -0.19941457 0.42492542
0003f0 fb 6f c2 be ef b8 8d 3e a7 16 8f 3e 19 6a 12 bf
       -0.3797606 0.27680156 0.2794697 -0.5719314

bias f4 [32]
000000 a6 52 7e 3e 61 c7 b3 3b bd d2 4e 3d 62 a1 d0 bd
       0.24836215 0.0054864143 0.050493944 -0.10187031
000010 a7 00 91 3c 5f 96 ef 3b 81 9f cd 3c a3 dd 9f 3d
       0.017700506 0.007311627 0.025100471 0.07805946
000020 4e 69 94 bd 3c 89 47 3e 0c b2 26 bd 3b f4 0d be
       -0.07246648 0.19485945 -0.040697142 -0.13862698
000030 88 ff e8 3d 2c a0 17 be 91 a2 04 3d 33 2a 81 bd
       0.11376864 -0.14807194 0.032381598 -0.06306877
000040 61 27 28 3d 85 23 c3 3c 2a d9 01 be fa 2a 03 3e
       0.04105318 0.023820648 -0.12680498 0.12809363
000050 98 9f 62 3c d4 e4 2c bb 83 a9 16 3e 1c ad 93 3d
       0.013831995 -0.002638151 0.14713101 0.07210752
000060 4a 85 52 be f5 56 ab bd 74 c9 3f bc 80 e7 91 bd
       -0.20558658 -0.08366195 -0.011705745 -0.07124233
000070 2f 72 12 bd fc 72 38 3e c5 ee e6 bd 69 89 67 be
       -0.035753425 0.18012613 -0.112760104 -0.22611012

weight f4 [16, 32]
000000 54 1a db 3e 97 e0 b1 3e 9f f6 aa be 50 6f 85 be
       0.42793524 0.3474166 -0.33391282 -0.26061487
000010 4d f7 64 bd 84 78 1c bf 91 fe 86 be 63 74 18 bf
       -0.055899907 -0.6112139 -0.26366094 -0.5955259
000020 71 2b fe 3d ec ba a5 3d c9 6a 61 3d 99 94 13 bf
       0.124106295 0.08092293 0.05503348 -0.5764862
000030 0d 61 f3 3c 18 45 56 3e a5 6b a5 3d 2c 65 b4 3e
       0.029709363 0.20924795 0.08077172 0.35233438
000040 bc 8c 9a 3d 01 bb e2 be 7b 4d ad 3e 8f 14 25 3d
       0.07546374 -0.44283298 0.33848175 0.04030281
000050 cb 90 fe be 19 34 04 be bd 6c 0f 3f 4d f6 c5 bd
       -0.49719843 -0.12910499 0.56025296 -0.09666119
000060 1d 9e 20 3e 49 4b 8c 3e fc 44 8a 3e 32 8f f0 bc
       0.15685315 0.27401188 0.27005756 -0.029365156
000070 c4 5f a3 3e 9d 7f 0d bf 38 dd 46 be 33 74 0d bf
       0.31909 -0.5527285 -0.19420326 -0.5525543
000080 c8 74 f8 3e 8e 66 87 3e 25 0f be be 20 69 18 bd
       0.48526597 0.2644543 -0.3712093 -0.03720963
000090 64 7f c2 3e a4 11 c7 be e4 23 9e be d1 7d 0b bf
       0.37987816 -0.38880646 -0.30886757 -0.54488856
0000a0 b3 15 fd 3e 4e f8 1f 3e 71 21 a5 bd bb 64 12 bf
       0.49430618 0.15622064 -0.08063019 -0.5718495
0000b0 79 39 0a bd 83 1a 7a be eb c2 a3 be 6a 33 72 be
       -0.033746216 -0.24424176 -0.31984648 -0.23652425
0000c0 c1 d6 ab be 7b 71 71 3d 14 8b 0a bf 55 1c 3d bd
       -0.33562282 0.058946114 -0.54118466 -0.046169598
0000d0 c3 d4 19 3f 07 03 0e be 5d af e9 bd 05 a8 d1 3d
       0.60090274 -0.13868342 -0.11410401 0.10237125
0000e0 5b e4 31 bf b8 85 61 3e f0 a3 3c 3e 7b de ba be
       -0.6948907 0.22023666 0.18421912 -0.36497864
0000f0 94 de 98 be 94 a5 f1 3e b1 3e 66 3d c8 36 46 be
       -0.29857314 0.4719664 0.05621213 -0.19356835
000100 c7 d2 81 bd fc 6d 4d 3d 71 3b cb be 68 88 f9 3e
       -0.06339031 0.050153717 -0.39693788 0.48736882
000110 bf 4b 2c be 18 58 20 3f 1f eb d6 3e 48 a0 1c be
       -0.1682577 0.6263442 0.41976258 -0.15295517
000120 e4 6e 32 3e 8c a3 dd be c0 32 7f bc fb 45 26 be
       0.17425114 -0.4328884 -0.015576065 -0.16237633
000130 b6 fa 3a be 67 ab 0a 3f 4b 2e 7b 3d bb 6d 5b 3e
       -0.18259701 0.5416779 0.061323445 0.21428578
000140 ee e9 e6 3d 79 fa 8f be e2 f9 0f 3f 01 21 1f bf
       0.11275087 -0.28120783 0.56240666 -0.62159735
000150 6b c7 5f 3d d4 ee 14 be f4 02 7c be dd e3 da bd
       0.05463354 -0.1454423 -0.24610502 -0.10687993
000160 d0 41 b0 be dc f7 07 3f 67 04 8a be 78 0a df 3d
       -0.3442521 0.5311258 -0.26956484 0.10890669
000170 ee 74 a3 bd 1f 1b 73 be 65 f5 2f 3d 56 23 52 bd
       -0.07981287 -0.23740815 0.042958636 -0.05130323
000180 9b f0 35 bd 50 55 aa 3e c7 38 11 bf 25 bb 9c 3f
       -0.044418912 0.33268213 -0.5672726 1.2244612
000190 16 a3 f5 3e 30 e9 e6 3e 7a 25 b3 3e f7 b8 8f be
       0.47975987 0.45099783 0.3498953 -0.28070804
0001a0 c2 de 34 3f 8b a3 ce be eb 5f 4f 3e ec ab a2 be
       0.706524 -0.40359148 0.20251434 -0.3177179
0001b0 50 57 0b 3e 50 a8 14 3e 67 a5 82 be 23 b3 fb 3e
       0.13607526 0.14517331 -0.25516817 0.49160108
0001c0 2c 5f 82 be 49 d0 9a be 1d 9d d0 bd a2 82 b0 be
       -0.25463235 -0.30237034 -0.10186217 -0.34474665
0001d0 77 ed 55 3c 25 ca 38 be 69 5a 29 bd 35 df 15 3f
       0.013057104 -0.18045862 -0.041345987 0.5854371
0001e0 12 3e 35 3f 7f 90 26 3e 03 21 3e 3f 49 fe 0e 3e
       0.70797837 0.16266058 0.7426912 0.1396419
0001f0 e1 e8 41 be 6d 77 d0 be f7 07 b2 3e 54 44 c3 3e
       -0.18936493 -0.40716115 0.34771702 0.38138068
000200 17 f2 8f be 87 2c ee bb 09 1d 01 bd 1a b3 ee be
       -0.28114387 -0.0072684917 -0.03152183 -0.4662102
000210 f9 b7 d1 3d fc 04 e5 3d 2c f0 7a be c8 ea bb 3e
       0.10240168 0.11182591 -0.24505681 0.3670256
000220 46 4c bb be 87 e0 8a 3d 18 5f 44 be 09 19 14 bc
       -0.3658163 0.067811064 -0.191769 -0.009039172
000230 f5 5e c9 be af 83 9e bc 4c b6 e6 be 43 29 19 bf
       -0.3933026 -0.019349901 -0.45060956 -0.59828585
000240 bf aa c5 3e d8 be 0a 3c 08 8c b0 be 4f ac c2 be
       0.3860683 0.008468352 -0.34481835 -0.38022086
000250 1a 6b b8 3d df e0 01 be f2 3c c0 3d 14 89 42 3e
       0.09004803 -0.12683438 0.093866244 0.18997604
000260 13 3c 04 be f5 ee 03 be 2a ba 34 3e f0 d0 f9 3d
       -0.12913541 -0.12884124 0.17649141 0.12198055
000270 76 a1 ad 3d 2a b2 3e 3e 28 c1 31 be de dc 68 bd
       0.08478062 0.18622652 -0.1735884 -0.05685126
000280 46 b6 42 3f 06 89 9c 3e 99 b3 9e be a3 51 4a bf
       0.7605938 0.3057329 -0.30996397 -0.7903082
000290 81 f2 62 3e bd d3 92 be dd 7a 00 bf f9 60 65 3e
       0.2216282 -0.28677168 -0.50187474 0.22400273
0002a0 87 b1 9d be d8 7f 4e 3e 39 61 1d bf 11 d0 5c be
       -0.30799505 0.20165956 -0.61476475 -0.21563746
0002b0 e9 a0 43 3e 07 83 73 bf 48 b8 ea bd 4d 3c d8 bb
       0.19104351 -0.95121807 -0.1146093 -0.0065989853
0002c0 64 f6 d7 3e c3 0b f6 be 58 b4 6e bd 6a 85 96 be
       0.4218017 -0.48055848 -0.058277458 -0.29398662
0002d0 8a 59 aa be 93 1f 18 be 81 ee 3c 3e 69 6b de 3c
       -0.33271438 -0.14855795 0.18450357 0.027150827
0002e0 fa e9 a7 be a4 c7 10 3f cb 38 ae bc e1 cf d4 3d
       -0.32795697 0.5655463 -0.021267315 0.10391212
0002f0 fb 52 b2 be 67 23 4d bf a3 98 6c 3d ba 7d b2 be
       -0.34828934 -0.80132145 0.057762753 -0.34861547
000300 62 a4 57 3e d4 77 df be 59 ac 66 bd de d3 09 3f
       0.21058801 -0.4364611 -0.056316707 0.5383891
000310 97 4e c2 be b1 b2 94 bd 2d 5e 16 3e 68 5a ba be
       -0.37950584 -0.07260645 0.14684363 -0.363971
000320 00 c4 68 3e b0 ee 2c be 24 46 91 3e 6e 88 97 3e
       0.22731018 -0.16887927 0.28373826 0.29596275
000330 8a 97 b2 bd 24 35 47 3e f0 e9 bc 3e 85 fd 16 3f
       -0.0872031 0.19453865 0.3689723 0.5898059
000340 42 6f 6a bc 44 51 b6 bd 3a fd 3d 3e 9c 8a 82 bd
       -0.0143087525 -0.08902219 0.1855363 -0.06374094
000350 72 07 58 be c0 8c 0f 3e 67 42 da be 2d 8a c0 bd
       -0.2109659 0.14018536 -0.42628786 -0.09401355
000360 65 0f 8f be f3 82 df bd cb 9e 89 bd 97 e8 08 bf
       -0.27941433 -0.109136485 -0.067197405 -0.53479904
000370 b1 b7 cd 3d ed fc 05 bf aa 15 b5 3e 1d 23 ac 3e
       0.10044802 -0.5233906 0.3536809 0.3362054
000380 8b c8 0b 3e d8 a3 0c 3f 9c 58 ff 3c 8f 02 a6 3e
       0.1365072 0.54937506 0.031170182 0.32423827
000390 b2 dc 70 3e 0d 01 bb 3e 9b 4b 91 be 8a 84 4a be
       0.23521689 0.3652424 -0.28377995 -0.19777122
0003a0 f0 c7 94 bd 16 03 1a bd e9 86 b4 3e d1 7c 0c bf
       -0.072646976 -0.0376006 0.35259178 -0.54877955
0003b0 61 6b 27 bd bd 6c 04 bc ce d3 4e bd 1d 96 22 ba
       -0.04087389 -0.008082566 -0.05049496 -0.0006202178
0003c0 4b 1e 92 be 90 ff 4b bf 1c 0a d2 bc e2 22 11 3e
       -0.28538737 -0.7968683 -0.025639586 0.14173463
0003d0 84 04 fc 3b 2b 14 90 bd 93 67 6f 3e 32 31 e5 3e
       0.007690968 -0.07035097 0.23379354 0.44764096
0003e0 9e 62 c6 be df d3 98 3e 17 e3 60 3e 74 89 43 be
       -0.38747114 0.29849145 0.21961628 -0.19095403
0003f0 2d 4f 4b bf aa 38 5c 3e 28 4b f7 bc d5 4a 76 be
       -0.7941769 0.2150599 -0.030187204 -0.24051984

bias f4 [16]
000000 8b 38 f5 be 9e 49 d8 bd a2 38 5e be fe a0 5f be
       -0.478947 -0.10560916 -0.21701291 -0.21838757
000010 af 8d 8b be 37 5a bc bd a3 a5 ff 3d 10 af f0 bd
       -0.27256534 -0.091968946 0.124827646 -0.117521405
000020 e9 ae cf be cd c6 b0 3d d5 15 16 bf c0 c8 ee be
       -0.40563133 0.08631668 -0.58627063 -0.46637535
000030 92 f2 d7 3c 65 78 b1 be ee 98 a5 bd 79 24 dd be
       0.026360784 -0.34662166 -0.0808581 -0.4319189

weight f4 [16, 16]
000000 85 09 8c be 50 21 86 3d 44 e4 33 3e 67 3c 05 3f
       -0.27351013 0.065493226 0.17567545 0.5204529
000010 f6 8e 90 be 4d cc 0f bd bf e9 db 3e 71 7f a5 3e
       -0.2823407 -0.035106946 0.42951772 0.32323793
000020 87 59 85 3d d5 a0 76 be a4 e6 21 bf ed 6a ca 3d
       0.065112166 -0.2408479 -0.63242555 0.09883676
000030 53 c7 37 be c1 87 0b 3e 49 49 1d 3f 6a 10 9c 3d
       -0.1794713 0.13626005 0.6143995 0.07620318
000040 82 6b bb 3e 49 fb 02 bd 83 03 05 3e fd dd 19 3f
       0.3660546 -0.031977925 0.12989621 0.6010435
000050 52 95 c7 be bd f1 b8 3c 47 90 90 3d 0d 1e 94 3d
       -0.3898111 0.022576207 0.07058769 0.07232294
000060 40 6d 2a 3e e8 64 bc be ab 68 0a bf b7 f3 cf 3e
       0.16643238 -0.36795735 -0.5406596 0.40615627
000070 94 5a f3 bd 96 02 14 be da ff 58 3e bd 67 86 bd
       -0.11882511 -0.14454111 0.2119135 -0.06562755
000080 51 b5 dc 3e fb 32 3f bf ea 64 68 3e 3e ac 0e 3f
       0.43107083 -0.74687165 0.22694746 0.5573157
000090 13 90 7d bf 85 ab 51 bf 37 e4 98 be 4a f9 52 be
       -0.99047965 -0.81902343 -0.29861614 -0.20602909
0000a0 fa 16 32 3c eb d9 b1 bf 23 8a 28 bf 0c a1 cc bd
       0.010869736 -1.3894628 -0.6583578 -0.09991655
0000b0 b2 66 15 3f 13 3a 3b be 4c 14 8c 3d 07 e8 56 bd
       0.58359826 -0.18283872 0.06839809 -0.052467372
0000c0 f8 a3 79 be d9 55 ff bd 58 2f 49 bf 1d b8 e9 be
       -0.24378955 -0.12467546 -0.78587866 -0.4564828
0000d0 a6 44 e7 3e f9 66 bd be 60 45 a6 bd 93 01 20 be
       0.45169562 -0.36992624 -0.08118701 -0.156256
0000e0 d6 c5 51 3e f2 d4 58 3e be 6e 2e bf 47 10 41 bf
       0.20485625 0.21174982 -0.6813773 -0.7541546
0000f0 3f c7 33 be a6 44 66 be f5 86 90 be 8d 87 b8 bd
       -0.17556475 -0.22487125 -0.28227964 -0.09010229
000100 1f 35 61 3e 70 23 0b bd a5 be c3 be 1d 57 c2 be
       0.2199292 -0.033969343 -0.38231388 -0.37957087
000110 33 7a 31 3f 29 ec 3a bf fd 81 91 3e 52 29 bf bf
       0.69327086 -0.730166 0.28419486 -1.4934485
000120 c4 16 98 3e 9b 46 b8 be a6 98 47 bc 04 b8 e3 be
       0.2970487 -0.35991368 -0.01218239 -0.4447633
000130 0a da 53 3e 22 63 1e 3f 80 a6 8e bf 66 7a b1 be
       0.20688644 0.61870015 -1.1144562 -0.34663695
000140 7b 94 b3 3e c1 6c 25 bd 27 69 28 3f 31 6f 55 3e
       0.3507422 -0.04038692 0.6578545 0.20843197
000150 46 ca 0e 3f 56 33 31 bd d0 4a 87 3e 98 d9 31 bf
       0.55777395 -0.04326185 0.26424265 -0.69472647
000160 ed 86 e6 3e 16 e6 87 3d 84 38 7c bc 8f f6 6f 3e
       0.45024815 0.06635682 -0.015394334 0.23433898
000170 3c 34 df bd 9d d2 0a 3f 71 ff 47 be f9 f7 f9 3c
       -0.10898635 0.5422762 -0.19531037 0.03051375
000180 9b 22 82 3e ec 9a 12 3f 1f fe dd 3c db 2f c1 bf
       0.25417027 0.5726764 0.027098713 -1.5092729
000190 79 8c 2a 3e cb 46 03 be 10 73 11 3c fa 87 cb 3e
       0.16655149 -0.12819974 0.008877531 0.3975218
0001a0 89 e9 bf be 0b 54 36 3e 09 c2 7e be b0 a4 62 bf
       -0.3748286 0.17805497 -0.24878706 -0.88532543
0001b0 bf 3a dc be b7 5c 27 3e ce 32 98 be 49 a3 98 be
       -0.4301357 0.16343962 -0.2972626 -0.29812077
0001c0 e5 e8 e1 3d ee f9 ce 3d bb f3 95 be 84 89 aa 3d
       0.11030749 0.10106264 -0.29287514 0.0832701
0001d0 c0 c1 96 be 77 31 16 be 1c 4a ed be 7b 44 46 bd
       -0.29444695 -0.14667307 -0.46345603 -0.04840515
0001e0 37 c1 3b be 7b cd bc be c2 8e bd bd 33 d2 3b bf
       -0.18335424 -0.3687552 -0.092557445 -0.73367614
0001f0 36 6a bf 3d 0d 0a 99 3d 11 36 8c bd 57 85 eb 3d
       0.0934643 0.0747262 -0.0684625 0.11500042
000200 1a a2 12 bf 46 72 43 3f 5e 6f c5 bd 2a cb ba bd
       -0.572786 0.7634624 -0.09640382 -0.09120782
000210 a6 f6 0c 3f ba d2 38 be 41 c9 3a be 55 dd a3 3d
       0.55063856 -0.18049136 -0.18240835 0.080012
000220 4c 16 ac 3e fc a2 c5 3e 6f 52 b8 3e c3 b7 c3 bd
       0.3361076 0.3860091 0.36000392 -0.09556534
000230 b6 f3 dc 3e 43 b6 93 be 99 49 c0 bc ff 64 7d be
       0.43154687 -0.28849992 -0.023472594 -0.24745558
000240 5d 1d 0d bf f0 9c 08 3e f5 43 06 bb 82 a3 20 be
       -0.5512293 0.13341117 -0.0020487283 -0.15687373
000250 cd 31 22 bf d9 d4 8d bd 63 9e 44 be 3a ba 79 3d
       -0.6335724 -0.06925363 -0.19201045 0.060968615
000260 fa c1 45 be b9 df b9 3b 5c ec a3 be 3a 67 e9 3e
       -0.19312277 0.005672422 -0.32016265 0.45586568
000270 fc 24 0d bf 76 b8 b1 be 79 8a e4 bd 54 9c 07 3f
       -0.5513456 -0.34711045 -0.11159224 0.5297291
000280 44 d2 bf be 09 65 e6 3e 50 87 de be c4 59 3c be
       -0.37465107 0.4499896 -0.4346261 -0.18393618
000290 ec 28 91 3d 9a 90 8b be 26 e9 48 bf d6 7a 4c 3e
       0.07087883 -0.2725876 -0.78480756 0.19968733
0002a0 f6 3d 9f 3e 1f c7 ee bd 99 8f 3d be 4a 78 7e 3e
       0.3110196 -0.11659073 -0.1851181 0.24850574
0002b0 27 27 d4 3e e7 0e 49 be b7 b2 96 3c 6f 18 c2 be
       0.4143612 -0.19634591 0.018395765 -0.37909266
0002c0 b9 a1 93 3e 5d ad 9d be c5 5c e7 be 8c 26 33 3d
       0.28834322 -0.30796328 -0.45187965 0.043737933
0002d0 95 6d 22 bd 7f 9a 5f bf 60 fb 05 bf 41 f9 30 bd
       -0.039655287 -0.8734512 -0.5233669 -0.043206457
0002e0 5a 20 81 3f bf 94 ff be 4d 40 36 3c fb 66 02 3f
       1.0087998 -0.49918172 0.011123729 0.50938386
0002f0 70 d3 b5 bd 2e 77 b0 bd e5 40 b7 3e c7 7a 4d be
       -0.08878219 -0.08616482 0.35791698 -0.20066367
000300 6f 98 97 3e 20 7c 31 bd 5e 0f 26 3f 4a 85 3f bf
       0.29608485 -0.043331265 0.648672 -0.7481276
000310 e3 2d 27 bd 10 e4 32 3f eb ab b6 be 74 f6 69 3d
       -0.040815245 0.69879246 -0.35678038 0.0571198
000320 b1 15 73 3d 08 4b 9e be 19 9b 4b bf fe 24 e4 3e
       0.05934686 -0.3091662 -0.79533535 0.44559473
000330 22 a6 4d 3e 2d ed 33 be ed a7 61 bf b1 55 1f be
       0.20082906 -0.17570944 -0.8814686 -0.15560032
000340 52 e6 83 bf c7 e7 b1 bd 2d 20 08 bf 72 ce 07 3f
       -1.0304663 -0.08686786 -0.53174096 0.53049386
000350 d0 90 e4 3d 27 50 90 be 4d 56 50 bf 00 46 71 3e
       0.11160433 -0.2818615 -0.81381685 0.23561859
000360 54 be b6 bd 99 2a cc bd 0a f4 1b bf 68 e6 81 3f
       -0.08923021 -0.09969062 -0.6091925 1.014844
000370 ce 0d 19 bf 17 8d e4 3e 88 13 2f bf ad 4c 4d 3e
       -0.5978669 0.44638893 -0.6838918 0.2004878
000380 30 a7 61 3e 1c 2e 90 be 5e 7e 9c 3d a4 58 46 3e
       0.22036433 -0.2816018 0.0764129 0.19369751
000390 e6 ce 2f bf 3b 84 25 bf a7 47 3e 3a 3f 18 91 bb
       -0.68675077 -0.6465489 0.0007258602 -0.004427939
0003a0 e0 b6 d0 3e 32 a7 03 3f 4f 45 b7 3c e6 de ff 3e
       0.40764523 0.51426995 0.022371916 0.49974746
0003b0 63 87 ed 3e 32 23 e6 be 09 7b 7c 3e 3e 02 10 3f
       0.46392354 -0.44948727 0.24656309 0.5625342
0003c0 26 1c 97 bd 83 75 6c bd 58 aa 18 be e1 fb 44 be
       -0.07378416 -0.057729255 -0.14908731 -0.19236709
0003d0 eb 9c 41 bc 19 f9 00 be 69 35 1d bf 3f 6e df bd
       -0.011817197 -0.12595023 -0.6140962 -0.109097
0003e0 94 6e 4e bf a5 47 c3 3e 51 38 a9 3d dd fc ba 3e
       -0.8063748 0.38140598 0.082626946 0.36521044
0003f0 cb 34 b8 be 19 9d 2e bc 2c b7 cd 3d 36 b6 24 3f
       -0.35977778 -0.010657572 0.10044703 0.6434053

bias f4 [16]
000000 9f 4b 84 3e d0 e5 14 3e 10 db d8 be 72 e3 c4 be
       0.25838944 0.14540792 -0.4235463 -0.38454777
000010 0b c0 04 3f 62 2c 70 3e dc b5 97 be 2d df be be
       0.51855534 0.2345443 -0.29630935 -0.37279645
000020 d8 ae f6 bd e0 d0 ae be 6a cd c6 be 97 1e 10 be
       -0.120450675 -0.34143734 -0.38828593 -0.14074169
000030 28 6f bc bd a0 aa b8 be 2a e0 dc 3d b3 73 1a bf
       -0.09200889 -0.36067677 0.107849434 -0.60332793

weight f4 [1, 16]
000000 eb b0 49 3f e3 6d ff 3d bc 5a 91 3e b6 43 c7 3d
       0.7878558 0.12472131 0.28389537 0.09729712
000010 1a 56 0b 3f c5 4a 94 3e 5b 43 23 be 33 52 a9 bc
       0.54428256 0.28963295 -0.15943663 -0.020669078
000020 1f 46 30 be 3c fa 18 bf 6f 78 30 3f 9c fd 32 be
       -0.17214249 -0.5975683 0.6893377 -0.17479557
000030 ff ee 4e be 83 83 17 bf a0 48 d1 3d 68 d9 2e bc
       -0.20208357 -0.59185046 0.1021893 -0.010671951

weight f4 [16, 32]
000000 b6 1c e1 bd 76 51 c1 3c 29 c8 09 bf c0 26 e4 bd
       -0.10991804 0.023598414 -0.53821045 -0.111402035
000010 b0 a7 e6 3e 01 2d 0e be e5 0e e1 be f3 b1 fc bd
       0.4504981 -0.13884355 -0.43956676 -0.123386286
000020 bc de 04 3c de e3 c7 bd 2f 56 e5 be 91 d5 03 bd
       0.008109745 -0.09760259 -0.44792315 -0.032186095
000030 e4 91 38 bb 57 4b 89 3d d2 d8 43 3e fa 96 1a bc
       -0.002816313 0.06703823 0.19125679 -0.00943541
000040 01 f2 20 bd ff 2e 0e 3e 94 74 f4 be 65 24 29 bd
       -0.039293293 0.13885115 -0.47745192 -0.041294474
000050 88 af b3 3d bc 03 a7 be f1 b6 47 bd 7b 67 17 3f
       0.08773714 -0.32620037 -0.04875845 0.59142274
000060 7f 33 c6 be 79 14 ee 3d 54 e4 65 3e 18 25 13 bc
       -0.38711163 0.116249986 0.22450382 -0.008981012
000070 2e bf 12 be cf aa 8b 3d e7 92 f3 be 30 09 ea 3d
       -0.14330742 0.068196885 -0.47573015 0.114275336
000080 f6 35 e1 bd 36 df 7b bc b4 a9 07 bf 8b 3d 95 be
       -0.1099662 -0.015373042 -0.5299332 -0.29148516
000090 d3 35 1b be be e7 57 be 95 bf 2d 3e 92 85 09 3e
       -0.15157251 -0.21084496 0.16967614 0.1342986
0000a0 3a a9 33 be 00 4c be be 7e 63 9e be f6 6d c9 be
       -0.17545024 -0.37167358 -0.30935282 -0.39341706
0000b0 bb e2 50 be 6a 3c 0c be 27 02 fa bd f7 e4 1b bf
       -0.20398991 -0.13694921 -0.12207442 -0.6089625
0000c0 9c 76 7b be 3e 6b 4e 3d 87 22 13 bd 7a fe 05 be
       -0.24556965 0.050395243 -0.0359216 -0.13085356
0000d0 ca 4d e0 3e cd de 4e bd e5 8f 95 be f2 f1 30 3e
       0.43809348 -0.050505448 -0.29211345 0.17279795
0000e0 ab c2 21 3d e4 53 56 3d f6 f8 ec 3d 40 25 26 be
       0.03949229 0.052326098 0.11570923 -0.16225147
0000f0 23 97 a3 be 6e f3 82 3d b9 eb c1 bd f3 e9 5b 3e
       -0.31951246 0.06394087 -0.09468789 0.21475963
000100 5e ba 24 be b3 6b 27 3d b5 01 88 be 14 f9 46 bd
       -0.16086718 0.040874194 -0.26563802 -0.048577383
000110 55 59 8d 3e 11 a1 e2 be f1 5f bb bd 4e 08 79 3e
       0.27607217 -0.4426351 -0.09149159 0.24319574
000120 e2 2e 44 be be b3 b5 3b cf 85 2f be 07 11 5a be
       -0.1915851 0.0055451086 -0.17140888 -0.21295558
000130 fe 50 8b 3c ca 80 a8 bc 9d 27 ad 3d 3a 84 c9 be
       0.017006394 -0.020569224 0.08454821 -0.39358693
000140 48 03 90 be e8 dc 8f bd b0 57 28 bf f0 1a 6a 3e
       -0.28127503 -0.070245564 -0.657588 0.22861838
000150 75 ec 05 bd f3 79 a3 be 9d 0f ec 3c e6 65 08 bf
       -0.032696206 -0.31928977 0.028816039 -0.53280485
000160 a0 48 21 3d b0 cb 60 bc 0d 2a c2 be 96 cc 92 3e
       0.0393759 -0.013720438 -0.37922707 0.28671712
000170 eb 16 8b 3e ab 3d 69 be 68 b1 e2 be 32 34 a8 bc
       0.27165923 -0.2277743 -0.44275975 -0.020532701
000180 b1 7c 42 be 48 ab 04 3e ad 2d d5 bd 2a 4e af be
       -0.18992878 0.12955964 -0.104091026 -0.34239322
000190 52 37 c3 be d6 71 56 3e 3a 2a 05 be 7d 4b 72 3c
       -0.38128144 0.20941862 -0.1300439 0.014788506
0001a0 dd 3e b0 be 01 46 00 3f e4 f5 23 bf b3 3e ea bd
       -0.3442296 0.5010682 -0.64047074 -0.1143774
0001b0 19 16 9e bd e1 07 62 3d fb 8c 9b 3c ac 4b 30 be
       -0.077190585 0.055183295 0.018988123 -0.17216367
0001c0 7d 60 8c 3e 09 a2 8c be b6 45 8d be f6 89 93 3d
       0.27417365 -0.27467373 -0.27592248 0.07204048
0001d0 73 89 18 be 8f de 53 be 7c 7d c9 3e f6 da 2c 3e
       -0.14896183 -0.20690368 0.3935355 0.16880402
0001e0 d6 cb b5 bd c9 a9 e3 3d d7 49 b6 3e 7d 38 d0 3e
       -0.08876769 0.11116368 0.3560321 0.40668097
0001f0 85 c8 67 3e 2d 88 eb bc 15 25 c5 be f6 23 55 3e
       0.22635086 -0.028751457 -0.38504854 0.208145
000200 e8 1a 2d bc 99 33 ce 3e 46 2d c6 3c 93 ec 2e 3c
       -0.010565497 0.4027374 0.02419151 0.010676521
000210 6f 69 19 3d b3 02 24 be 55 26 b5 be 4f 23 4f 3e
       0.037454065 -0.16016655 -0.35380808 0.20228313
000220 ab f6 f7 bd e4 95 9c bd ee 1e 94 be 86 ca a6 be
       -0.12107595 -0.07645777 -0.28929847 -0.32576388
000230 9f 5c 73 be 33 38 02 bd ed dd c1 3d f8 51 7e be
       -0.23765801 -0.031791877 0.09466157 -0.24835956
000240 4e 88 0f 3d 70 4c 91 3e 07 08 0d be 8b 28 04 3e
       0.0350421 0.2837863 -0.13772593 0.12906091
000250 fc 21 44 bc 7d be c0 3d 02 71 36 be e6 e7 41 3e
       -0.011970993 0.09411333 -0.17816547 0.18936118
000260 00 b6 7e 3e d7 a7 d2 3e a2 aa 72 3e 2f e2 bb 3d
       0.24874115 0.41143677 0.23697904 0.091740005
000270 11 b0 5a be 7a 10 9f be b7 ed 94 3d f7 1d 04 bd
       -0.21356227 -0.31067258 0.07271903 -0.03225514
000280 cb 7d 2c 3e eb 31 f5 bd d1 7b bb be f0 b6 91 be
       0.16844861 -0.11972412 -0.36617902 -0.28459883
000290 3e 11 b2 bb 0d 63 b0 bd 3f ad 5f be b6 cc 14 be
       -0.0054341843 -0.086126424 -0.21843432 -0.14531216
0002a0 ed dd b3 bd 0c 6c cc be 6d 9f 8f bd 03 9c 3d 3e
       -0.08782563 -0.39926183 -0.0701283 0.18516545
0002b0 8f d5 13 3e f6 2a 0b bf a1 11 b0 3e 6c 8d d9 3d
       0.14436935 -0.5436243 0.3438845 0.10622677
0002c0 ca d7 67 be b4 09 ae 3d 9c 56 a6 be eb 2e 78 be
       -0.2264091 0.084979445 -0.32487953 -0.24236648
0002d0 50 8b e6 3e 6a 63 19 be 27 8d d9 3e 6f f9 b3 3e
       0.45028162 -0.1497933 0.42490503 0.3515124
0002e0 37 26 00 bf bf 17 7c 3e b5 30 42 3e 70 01 8f 3e
       -0.5005831 0.24618433 0.18963893 0.27930784
0002f0 96 3f d3 3e 68 6c 40 3d 16 7a 48 bf 32 99 aa be
       0.4125945 0.046978384 -0.7831129 -0.33320004
000300 f1 6d f7 3d 65 43 1e 3f fc 0f 9b be 58 e8 2c 3d
       0.120815165 0.61821586 -0.30285633 0.042213768
000310 9a 14 d8 bd 1a 2c 83 bd 2c 84 89 3e 2a b6 be 3e
       -0.105508044 -0.06404896 0.26858652 0.37248355
000320 13 89 1a bd 69 50 d1 bc 05 1b 48 bf 04 64 1e be
       -0.03772838 -0.025551038 -0.7816623 -0.1546784
000330 2d 18 0b 3f ea 94 75 bf 22 22 4d be cb d1 2e be
       0.54333764 -0.9593035 -0.20032552 -0.17072217
000340 ef 6b 5a 3e db 58 da 3d 6d 60 5b 3d 0f 67 9e 3e
       0.21330236 0.10661479 0.053558756 0.30938002
000350 52 76 fc 3e a5 fb cd be c6 b8 0e be 5a 88 09 3e
       0.4930902 -0.40231052 -0.13937673 0.1343092
000360 c8 a2 ce be 9f e5 45 be 8b 94 31 be 4e 34 78 3e
       -0.40358567 -0.19325875 -0.17341821 0.24238703
000370 84 7b 42 bf a3 37 0e 3e 38 6f 6a be 0c c1 3d be
       -0.7596972 0.13888411 -0.22893989 -0.18530673
000380 3f 50 e7 ba 45 96 96 3e d5 ff b2 3e d7 15 3c bf
       -0.0017647817 0.29411522 0.3496081 -0.73470825
000390 f7 3d 88 3e 7f 21 9e bc a5 20 87 bd 84 f6 b3 3e
       0.26609775 -0.019303082 -0.06598023 0.35149014
0003a0 01 c4 d0 3e bb 6b 7e be 1d d1 b1 bd 3f 31 de bc
       0.4077454 -0.24845783 -0.08682463 -0.027123092
0003b0 4a d8 98 3e 7f c5 77 be 87 f4 05 be de 4e a1 be
       0.29852515 -0.24196433 -0.13081561 -0.31505483
0003c0 74 6d 88 3d 7d 51 29 bf fe 7f 72 bd 9c 30 c7 bc
       0.066615015 -0.66139966 -0.059204094 -0.024315171
0003d0 d0 64 b1 3e 20 7a c9 bd 02 2d 17 3e 69 49 f8 3d
       0.34647226 -0.098377466 0.14763263 0.12123377
0003e0 90 fa 2c 3d 8e 5b db bd b0 f5 5d 3e 08 b2 55 be
       0.042231143 -0.10710822 0.21675754 -0.20868695
0003f0 72 18 df 3d 0e 9c d1 3d 16 b7 c4 be a7 bd f2 be
       0.108933344 0.10234843 -0.38420933 -0.47410318

bias f4 [16]
000000 66 0d aa be 7f 01 4a bf ac f8 1e bf 5e fc 1d bf
       -0.33213347 -0.7890853 -0.62098193 -0.61713207
000010 57 09 03 bf fe 4e 07 3b 8b 29 0e bc 07 6e 37 bf
       -0.51186126 0.0020646448 -0.008676897 -0.71652263
000020 e2 0e be be 00 9a ca be 94 3d 03 bf b7 e5 42 bf
       -0.3712073 -0.39570618 -0.51265836 -0.7613177
000030 c0 13 3c be 41 c7 bb be b1 37 b8 bd d8 68 be bd
       -0.18366909 -0.36675456 -0.08994997 -0.09297341
