pivae_sde/experiments/2024-9-2_11-14-32-893098/best_model.pth (torch, 22882 bytes, 22 tensors)

encoder.0.weight f4 [16, 18]
00000000: f90d 253e ec25 a5bd 88ff 7bbe c9c1 73bd
00000010: 0c76 b0bd aba7 0fbe cf08 1f3e b394 f2bd
00000020: 4760 fbbe 606f 453f 8683 743e 6333 cfbd
00000030: f169 1c3d 84e3 7f3c 5fd6 96be 4b38 173d
00000040: d116 123f 61ce 9dbe 3d24 a43d dbe9 c53d
00000050: cbcd 523c 4090 7e3d 14bc 64bd 7ca8 02bd
00000060: 300b bcbc 147d 813e c78d 35be 0aaf 32be
00000070: fca5 31be 5409 e73c dc7c cebc 687d 23bd
00000080: 88bf 8e3e ab4a 523c fe37 24bf 747b 423e
00000090: 8f4f d6bd 510f 1dbe ca2e 0fbd 29b1 91bc
000000a0: 4f7f 0b3e 0754 853d f4af 7ebf 355d e6bd
000000b0: 594e a2bd b32a aa3e 4e09 b53e 749c b1bd
000000c0: 11d2 f4bb 97d1 81be afd6 97be 1f47 a2bc
000000d0: 2781 e03e 6ccd 82be 9911 ef3d 7366 963e
000000e0: 2bf9 abbd 3594 63bc 5247 293d 3e16 983e
000000f0: a050 28bd 6057 f63d ac33 25bf 858c 933e
00000100: a8e9 c1be 9b65 e5bc dbb9 21bd d8d2 0c3f
00000110: 5455 d93e 2869 d0be ce86 043e 89c7 9f3d
00000120: cba7 34be 30f0 cc3d 55ae c53e 8b3b 3abb
00000130: 61a1 3f3e 53c0 7c3e 85a2 31bf b9ac 85be
00000140: 61e2 92be 587a b53e 5345 d03e 53ca 813d
00000150: 4901 2a3b 09c8 163e 524a ffbe 8be2 61be
00000160: 8aa5 153f 94fb 263c ad6b 3ebd 91cb 95be
00000170: a15e eebb ad30 57bd 2068 913e e9ad 7d3e
00000180: 2913 c03d 42cd eebe 35a4 6f3d 3d21 d4bc
00000190: c0b8 b63d 6abe c03d d162 c53c bd9c 8dbe
000001a0: 130f 3b3d c316 42bd b5dd b1bf 09eb 6fbd
000001b0: 938e 87be 69d6 38be e31d 32bd a80a de3c
000001c0: a019 683e d7a8 1d3e e980 433d 8731 25bc
000001d0: 1408 7f3e 71be 90bc f9fb 41be 69cf af3d
000001e0: a4b1 cd3b 2da8 8e3e de20 f9bd 4d9f cc3d
000001f0: 590b 4b3f a502 043e 02b3 843e 8990 0ebd
00000200: ba57 1fbe 0164 77bd 8cae 7a3d 05ca 343e
00000210: 7b4b d1bc 592e 20bf bd8d a93d 9c87 ddbe
00000220: ce1f 07bd ce98 583b bd9c 8a3b 92f2 a9be
00000230: 7fd2 d53e 8475 d7bd 8f7d c83e 7670 c13d
00000240: 5d1b 5d3e d4d2 febd d94c 123d 8b13 31bd
00000250: ebcc 593d 4d53 e33d 2cd0 bdbe cc84 05be
00000260: 2d89 84bd 7dc1 75be b384 1b3e f842 063f
00000270: f23b 453c 986c 79be 2da9 943d d126 11be
00000280: 68d4 803e c902 5a3e b9ee a2bc d0ec 8abd
00000290: 84ef 263e 9ea9 e53c 1b0f adbd 098d 72be
000002a0: fa81 3d3d 1f13 fdbd 8ce7 573e 2aaf 1dbd
000002b0: 1e27 ffbd e9b6 d03d 5d46 853c 5723 94be
000002c0: db63 153e 56cd 943d cef4 fa3e d917 43be
000002d0: a08d 96bd 768b 0d3e c51e 4d3e d2c2 c4bc
000002e0: 5313 27be 18b8 44be d514 233d dcd8 0cbe
000002f0: 107e 653e 57a9 8c3d 4cf1 733d d301 d4bd
00000300: 2268 113c 5322 1cbe 04fe e53d 7aef 9cbd
00000310: 967f 22bf 8590 a1be c122 553e d203 913e
00000320: f509 94bd 6b22 053d 1b3a 85be 3093 2dbe
00000330: c459 3fbd 2832 f53e 7838 0fbe ddc6 15be
00000340: 67cc 92bd 71d7 b5bd 8b5a b2bc e37c 0bbe
00000350: 1571 9f3e 0736 e93c 4878 963f 5801 0f3e
00000360: be1a 9ebe 03c9 3e3c d840 a1be 450d 4ebc
00000370: 0833 0bbc 7f20 24bd 191c dd3d 0c62 e13e
00000380: 0fb2 8d3e 02cf a2bd d547 eabd 705c 24bd
00000390: e700 1d3b a94e 35bd 1704 013c c6cc b6bd
000003a0: 27b9 c33e 68f9 323e 2324 4bbd 8a64 df3d
000003b0: e110 1f3e 0b0f e4bc cf94 2abd 299d 123e
000003c0: 9d9d 273e 4e66 75bd d690 7ebe 56bc b53e
000003d0: 8fbb 103d ae5a adbd 8964 b73c 0ad0 d5bd
000003e0: eb00 4f3e d969 763d ca96 0f3f 5b34 41be
000003f0: cffc e0bd b11c d73d 183a 80bd c171 15bd
0.16118611 -0.08063874 -0.24609196 -0.05951098 -0.08616266 -0.14028804 0.15530704 -0.118447684
-0.4909689 0.7712307 0.23878297 -0.10117223 0.03818697 0.015618209 -0.29460427 0.03691892
0.57066065 -0.30821517 0.080147244 0.09663745 0.012866448 0.062149286 -0.055843428 -0.03189896
-0.022954553 0.2529074 -0.17729865 -0.17449585 -0.17348474 0.02820269 -0.025206022 -0.03991452
0.27880502 0.012835185 -0.6414794 0.18992406 -0.10464393 -0.15337874 -0.03495673 -0.017784672
0.13622783 0.065101676 -0.99487233 -0.112482466 -0.079251 0.33235702 0.3535866 -0.08672419
-0.007471331 -0.25355217 -0.29655978 -0.019809304 0.43848535 -0.2554735 0.11673278 0.29375038
-0.083971344 -0.013890316 0.041327782 0.2970447 -0.041092515 0.12028384 -0.6453197 0.28818145
-0.37873578 -0.02800255 -0.039483886 0.5500922 0.42447913 -0.40705228 0.12942049 0.0780173
-0.17642133 0.1000675 0.38609567 -0.0028416838 0.18713905 0.24682741 -0.6938861 -0.2610834
-0.28688338 0.35444903 0.4067789 0.063374184 0.0025940707 0.14724745 -0.4986139 -0.22059076
0.5845572 0.010191817 -0.046489406 -0.2925687 -0.0072744642 -0.052536655 0.28399754 0.24773373
0.093786545 -0.46640974 0.05850621 -0.025894755 0.08921957 0.094113186 0.02409497 -0.27658644
0.045668673 -0.04738499 -1.3895785 -0.058573756 -0.26475963 -0.18050541 -0.043485533 0.02710469
0.22666025 0.15396439 0.04773036 -0.010082609 0.24905425 -0.017668935 -0.18943776 0.08584482
0.00627728 0.27862683 -0.12164472 0.09991322 0.7931419 0.12891634 0.25917822 -0.03480581
-0.15560809 -0.060398106 0.061201617 0.1765519 -0.025548687 -0.6257072 0.082789876 -0.43267524
-0.032989316 0.0033050063 0.0042301104 -0.3319288 0.41762158 -0.10520461 0.39158294 0.09445278
0.2159247 -0.12442556 0.03571782 -0.04323153 0.05317394 0.11099873 -0.37072885 -0.13038939
-0.06471477 -0.23999591 0.1518734 0.52445936 0.012038218 -0.24357831 0.0725883 -0.14174964
0.25162053 0.21290125 -0.019889222 -0.0678345 0.16302305 0.028034981 -0.08450147 -0.23686613
0.046266533 -0.12357163 0.21084422 -0.038497128 -0.12458633 0.10191137 0.016268903 -0.28933212
0.14588873 0.07265727 0.49014896 -0.19052066 -0.073512316 0.13822731 0.20031269 -0.024018679
-0.16315965 -0.19210851 0.03981479 -0.137546 0.2241137 0.068682365 0.05955629 -0.103519104
0.008874925 -0.15247469 0.1123009 -0.07662864 -0.6347593 -0.31555572 0.20814039 0.28323227
-0.07228462 0.032503527 -0.26020893 -0.16950679 -0.046716467 0.4788983 -0.13986385 -0.14626642
-0.07167893 -0.08878983 -0.02177169 -0.13621859 0.31140962 0.028468145 1.1755457 0.13965356
-0.30879778 0.011644605 -0.31494784 -0.012576406 -0.0084960535 -0.040070053 0.10796375 0.44020116
0.2767491 -0.0794964 -0.11439482 -0.040127218 0.0023956837 -0.04426447 0.00787451 -0.08925776
0.38227198 0.17477953 -0.04959501 0.10907848 0.15533783 -0.027839204 -0.04164582 0.14317764
0.16368718 -0.05991202 -0.24859938 0.3549525 0.03533512 -0.084645614 0.022386806 -0.10440071
0.20215194 0.060159538 0.5608946 -0.18867628 -0.109857194 0.10503519 -0.062610805 -0.036485437

encoder.0.bias f4 [16]
00000000: 005d 133f e1ec dbbe ee5c f63e ed3f 89be
00000010: 2cdd 843e 4ccd 0cbf c4f5 223f acc9 ea3e
00000020: 12bb ce3e 4966 3f3f bd11 eebe 995b dd3e
00000030: e698 073f 4f66 f33d 55b9 4e3e 159b e8bd
0.5756378 -0.42954162 0.48117775 -0.26806584 0.2594999 -0.5500076 0.6365626 0.45856988
0.40377098 0.7476545 -0.46497908 0.43233946 0.5296768 0.11884748 0.20187886 -0.113577046

encoder.2.weight f4 [16, 16]
00000000: a0f8 353f 8fe4 203f de4f f2bd cdca e7be
00000010: f5aa de3e 9ab0 953d 620d d6be 6d0c 1abf
00000020: f93d c5bd 8db8 4ebf d2e8 63be da2e 9cbd
00000030: 8680 efbc aaf1 00be f3a4 233f eaf9 0b3f
00000040: 657e a23d 0c03 b1be 30dd 03be 9862 c1bd
00000050: 02f0 5cbe f1e0 cabd 27e8 a3be 4de1 d4be
00000060: 5994 143e 43b8 203e 3300 aabd bc54 2bbe
00000070: 924e ef3e 5472 083e c94d 1cbc 0550 1cbd
00000080: 49d3 edbe 7ec9 833e 37e5 0c3f b1c1 513d
00000090: 1353 4b3e 383a dfbe 6e9b 0a3f cd1c fa3e
000000a0: d2d2 713e cd62 c23e a87a 2cbe fa37 3e3f
000000b0: 6ece 143e 52a5 2abe 158e 31be 6df8 eebe
000000c0: 1293 133e d8a0 1f3e d62d 24be 5d25 81bd
000000d0: 86c8 f5bd 3c32 07bf 3eb0 a2be d836 f43e
000000e0: d990 f23e 5755 b43d cbc8 0e3e a2b8 903f
000000f0: 163f c9be 9e02 c9bc 4915 24be d7bc d93e
00000100: bee5 3e3d 1734 cc3c 61d8 ac3e 17c6 0fbf
00000110: b148 77be 7528 cabe 9d2f 193c 8cbb 463e
00000120: 1f43 293e 34c5 61bd a051 1dbe aaac a3bd
00000130: 0845 963e 3703 043f 041f dd3d e163 d9bd
00000140: 8c51 8b3b 2062 ddbe d5a2 6e3d a602 46be
00000150: 91af c63c bacf e43c 128f 223e 55a1 2a3e
00000160: 7df3 74be 9e0c c83e a39a d1bd f5bd 8c3e
00000170: 2ecd 853d 85f5 a6be ad9a 123f 9660 663e
00000180: 12ff 1dbe 8fd2 3dbf 546f 823d c0ca 153f
00000190: fa81 8fbe e4cc 91be 2a6c 37bf e2d2 103e
000001a0: a0ae 1f3e 2c1d c03d 60df 903d 9c0f cf3e
000001b0: fd43 923d e39e 3f3f 1351 883d bc67 153e
000001c0: a304 253f 39b2 ba3d 14d7 e53e f481 20bd
000001d0: 1531 c33c 3793 18be c108 153f e98f a5be
000001e0: 028a 0a3e 7a6e d8be 0be1 ecbe 8209 c03d
000001f0: 8991 b83e b512 f6be 7ae4 1d3e 1f54 acbe
00000200: 1280 cf3d 3851 233e 5982 ce3e f1fc 9fbe
00000210: 5fdd 02be f6e9 96be 4595 ee3d 2452 343e
00000220: 5d2e e73c 63a5 4abb ab07 fb3e 5005 9bbd
00000230: 8762 6c3d 095c 7a3d 65cd 91be 54d6 1ebe
00000240: dcfc b7be 2d86 a13e 4664 e93e 16e3 e2be
00000250: e4f5 a6be 67ef dc3a 5400 443f 6130 b5be
00000260: 0008 f5bd 4d35 e8bb 1073 64be 5697 97be
00000270: 5845 a9be dbeb 043f 9200 d3be 4916 86be
00000280: a72e b63d 51be 15bf e303 ebbe 1271 5bbe
00000290: 6561 553d 1bcb 08be 6069 dd3e ae5d 843e
000002a0: 338b 18bd 3e11 1cbf 7519 a2be fa72 0d3e
000002b0: 030d 8b3e 90b4 debc 166c 05bf c04a a93e
000002c0: c1e9 113e bf63 123e eb46 52be 4090 0d3f
000002d0: 61ce c93e e291 1abf be90 1e3e 5119 023e
000002e0: de17 c6be f996 433d 77a3 2dbf 3c96 023f
000002f0: 525b 2ebf e5c8 a23d 475d 79be dc59 143f
00000300: 45fa d03e 0e17 a9be d9b9 6a3b 3ccf 853e
00000310: f4e9 f23e d8b1 74be 3b23 b43e 69f6 f23d
00000320: 9071 b9be 9c2e 37bd a434 d3bd f60b e0bd
00000330: 8e41 adbd 3ca4 6dbe f27b b4bb ca48 3cbe
00000340: d6d5 8e3e 0abd 8bbe 20b6 02bf 1082 06bd
00000350: 8141 073d 52a4 bc3d 1577 ea3e 4464 14bf
00000360: d96a 95bd 1538 883e 3ece b8be 69a8 59be
00000370: 36db 90be 9781 c9bc ecce 933e d7b5 3ebe
00000380: d336 e6bd 5747 1a3f 7854 a13e 9016 b13e
00000390: 7c05 d5be f2d0 3a3e ad17 e13d 2f7e dc3b
000003a0: 469b be3d 0538 163e 1768 ec3e 7bb1 dabd
000003b0: 7f1e 9abd d204 753e 46e2 03bd 7805 3a3d
000003c0: 52cf a1bd 7406 14bf eb73 83be de15 38bd
000003d0: fcd7 783d 111a 623d e762 003e f99b 63be
000003e0: 8bb6 11bc 100e 9fbd e83d 07bf fb6b e9be
000003f0: 3381 2a3d 1da1 c33e 0e48 31be 9ccd 7fbd
0.71082497 0.6284875 -0.1183164 -0.45271912 0.43489805 0.07309075 -0.41807085 -0.6017521
-0.09630961 -0.8075035 -0.22256783 -0.07626124 -0.02923609 -0.12592188 0.6392357 0.54678214
0.07934264 -0.34572637 -0.12877345 -0.094426334 -0.2157593 -0.099061854 -0.32013056 -0.4157814
0.14509715 0.1569529 -0.08300819 -0.16731542 0.46739632 0.13324863 -0.00954003 -0.03816225
-0.4645026 0.25739664 0.55037254 0.05121011 0.19855909 -0.43599105 0.54143417 0.48850098
0.23615578 0.37966004 -0.16843665 0.74304163 0.14531872 -0.16664627 -0.17339356 -0.4667391
0.14411572 0.15588701 -0.1603311 -0.063059546 -0.120011374 -0.52811027 -0.31775087 0.47698092
0.47376135 0.0880534 0.13943784 1.1306345 -0.39305943 -0.02453738 -0.16023745 0.42526886
0.046605818 0.024927182 0.33758834 -0.56161636 -0.24148823 -0.3948399 0.009349731 0.19407481
0.16529511 -0.05511971 -0.15363169 -0.079919174 0.29349542 0.51567405 0.107969314 -0.106147535
0.0042516645 -0.43238926 0.058260757 -0.19336948 0.024253638 0.027931083 0.1587489 0.16663106
-0.23921008 0.39072126 -0.10234573 0.27488676 0.065332755 -0.32609192 0.57267267 0.22497782
-0.15429333 -0.7414941 0.063688904 0.58512497 -0.28028852 -0.28476632 -0.7164942 0.14142945
0.15593958 0.09380564 0.070738554 0.40441597 0.07141874 0.74851817 0.06656089 0.14590353
0.644602 0.091160245 0.44890654 -0.039186433 0.023827115 -0.14899908 0.5821648 -0.32336357
0.13529208 -0.42271787 -0.46265444 0.093768135 0.36048535 -0.48061147 0.15419188 -0.3365793
0.10131849 0.15948951 0.40333822 -0.31247666 -0.12779759 -0.29475373 0.11649565 0.17609459
0.02822035 -0.0030921332 0.49029288 -0.07569373 0.05771115 0.061122928 -0.28477016 -0.15511447
-0.35935104 0.3154768 0.45584315 -0.44313878 -0.32609475 0.0016856015 0.76563 -0.35388473
-0.119644165 -0.007086432 -0.22309518 -0.29607648 -0.33060718 0.51922387 -0.41211373 -0.26188877
0.08895617 -0.58493525 -0.45901403 -0.21429852 0.052094836 -0.13358729 0.43244457 0.25852722
-0.037242126 -0.6096381 -0.31660047 0.13813391 0.27158365 -0.027185708 -0.5211805 0.33064842
0.14249326 0.14295863 -0.20534866 0.55298233 0.39415267 -0.6037885 0.15484902 0.1270497
-0.38690084 0.0477514 -0.6782755 0.5101049 -0.68108094 0.07948474 -0.24351989 0.57949615
0.4081594 -0.33025402 0.003581634 0.2613467 0.47444117 -0.23895967 0.3518313 0.11863405
-0.36219454 -0.044722185 -0.10312775 -0.10939781 -0.08459769 -0.23207182 -0.0055079395 -0.18387142
0.2789752 -0.27292663 -0.5105915 -0.03283888 0.033021454 0.09211029 0.45793977 -0.57965493
-0.0729577 0.26605287 -0.3609485 -0.2125565 -0.28292245 -0.024597926 0.28868806 -0.18624054
-0.11240926 0.60265106 0.31509757 0.34587526 -0.41605747 0.18243769 0.10990844 0.0067289094
0.0930696 0.14669807 0.46173164 -0.10678383 -0.07525348 0.2392762 -0.032198213 0.04541537
-0.07900871 -0.57822347 -0.25674376 -0.04494273 0.060752854 0.05520064 0.12537728 -0.22227468
-0.008893619 -0.07766354 -0.52828836 -0.45590195 0.04162712 0.38208857 -0.17312643 -0.062451944

encoder.2.bias f4 [16]
00000000: 3664 02bf d653 0f3f e920 f13e 554a b43e
00000010: 6541 243f 01da ea3e e95b 003f 3d5f 183f
00000020: a459 dd3e d369 873e df51 553f 9604 283e
00000030: 4e75 fd3e 9748 183f 87ce 11bf 707a aa3d
-0.5093416 0.559873 0.4709542 0.3521296 0.64162284 0.4586945 0.50140244 0.5952032
0.43232453 0.26447925 0.8332805 0.16408 0.4950356 0.59485763 -0.5695576 0.08324134

encoder.4.weight f4 [32, 16]
00000000: c10c b33e 79c1 9c3e c45f 093e 7060 063c
00000010: 7846 603e 5192 3bbf 8570 c4bd cd53 88be
00000020: 4aeb b73d 338f ccbc 7d66 2d3d d533 3ebe
00000030: 4abf b0bc 9c71 803e 3ddc 2ebd 92b7 323e
00000040: 1cc7 acbe 7e53 be3d b597 80bd 39d3 96bc
00000050: 24a1 85be 3b2f ecbe 0e0b 77be 4ca0 033e
00000060: ecfe 21be 7a84 bbbd bb9a efbe bd31 943e
00000070: e98d 0e3f e0d0 32bf 081a ddbd 6c37 6f3e
00000080: 5889 113f 7789 2abe 502d b1be cafa 8d3e
00000090: d7d5 6bbd bcf9 39be b333 ec3e 57cf afbe
000000a0: 34a7 f8be 79a5 023e 7ddd bebe 2101 fc3e
000000b0: c437 5fbe 114e bc3d aac9 debe b345 20be
000000c0: 904e 3e3e 2306 913e f148 92be a655 fd3e
000000d0: 3d0a 83bd aac2 4cbe de8b 1abe 5a1d 82bd
000000e0: 6c1c 263f 2112 933d 552f dc3d acf0 a3bc
000000f0: 7292 6f3f c716 34be 9dcd c6be e364 043f
00000100: 5f5a 15bf 602b fabc 962a e8bd f54b 383e
00000110: 8bc8 0ebe a13a 8f3e d4fd 0cbf 3079 9c3d
00000120: d010 f13d 80d4 cb3e 5677 47bf 7886 863d
00000130: 86ac 49be 9ca5 723e fe3e e53e c325 813e
00000140: c324 9a3e e483 27bf 39ed f23d 167d ce3e
00000150: abb4 43bf 64c8 8f3d aa13 c6be 4dd8 f6bd
00000160: d341 3fbe f631 973b 66da 193f 2f56 cbbd
00000170: fb63 2a3e fed1 f9be 10d6 f73d 7de5 66bf
00000180: 47ac a3be dbc3 1fbf e30a aebd a3bc 0d3f
00000190: 0204 39be a82e 0e3f aa47 f73e abb4 aebd
000001a0: 75be 8d3d 4ad5 e33d e92d b3be 1f2c b3be
000001b0: 3b9c 6abf 59e0 d9be e779 04be 55b7 15bd
000001c0: b05f 4cbd 4ed8 dabe fc5c 353e 4ebf c43e
000001d0: 4021 40bf 5ef1 873d 0dee 12bf ff0c 7bbe
000001e0: 7db5 bcbe 3ab9 2fbe dfbb 68be cda0 2dbf
000001f0: fa62 733e 72d8 c93e 330d c0be 4b64 003e
00000200: 7d0c 27be 46c3 223f 9c17 30bf 2d6d 703e
00000210: 73dd 5abe a23c 4ebe 5406 48bd c803 533f
00000220: 55f8 10bc c42c 14bd ee85 3d3c 0499 5a3e
00000230: 762c b6be aa69 64be 2b60 b1bd 6c39 96bd
00000240: 78a7 84be 6420 bf3e 236c d23e bc1a 94bd
00000250: c729 77bd 2dd6 1b3f 2966 ab3e d716 6b3d
00000260: 2a01 65be 2640 893e 4ea5 e63e dda5 debd
00000270: e6b9 c23d 0835 c53e a8bd 8dbe 9bbb 13bf
00000280: 6905 a2bd dba8 683e b534 843e e1b5 863d
00000290: e46d 6f3e 3602 5dbd 19be cdbd 6691 843d
000002a0: 7153 e33e 58e7 94bc f757 7abe f33d af3e
000002b0: 569d cb3d 3432 673e f6cb 4c3e 8e90 423e
000002c0: 0f10 333f 90c1 d5be 9c15 59be dc4d aabd
000002d0: c049 103c 4dcb 1dbe d3f3 80be cd16 2bbd
000002e0: 7a3e bd3e 4f15 bebe 5752 8c3e f675 92be
000002f0: b2d6 3f3e 37da f73d 14e3 0d3f 437a 873e
00000300: c5f9 3e3b 8243 e63d ff29 07bf 86c3 d43e
00000310: 771c e5be 1993 943d 4edb f13e 87d1 ecbe
00000320: 01fa 42be a9e5 6e3d 46ef b43e afa2 01be
00000330: b622 b3be 07f5 86bf 4aa4 3a3e 4ad9 7cbc
00000340: 3220 df3d b8e0 3b3f d619 d8bd e5f8 1f3d
00000350: 0982 823c ced8 793e 4907 293e 25c9 3bbe
00000360: ac22 343e 81d9 903e 9657 74bf 569a 223e
00000370: a647 09be 8377 ec3e d500 793d f752 e43c
00000380: 2bd5 cb3b 5233 10be 12fe ad3e 21f7 13bf
00000390: bbae 343f d2da 78be fbb0 9e3e 1f4a 7abe
000003a0: 27ae 44be d41e a63e 5732 0b3f fcd6 403e
000003b0: 222a 27bf bef3 633f e2df b4be d38e ef3e
000003c0: d704 1b3e 64c5 a3be 5fd3 98bd f3a6 83bd
000003d0: cb2b 4abe 4996 ed3e 107e 05be 51c6 bc3d
000003e0: 4068 263f d085 243d a878 70be 8bed cc3e
000003f0: 746d 26bf a1a9 6cbc 033b c2be f244 be3e
0.34970668 0.30616358 0.13415438 0.008201703 0.21901882 -0.73270136 -0.09591774 -0.26626435
0.08980425 -0.024970626 0.04233407 -0.1857446 -0.021575589 0.25086677 -0.042690504 0.17452839
-0.33745658 0.092932686 -0.06278936 -0.018411266 -0.26099503 -0.46129784 -0.24125311 0.12854117
-0.15819901 -0.09156127 -0.46797737 0.28944197 0.5568529 -0.6984997 -0.10795981 0.23360986
0.56850195 -0.16654001 -0.34604883 0.277304 -0.05757698 -0.18161672 0.46133193 -0.34337875
-0.48565066 0.12758435 -0.37278357 0.4921961 -0.21798617 0.091945775 -0.43513232 -0.15651588
0.18584657 0.28324994 -0.28571275 0.49479407 -0.06398437 -0.19996133 -0.15092418 -0.063532546
0.6488712 0.07181192 0.10751215 -0.020012222 0.9358283 -0.17586814 -0.38828745 0.5171644
-0.5834102 -0.030538261 -0.113362476 0.17997725 -0.13943689 0.27974418 -0.5507481 0.07640302
0.11770785 0.39810562 -0.7791647 0.06568617 -0.19694719 0.23695987 0.44774622 0.25224122
0.30106172 -0.65435624 0.11861653 0.40329808 -0.7644755 0.07020643 -0.38686877 -0.12052975
-0.18677454 0.00461411 0.60098875 -0.099285476 0.16639702 -0.48793024 0.12101376 -0.9019392
-0.31967375 -0.62408227 -0.0849817 0.5536596 -0.18067935 0.5553994 0.48296863 -0.085305534
0.069210924 0.11124666 -0.34995964 -0.349946 -0.9164464 -0.42553976 -0.12937127 -0.036551792
-0.049895942 -0.42743152 0.17711252 0.38427204 -0.75050735 0.06637834 -0.57394487 -0.24516676
-0.36857215 -0.17160502 -0.22727917 -0.6782349 0.23768225 0.39422947 -0.3751007 0.12538259
-0.16313358 0.63579214 -0.68786025 0.23479147 -0.21373539 -0.20140317 -0.04883416 0.82427645
-0.0088482695 -0.036175504 0.011567576 0.21347433 -0.35580796 -0.22305933 -0.08660921 -0.07335171
-0.2590902 0.373294 0.41098127 -0.07231662 -0.060342576 0.6087368 0.3347638 0.05739483
-0.22363725 0.26806754 0.45047992 -0.1087148 0.095081136 0.38517022 -0.2768376 -0.5770814
-0.07911188 0.22720663 0.25821462 0.065776594 0.23381764 -0.053957187 -0.10046024 0.06473045
0.44399598 -0.01817672 -0.24447618 0.3422695 0.09942119 0.22577745 0.1999968 0.19000456
0.6994638 -0.4174924 -0.2119965 -0.08315632 0.008806646 -0.15409584 -0.25186023 -0.04176979
0.36961728 -0.37125632 0.2740657 -0.28605622 0.18734244 0.12102168 0.5542462 0.26460466
0.0029140573 0.11243345 -0.52798456 0.41555423 -0.4474828 0.07254619 0.4723763 -0.46253607
-0.19040681 0.05832449 0.353388 -0.12659715 -0.3498742 -1.0543526 0.18226734 -0.015432665
0.10894813 0.7338977 -0.10551803 0.039055724 0.015931146 0.2439911 0.16506685 -0.1833845
0.17591351 0.28290942 -0.95446146 0.15879187 -0.13406238 0.4618493 0.06079181 0.027871592
0.00622048 -0.14082077 0.33982903 -0.57798964 0.7057912 -0.24302223 0.309944 -0.24442337
-0.19207059 0.32445395 0.5437369 0.1883201 -0.65298665 0.89043796 -0.3532706 0.46788654
0.15138565 -0.31986535 -0.07462191 -0.064283274 -0.19743268 0.4640372 -0.1303637 0.09217513
0.6500282 0.040166676 -0.23483527 0.4002498 -0.6501076 -0.01444474 -0.37935647 0.37161976

encoder.4.bias f4 [32]
00000000: 3a1c dabe d716 16bf ef47 0cbf 74a9 083f
00000010: 3836 e8be 64a1 11bf 7c27 0bbf 3cf1 e5be
00000020: 379a d0be bae5 f53e d883 f63e 3699 1cbf
00000030: 6687 0abf f592 16bf 4159 09be 7db0 613e
00000040: 2fb7 7e3e a27a 2ebf d0f4 033f b16e 063f
00000050: b9ac da3e 6d03 7bbe 28a9 ecbe 08c9 10bf
00000060: 99ee cebe a379 02bf d749 f1be c02f 0cbf
00000070: ab49 fbbe 1972 863e 5edf 083f 9294 d2be
-0.4259966 -0.586286 -0.5479726 0.53383565 -0.45353866 -0.5688689 -0.54357123 -0.4491061
-0.40742657 0.4802683 0.48147464 -0.6117128 -0.5411285 -0.5881799 -0.13412954 0.22039981
0.24874566 -0.6815587 0.5154543 0.5251265 0.42709902 -0.24513026 -0.46222806 -0.5655675
-0.4041641 -0.5096685 -0.47126648 -0.5476036 -0.49079642 0.26258925 0.5346583 -0.41128975

nee_decoder.0.weight f4 [16, 32]
00000000: 03ca c33d b7ff e33e f293 363e 750a b4be
00000010: 93a7 863e c57d c13e 151d 953e 38e7 e0be
00000020: 547e 183e 5682 31be fb19 ddbd cc0e 03bf
00000030: 06bc 20be 1c22 013e 7e56 88be 3498 18bf
00000040: 3671 bcbd cf41 2a3e 9c6d 82be f164 f9bc
00000050: ef7c 11be 94ea 873e a7d1 033e 3b04 ba3e
00000060: 886e 733e 4487 b1bc 0a60 20bf 57c6 8abc
00000070: c85a 133e c61b 2ebf 3bc4 863c 4205 953d
00000080: 3684 18be 73ac d53d 7f68 91be 498d 3f3e
00000090: 08aa b93d c8de a4be 7442 edbe 8ee4 be3e
000000a0: 1df5 523e 1f88 993d 5364 79be 0381 c23d
000000b0: bc64 1cbe 3633 2bbf 84b8 17be 7c5c 473f
000000c0: 1cf8 1fbf e1ed 563c 80a3 0f3e e916 473c
000000d0: 5ccc 4ebe b8bd 2bbe 8713 3f3e ff89 9239
000000e0: da64 b23d 9dde ba3e 7aec 6cbd 8695 5dbc
000000f0: df5f 233e 2422 063e 0db1 0c3e 9d57 d7bc
00000100: 5b0f 71bc c3b0 d0bd 6db7 6bbd 0720 9bbe
00000110: 9930 9a3d 2159 bb3d 2613 223e e80f 77be
00000120: 48dd bf3d 0b69 a83e ba59 86bd e7a4 2cbe
00000130: babb 37bf 3ec3 173f af97 abbe 2b2d 6e3d
00000140: 4f9e 3b3f 04a5 cbbd a400 1fbf bb3e fbbd
00000150: dd1d 773e 2406 803e efcc 803d 4d0f 64bd
00000160: a9fb 9ebe 5bb1 5a3e 7e1c 38be a8b6 4bbd
00000170: 52e1 493d 911b 3d3f c6ec a1bd 00cf 513e
00000180: 86a1 893e 1d0d 43be 0f02 cd3e 57b7 483e
00000190: c5a9 3d3c da90 f8be 5566 10bf c677 393d
000001a0: 5d04 85be be37 4fbe 7cb0 a0be 9257 f03e
000001b0: f194 ac3d 6304 0c3a 84bc febe 83be 32be
000001c0: 47f4 59bb 7443 4fbe 1521 5cbd 26af 1bbf
000001d0: 49d5 3fbe a1cc 40bf d95c efbd 3704 cc3e
000001e0: 6372 b8bd 84ad 87be 39e1 15be b942 afbe
000001f0: 7b8a c3be 9c76 f2bd deee 03be 61cb 083d
00000200: 1f65 d13e 214c 853e 06a7 a43e 00d9 e13e
00000210: 3b54 0f3e 64b5 ad3e ed8f bebe 6f16 a0bb
00000220: cf47 8fbd 5450 2dbe 2dbf 33be 3350 a3be
00000230: 5c83 88bd e1a3 b5be d4b7 063f 1206 92be
00000240: c5b5 b73d b274 17bf c809 9abd 1383 393f
00000250: 506e 4f3e e287 3dbe 4ae0 82be 0c14 413d
00000260: 5b7b ca3e 7828 2bbf 7e5f 14be b009 9b3d
00000270: a022 b13e 414a e9be 705c 9fbd 781a 5d3e
00000280: e11e a93c 0f61 8ebd 313a 643c f10b 783d
00000290: 7726 303c 2652 483e 9692 35bd 2b31 18be
000002a0: be7a 0f3f 7eeb bf3d 5977 223e 9bbb 8d3b
000002b0: ccfb 0bbf c0aa 8fbe 1be5 f83e 7968 a13d
000002c0: 0660 c03c 2647 3abf 5879 833e 7e20 903d
000002d0: 4890 123d fbf5 8a3d 09fd b7bd 82a4 a63e
000002e0: fb71 d5be 9652 0bbf 11e5 163f 01ba 933e
000002f0: 0595 6cbe 8e7c 82be d73a 3e3e 1b62 9abd
00000300: 82f3 453f 6259 e13d 12ab 5fbe 4629 353e
00000310: ae17 04be 87df abbe da9d c73e 5aa8 943e
00000320: 0979 abbe 1642 d03d 4bd5 f63d 8525 393d
00000330: 8c54 283d c465 f7be f639 99be 53bf 6c3e
00000340: 85a9 e2be 09aa 383f a691 db3e 7d1e afbc
00000350: b23e f33e 7a10 43be 14ea 763f f9c1 6abc
00000360: 7c02 983d 3803 9e3e 7298 2e3e eb69 22be
00000370: 7b3f a93e 956c 4ebe 75fa 543d 3d6f d03e
00000380: c0f7 4abe 2234 ae3d 3c19 343c eb5c b4be
00000390: 69ca aebe f3c9 a8be 1bc1 be3e b531 863e
000003a0: dbc3 fe3e 268e aeba 79b2 07bd 5a9b 443f
000003b0: cd34 5f3e 7929 c5be de5a cbbe f5b1 8d3e
000003c0: 7325 b7be 93bb 80bd 5c1c 4b3d abe2 08be
000003d0: ebe2 d6be 5ae3 15bf e2ae ddbe 478a 5fbd
000003e0: 39e7 653e f4f9 f33c 7038 9d3d b295 b23e
000003f0: f5bc 41bf 9e33 5c3e ae6f 62be 45d0 babe
0.09560015 0.44531032 0.17829874 -0.35164228 0.26299724 0.37791267 0.2912375 -0.43926406
0.1489194 -0.17334875 -0.10795971 -0.51194453 -0.15696725 0.12610668 -0.26628488 -0.59607244
-0.09201281 0.16626666 -0.2547425 -0.03044364 -0.14207815 0.26546156 0.12872945 0.36331353
0.23772633 -0.021670945 -0.62646544 -0.016940279 0.14390099 -0.6801113 0.016450992 0.072763935
-0.14894184 0.10433283 -0.28400037 0.1870624 0.09065634 -0.3220122 -0.46339762 0.37283748
0.20601316 0.07496666 -0.24354677 0.09497263 -0.15272802 -0.66875017 -0.14816481 0.77875495
-0.6248796 0.013118238 0.14027214 0.012151458 -0.20195144 -0.1677159 0.18659793 0.00027950105
0.08710642 0.36497965 -0.05784271 -0.013524419 0.1595454 0.13098961 0.13739415 -0.026286894
-0.014713134 -0.101899646 -0.057547975 -0.30297872 0.075288005 0.09147859 0.15827617 -0.24127162
0.09368378 0.3289264 -0.06560083 -0.1685978 -0.71770823 0.5928229 -0.33514163 0.058148544
0.73288435 -0.099435836 -0.6211035 -0.12267824 0.24132486 0.25004685 0.06289088 -0.055678654
-0.31051376 0.21356718 -0.17979619 -0.04973474 0.049287148 0.7387019 -0.07906489 0.2048912
0.26881045 -0.19047971 0.40040633 0.19601189 0.011576121 -0.48548013 -0.56406146 0.04528024
-0.2597989 -0.20236108 -0.31384647 0.4694181 0.08426846 0.000534123 -0.497532 -0.17455487
-0.0033257173 -0.20240575 -0.053742487 -0.6081413 -0.18733706 -0.7531224 -0.11687631 0.39846966
-0.090061925 -0.2649957 -0.14636697 -0.34230593 -0.3819159 -0.11839029 -0.1288409 0.033397082
0.40897462 0.26034644 0.3215868 0.4411087 0.13996975 0.33927453 -0.37219182 -0.004885487
-0.06996118 -0.16925174 -0.17553397 -0.31897125 -0.0666568 -0.35476592 0.5262425 -0.28520256
0.08970217 -0.5916244 -0.07521397 0.7246563 0.20256925 -0.18508866 -0.25561744 0.04713826
0.39547238 -0.66858625 -0.14489552 0.07570207 0.3459673 -0.45564464 -0.07781303 0.21592128
0.020644607 -0.06952106 0.01392989 0.060558263 0.010751358 0.19562587 -0.04432925 -0.14862506
0.56046665 0.093710884 0.1586584 0.004325343 -0.54681087 -0.2805996 0.48612294 0.07881255
0.023483288 -0.72764814 0.25678515 0.070374474 0.03578213 0.06785198 -0.089838095 0.32547385
-0.41688523 -0.5442289 0.5894328 0.28852847 -0.23103721 -0.25485653 0.18577133 -0.075382434
0.7732469 0.110033765 -0.21842602 0.17691526 -0.12899658 -0.33568975 0.3898762 0.29034692
-0.3349078 0.10168855 0.12052401 0.045201797 0.041096255 -0.4831983 -0.29927033 0.2311986
-0.44269958 0.72134453 0.42884558 -0.021376843 0.4750877 -0.19049254 0.96450925 -0.014328473
0.07422349 0.3086183 0.17050341 -0.15860717 0.33056244 -0.20158608 0.051996667 0.40709868
-0.19821072 0.08506037 0.0109923445 -0.3522714 -0.34138802 -0.32966575 0.37256703 0.26209798
0.497588 -0.001331751 -0.03312919 0.7679955 0.21797486 -0.38508204 -0.39717764 0.27674833
-0.3577076 -0.06285777 0.049587592 -0.13367717 -0.4197 -0.58550036 -0.43297487 -0.05457523
0.22451486 0.029782273 0.0767678 0.34879833 -0.7567895 0.21504065 -0.22112915 -0.36487022

nee_decoder.0.bias f4 [16]
00000000: f3a6 7fbe 2c70 9dbd 98fe 9bbe 75c6 523e
00000010: f8cd ac3e 9e0f ab3e 3dc9 c3be 6da6 513e
00000020: 9f68 223e 7759 803e d976 7a3e f90d 9e3d
00000030: 77b9 f93c 458a 3f3e ce36 783e 0104 533d
-0.2496603 -0.07687411 -0.30467677 0.20583518 0.33750892 0.33410352 -0.3823947 0.20473643
0.15860222 0.25068256 0.244594 0.07717509 0.030483944 0.1870509 0.24239656 0.05151749

nee_decoder.2.weight f4 [16, 16]
00000000: 9bd2 8dbe f1e4 8b3e 70f1 7cbe 5723 de3e
00000010: 028c c33e a168 3e3e 75a4 e0bd 3bd0 a2bf
00000020: 62d0 8d3e 4ab6 82be 10b0 3d3f 9ab5 363f
00000030: f0ad 70bd a140 bfbd fc1a 233f 9a0c 31bf
00000040: 5f71 e73d 0d6d 2d3e 89a2 23bf c121 ea3d
00000050: 3314 d73e b700 24be 2fa5 a83d 1d6a 9ebd
00000060: ff77 21be a1d5 5c3f bcd5 053f 3212 20be
00000070: fedc 86bf 76f6 343c 3cee eebe 2eb9 4abe
00000080: 7078 81be d8c1 453d 26aa d03e d94f b43e
00000090: 7727 5e3d b09b dc3d 59d0 76be 50b5 30bf
000000a0: 5662 f63e f3c2 783d 6a36 e93e 9567 e83e
000000b0: 27a3 bf3d 0e05 51be 1a5a e33d 52e2 debe
000000c0: aa33 703e 458a 18bf 033b 1f3e 7bd2 183f
000000d0: 2a58 09be 855e 82be 22d4 babe 8a19 80bf
000000e0: 3000 aabd bc55 9a3e 701e 10be 8149 1c3f
000000f0: 38b6 8a3d 1b0a a93d 1796 483f 556e 10bf
00000100: e59d b33e 444f de3e c88a 9abc 35c8 cbbe
00000110: 0706 ca3e f762 68bd 5880 16bf 1031 613e
00000120: d0be 1bbf 1aa7 023f bc42 d33d d800 f6be
00000130: 8f68 69bf 365e 01bf 5181 5b3e 13fe 87bd
00000140: 4403 4abf 3494 a0be 70c5 c03c 5ec8 113c
00000150: 3ae0 75be 7bb0 ba3e 97dd 24bf 3c4e aabe
00000160: 5899 683f 75e3 583e 1050 e23e 7049 2f3f
00000170: d7a5 453e 3832 e53e 8757 ed3d 6347 20bf
00000180: 23c9 34bf ecfb a4be b547 963e b8c8 f13e
00000190: b2e9 2c3f 600f 323f e419 a63d 861c e7be
000001a0: 53c9 303f 4685 50be 580e 5a3e 63ae 343f
000001b0: 1183 ee3d 0031 e5bd 1421 22bd a6a2 afbe
000001c0: 849a 1ebe faab 643e 6ed9 87be 6dd2 d4be
000001d0: b180 46bd cd08 1ebe 0802 e73e 5fe5 81be
000001e0: 5d23 59bd e083 34be e80b 42bd 0d64 0a3e
000001f0: 1c6c 1f3f 9f61 003f fba6 3abe 26f1 bf3d
00000200: 5337 733c e015 233f 4a6d 66be 7b3c 463f
00000210: 57c4 43be 6b0d 443d f79d 23bf 5d0a 753e
00000220: aac6 39be 6531 45bd 38da bcbf 8297 f0be
00000230: b3cc 953e 6d7e d6be f08d 1e3e 6536 0fbf
00000240: d739 24be 8612 adbe 4c74 f9bf 044b 0a3f
00000250: 9e5f 063d 74d8 b63e 56d2 70bc 9ad8 1bbf
00000260: 87fb 6b3f 889c b0bd a72b bd3e 46cb 673f
00000270: 5eeb e63e 5616 aabf fcc9 fdbe e399 b4bf
00000280: 2a00 9fbe dee4 8fbe 2473 c6bd 5c2f f73d
00000290: 7544 d43d 1722 d63e 6b5c 23be 49ab b3be
000002a0: b0b7 733e 3997 6d3f f0a4 3c3f 086e f03e
000002b0: f3b5 75bd 1a2a 16be 0765 a0bc 0307 c73d
000002c0: 2bb8 b1be a044 053e ad57 cfbe efab 9fbe
000002d0: 5718 4bbf fe07 a83e bf55 3a3f a8d2 dabe
000002e0: 383c 74be 98ee d1be efa7 48bf 3b70 1ebf
000002f0: 15b2 38be 6c16 3dbe fc0a 9abc 96f8 523e
00000300: 3cc4 113f 36a9 76bf fd05 533e 4e73 553f
00000310: 2d6b 9fbe 533e 52bd 9df8 fa3e 463e 483f
00000320: 00a9 1ebf b4eb 5d3e 1a5c 3cbe 925a 943e
00000330: 9bc4 133f 3720 1c3e fd69 78bf a1bf 3dbf
00000340: 97fa 18bf beae 3cbf 0d31 0cbf 1566 173f
00000350: b736 903e 5aa9 a53e 7ac7 c1bc 1911 50bf
00000360: 09dc 513e 8a85 06bf 3b0c fc3e feb7 10be
00000370: 3e7d 2a3e 350f 34bf 74a0 8dbe b95a f8bd
00000380: b7aa 693f a221 f5bc d264 abbe e35b 08be
00000390: 7b88 363f fa4e 333e 6762 8b3d c636 d93d
000003a0: 39c2 86be 1414 94be 5cf8 afbe 183f cabc
000003b0: a2d8 553c f0a0 d43e 63c6 0ebf d8b5 e03e
000003c0: e7c1 47bf c6c9 943e 9a98 f8bd 0055 df3b
000003d0: 8908 153f 3c4a ed3e 664f 993e f34f f53e
000003e0: 9115 013f fd2f 0a3e b536 8b3e 1e19 013f
000003f0: cc08 fa3d 394a 293f da3a 0b3e 4fe1 39bf
-0.27699742 0.27323106 -0.24701476 0.43386337 0.38192755 0.185946 -0.10968868 -1.2719797
0.27698046 -0.255297 0.74096775 0.7137085 -0.05875963 -0.09338499 0.6371305 -0.69159853
0.11300921 0.16936131 -0.63919884 0.11432219 0.42007598 -0.16015898 0.08234631 -0.07735083
-0.15768431 0.8626347 0.5227926 -0.15631941 -1.0536191 0.011045089 -0.46666133 -0.19797203
-0.252872 0.048280567 0.40754813 0.3521717 0.054236855 0.107718825 -0.24102916 -0.6902666
0.481219 0.060732793 0.45549327 0.45391527 0.09357291 -0.20412084 0.1110117 -0.43532044
0.23457208 -0.5958598 0.15549855 0.5969617 -0.13412538 -0.25462738 -0.3648997 -1.0007794
-0.08300817 0.30143535 -0.14074111 0.6104966 0.06773037 0.082538806 0.7835402 -0.56418353
0.350814 0.4341985 -0.018865004 -0.39801183 0.39457723 -0.056735005 -0.5878959 0.21991372
-0.6083803 0.51036227 0.10315463 -0.4804752 -0.9117517 -0.5053438 0.21436049 -0.06640258
-0.7891123 -0.3136307 0.023531646 0.008897869 -0.24011317 0.3646277 -0.6440062 -0.33262813
0.90858984 0.21180518 0.44201708 0.6847143 0.19301544 0.44764876 0.1158896 -0.6260893
-0.7061941 -0.3222345 0.29351583 0.4722345 0.6754409 0.6955471 0.08110407 -0.4513895
0.69057196 -0.2036334 0.21294534 0.70578593 0.11646093 -0.11190987 -0.039582327 -0.34303778
-0.1548863 0.22331229 -0.26533073 -0.41566792 -0.048462573 -0.15433045 0.45118737 -0.2537031
-0.05301224 -0.17628431 -0.047374636 0.13514729 0.62274337 0.5014896 -0.1822776 0.09372167
0.014844733 0.63705254 -0.22502628 0.77436036 -0.19117866 0.04786436 -0.6391291 0.23929735
-0.1814219 -0.04814281 -1.4754095 -0.4699059 0.29257736 -0.4189333 0.15483832 -0.55942374
-0.16037689 -0.33803195 -1.9488616 0.54020715 0.03280603 0.35712016 -0.0146985855 -0.6087738
0.92180675 -0.08623606 0.36947367 0.90544546 0.45101446 -1.3288066 -0.49568164 -1.4109462
-0.31054813 -0.281043 -0.0968993 0.1206958 0.1036462 0.41822883 -0.15953223 -0.35091618
0.2380054 0.9280887 0.73689175 0.46958947 -0.059987973 -0.14664498 -0.019579424 0.09718134
-0.34710822 0.1301446 -0.4049658 -0.31185862 -0.79334015 0.32818598 0.7278709 -0.42738843
-0.23851097 -0.41002345 -0.78381246 -0.6189 -0.18036683 -0.18465585 -0.018804066 0.2060264
0.56940055 -0.96351945 0.20607753 0.83379066 -0.31136456 -0.05132897 0.49017802 0.7822002
-0.61976624 0.21671945 -0.18394509 0.2897535 0.5772187 0.15246664 -0.97036725 -0.7412053
-0.5975737 -0.73704135 -0.54762346 0.5914014 0.28166744 0.32355767 -0.023654688 -0.8127609
0.20494093 -0.52547514 0.4922808 -0.14132687 0.16649339 -0.70335704 -0.2766148 -0.12126679
0.91276115 -0.029923264 -0.33475357 -0.13316302 0.71302 0.17510596 0.06805878 0.1060615
-0.26320055 -0.28921568 -0.3436917 -0.024688289 0.013052138 0.41529036 -0.55771464 0.43888736
-0.78030246 0.2906019 -0.121384814 0.0068155527 0.5821615 0.463457 0.2994339 0.4791256
0.5042353 0.13494869 0.27190176 0.5042895 0.12208709 0.6612888 0.13596669 -0.7260942

nee_decoder.2.bias f4 [16]
00000000: cfd2 9a3e 3ef1 b1bc dcb2 9d3e f377 9e3c
00000010: 2519 9cbe b508 703e 4445 a73e 134b 53be
00000020: 0d28 493e b42d da3e f3f3 953e 63f3 29bd
00000030: c600 3f3d ff0e 7f3e 327c 58be 82cd aa3e
0.3023896 -0.021721479 0.3080052 0.019344306 -0.30487934 0.23440821 0.32670033 -0.20634107
0.19644184 0.42612994 0.2928768 -0.041491877 0.046631597 0.24908064 -0.21141127 0.33359915

nee_decoder.4.weight f4 [1, 16]
00000000: a189 2b3f c12d 86bf 5477 5f3e 36fe 423f
00000010: 4a3c 7cbf bef2 2b3e 5a77 cc3e d993 59be
00000020: aa23 ec3e 0828 c23f 44da 593f da90 6ebe
00000030: ea82 05bf d6a0 673f 042c c5be f5c2 b93e
0.6700688 -1.0482713 0.21822864 0.76169145 -0.98529494 0.16791818 0.39934808 -0.21247806
0.4612096 1.5168467 0.8509867 -0.23297444 -0.52152884 0.9047979 -0.38510144 0.36281553

temp_derivative_decoder.0.weight f4 [16, 32]
00000000: 6c36 263f a79b 633e f890 933e cfff 723d
00000010: 0ef6 d1bc dc0a 04be 9424 c0bd 7c36 d5be
00000020: a007 19bd 6887 bb3d 4a2f 91be e07c 883e
00000030: b4d7 95be 8b59 70bd 41ad a03e 0025 9ebc
00000040: cc79 f93d 3032 d13e a4f0 3dbe 3aca e8bd
00000050: 6430 8c3e 7156 763c 22e0 b63d bccf a63d
00000060: 21ba 943d 7cc3 e13c 5b26 803e cf83 a9bd
00000070: 9838 113f f897 223e 62ad fabd 3ecc 613d
00000080: 3c4c 2a3e b0fe adbe 4531 433d 0d7d 3d3e
00000090: c07f d7be 6742 05bd f163 78bd 8723 5d3e
000000a0: b488 aa3d e856 ae3e 5b27 d3bd d2fb a8bd
000000b0: 5968 5b3e 05cf 813e 7f67 92bd a94a 8abd
000000c0: 9bcb 21be 6602 8b3d ce39 e2be 9319 103e
000000d0: 06a5 843e b3ac bc3e b5e9 973e d629 aebd
000000e0: 05ce 03be 388c b43e b668 ed3d 0ba4 10bf
000000f0: 243a 143f 449a 09be 5a95 1fbe 9e14 7a3e
00000100: e01b c13d 0236 2ebe 327d bcbe 8735 92bd
00000110: bfd3 8bbe a717 3b3e ba17 6dbd 8977 7abe
00000120: 2494 3a3e cbe3 863d f98a 0bbe 0f78 88be
00000130: 56d8 133c 6db6 6e3e 8054 dd3c c621 783d
00000140: 8889 843c d705 68bd 58ff c13e f221 b63e
00000150: 7f4d e4bc 6462 aebe 3ba0 c6bd 836f a73c
00000160: 7182 473e f796 acbd 968e 563c b686 3bbe
00000170: 388f 2d3e 2399 87be 9dcf cbbe ab7a 0e3e
00000180: d8a7 dabe f5f0 6e3e cdaf 80be 5077 cabe
00000190: b262 98be 1653 6e3e 2ea5 1a3e 4f60 80be
000001a0: 4c55 0dbe 1030 873e cf86 6c3d f6ba 9abd
000001b0: 5679 9b3e 587a 1fbe 3b9d dabe ff52 babe
000001c0: dbdd ddbe cae3 a73d d75e ea3d 6df4 cb3e
000001d0: 8f01 c03b 4b8b fdbd df9d 97be ecbc e4bc
000001e0: ebd9 a63e bb68 d5bd 5697 ba3e 658e fe3d
000001f0: e05a e0be c678 5e3e ac0a 4abc 4c3a b13e
00000200: ce98 c43d e757 20bf 6531 8abe 370f c93e
00000210: 3026 123e 9d34 2ebe 4d94 ad3d e0b1 80bc
00000220: b9bf 9dbd 25a7 d43e 03cb f33d bd52 a8bd
00000230: cd46 a53e aaed 743d 61bb f53d 294f 3f3e
00000240: 99ea 3e3d 3c5c 12be 0a01 423e 043c d4bd
00000250: ffaa bf3e 516c 27bd 3dc9 2abe 14f8 173e
00000260: a033 2fbe 0ae9 65be 74e9 1c3e 2d75 a3bd
00000270: eb82 813e 5dd9 05be fc12 993e a3c9 5d3e
00000280: d5ed d2bd c941 e9bd 33c0 083e 84a0 76be
00000290: ba3f 4f3e ee5f 913e 9d8f a4bb d7b6 a2bd
000002a0: 881e 963d fc31 8c3d 0bb9 dcbe 5a86 2dbe
000002b0: 682c 903e 7eaf 313e 1290 a23d ddc5 10be
000002c0: c0c3 83bd 726e a9be 65ad 023c e306 14be
000002d0: f10f 7dbd 7b9d bbbb f748 a53d 7d44 383e
000002e0: 021c 66be a211 86be 8f81 36bd 8e52 9fbd
000002f0: 1f53 383e 985e a03e dff0 c33b e84d 883d
00000300: 81c8 313e 0b31 07be 0b8a 40bd 8d71 4bbc
00000310: d9cc 373e 3cd9 abbe 80a3 c0bd 48a8 be3d
00000320: 135e b6bd 4886 33be 7d57 863e 4526 623e
00000330: f242 743e 0df5 adbd 3d5e 9abc 7c9c 7d3e
00000340: 72ae 863e 7d5f 6d3e 5d81 91be 038c 5a3e
00000350: 8e07 e03d 2a4a 943e c60d 5b3e f8b2 4c3e
00000360: ddcf ccbd af2e 26be 38ad 833e e0a1 133e
00000370: a569 babd 1f54 2ebe 755e b23e e97d 59bc
00000380: 05bb 263e d1d7 9e3d 72d9 7fbe ac94 90bd
00000390: 81d1 94be 8f17 28bd 55b8 c23c 28ab 693e
000003a0: 22e6 a23e ab19 b03e b4aa a8bd 32a8 f33e
000003b0: 2e23 21be 50a3 0e3f fcc7 9b3d 7dc1 a4bc
000003c0: 8805 903e 0b96 b63e ad2e 9c3e 0c70 7e3c
000003d0: 0936 ffbb a0e8 ac3a b2a3 bfbd 7cd3 213d
000003e0: 0ace d73d fed4 cb3e 374c c5bd c843 1cbf
000003f0: c689 023d 40db 88be 7102 c83e da4d bcbe
0.6492679 0.22227345 0.2882154 0.05932599 -0.025630023 -0.12894768 -0.09381977 -0.4164313
-0.037360787 0.09156686 -0.2835639 0.26657772 -0.2926613 -0.058679145 0.31382182 -0.019304752
0.12181434 0.40858603 -0.18548828 -0.11366697 0.2738067 0.015035258 0.08929469 0.08145091
0.07262064 0.027559035 0.25029263 -0.082770936 0.5672698 0.15878284 -0.122401014 0.05512642
0.16630644 -0.33983374 0.04765441 0.18504734 -0.42089653 -0.03253403 -0.060642187 0.21595584
0.08326855 0.3405068 -0.10310241 -0.08251156 0.21426524 0.25353256 -0.071486466 -0.067525215
-0.15800326 0.06787567 -0.44184726 0.14072256 0.25907153 0.3685051 0.29670492 -0.08504073
-0.12871559 0.35263228 0.11592238 -0.5650031 0.57901216 -0.13437754 -0.15584317 0.24421927
0.09429145 -0.1701279 -0.36814266 -0.07139116 -0.27309987 0.18270741 -0.057883956 -0.24459662
0.18220574 0.06586417 -0.13627233 -0.26654097 0.0090237465 0.23311777 0.027017832 0.060579084
0.016178861 -0.056646194 0.37890124 0.35572773 -0.027868984 -0.3405944 -0.0969853 0.020438915
0.19483353 -0.08427232 0.013095519 -0.18313107 0.16949165 -0.26484022 -0.39806834 0.13913982
-0.4270618 0.23334105 -0.25134125 -0.39544153 -0.297628 0.23273882 0.15102074 -0.25073478
-0.1380207 0.26403856 0.05774575 -0.07555191 0.3036601 -0.15574014 -0.42698082 -0.36391446
-0.43333325 0.08197744 0.114438705 0.3983492 0.005859561 -0.12380084 -0.29612634 -0.027922116
0.32588133 -0.104203664 0.36443585 0.12429503 -0.43819332 0.21725759 -0.012331646 0.3461479
0.09599458 -0.6263413 -0.2699081 0.3926942 0.1427238 -0.17012258 0.08475552 -0.015709817
-0.07702584 0.4153377 0.11903956 -0.08218906 0.3228058 0.059796967 0.1199863 0.18682541
0.04661045 -0.14292997 0.18945709 -0.103630096 0.37435147 -0.040874783 -0.16678329 0.14840728
-0.17109537 -0.22452179 0.1532343 -0.07981334 0.25295195 -0.13071199 0.29897296 0.2165895
-0.10299269 -0.11389501 0.13354568 -0.2408467 0.20239154 0.283935 -0.005022003 -0.0794503
0.07330042 0.06845471 -0.43109927 -0.16945782 0.2815888 0.17352101 0.079376355 -0.14137979
-0.06433821 -0.33092076 0.007975911 -0.14455752 -0.06178278 -0.0057255602 0.080705576 0.17994876
-0.22471622 -0.26185328 -0.04455715 -0.07779418 0.18000458 0.3132217 0.005979642 0.066554844
0.17361642 -0.13202302 -0.047006648 -0.012417209 0.17949237 -0.33564174 -0.09406185 0.09309441
-0.08904662 -0.17531693 0.26238623 0.22084911 0.23853663 -0.08494005 -0.018843764 0.24766725
0.26304966 0.23180957 -0.2841901 0.21342473 0.10938941 0.28962833 0.21391973 0.19990146
-0.10000584 -0.16228746 0.25718093 0.14417219 -0.09102181 -0.17024277 0.3483769 -0.013274648
0.1628228 0.077560075 -0.24985293 -0.07059607 -0.2906609 -0.041038092 0.023769537 0.22819197
0.31816202 0.34394583 -0.08235684 0.4758926 -0.15736076 0.55717945 0.07606503 -0.020111794
0.2812922 0.3566135 0.3050436 0.015529644 -0.007788424 0.0013191886 -0.09357394 0.039508328
0.10537346 0.39810938 -0.096336775 -0.61040926 0.031869672 -0.26729774 0.39064363 -0.36778146

temp_derivative_decoder.0.bias f4 [16]
00000000: bd89 96bd 4694 d23d 8927 f2bb d6c8 f53b
00000010: c5f2 7b3d 36e5 e1bd 23c4 4f3d 4d55 d83d
00000020: d6ca 04bd 54e6 87bd 381d 9dbb f75f d4bc
00000030: da8f 55bd a8d0 47bc b054 33bd 179b 59bd
-0.0735049 0.10282187 -0.007389967 0.007500748 0.06151082 -0.11030047 0.05072416 0.10563145
-0.032420002 -0.066357285 -0.004794743 -0.025924666 -0.05213914 -0.012195744 -0.043781936 -0.05312642

temp_derivative_decoder.2.weight f4 [16, 16]
00000000: 5c92 c7bc 9f0a a7be 2091 ebbe 76f8 253e
00000010: 476d 71be eeb5 713e 8338 03bf 7aa9 80be
00000020: 4d41 483e b2eb c3be a481 0abf 9939 993e
00000030: 7697 4f3f c800 fc3d 1e1d 893e 5c98 0f3e
00000040: b941 1cbd 6e89 c53d e93d 69be 6482 143d
00000050: a4f1 d13c 3b5e fa3e 8b4d 843e 11df 54be
00000060: a9fa f6be 0ac9 423f 3448 06bf e4e0 333d
00000070: fb9b 7d3d e539 bcbe d9ee 003f c67c de3e
00000080: a923 de3e 3229 d53d 0f9a 6abe 69f3 44be
00000090: 5529 c3be 7234 7c3e fc7d eb3e 9862 b33d
000000a0: bb79 73bd 0781 0dbe b48d eebe f642 e33d
000000b0: 8db8 cebd 003e 47bd 4596 353d c732 b3be
000000c0: 9343 56bf a17d a93e 1c99 08bf ec39 98be
000000d0: f943 44bf a465 1e3f 6109 003f 933e aebe
000000e0: 3c2b 1b3f 5e9c 18be 24df adbe 7bd2 833d
000000f0: d48f 27be 1461 c13c aaad 5e3d 85dd d03e
00000100: 8d65 093f ec25 63be cf76 e73e c6e5 663e
00000110: 9ffc 57be 7f09 8b3e 7d0a c3be 761f e3be
00000120: 7c82 bebe c353 90be ce99 9c3e b218 fbbd
00000130: 9348 1a3f b46d cebd e69e 64bd f061 cfbe
00000140: a452 1d3f b164 b8be a0f8 61bd d85e ebbe
00000150: 479e 5e3d cc0d a8be c015 d3be ebf8 d23e
00000160: f106 53be 4106 093e 750e cd3d 8d74 12bf
00000170: c9a6 a83d b561 93be a53f 013e 5ca2 f2be
00000180: 84f1 8a3e 8595 67be 4f81 b63c c99f b0be
00000190: 9b52 2f3e 2cd8 c53e bd85 43bf 5f90 61be
000001a0: 1631 61be 774a 5a3f 8672 5ebf 1532 0fbe
000001b0: a83e d13d 3643 3d3e 20b9 f2be 0ed4 8d3e
000001c0: a13a 683d b078 2ebe d0f1 f83c 5dba f7bd
000001d0: a0a4 fdbe f408 c03e 3198 f9be 12d7 183e
000001e0: b786 703e f1eb 2d3e 502e 3b3e d725 6d3e
000001f0: 73da c7be d4b9 c8be 2fef 573e 6269 1dbe
00000200: f409 12bf 0f17 143f 6831 c43e e13a 8dbe
00000210: 75d9 1dbf 19a0 0fbe 4b59 783e 9e69 ac3d
00000220: e6b0 25ba 069b eb3e 03e6 e13e 0203 32be
00000230: a756 89be e7b1 22bf 1366 01be 9188 a03e
00000240: 7456 f9be 62dd 3bbe 2bad 443f 394f aa3e
00000250: 3976 92be 00c4 b5bd ad93 b43e 4705 943d
00000260: 95b0 6ebe 0903 4d3e 2b91 133e e930 a3be
00000270: 8af4 89be 8192 d5be 602e b8bd f9e8 9b3d
00000280: b4de 52be f8d8 473d 8247 af3d 654a 52bd
00000290: 7800 c73d 79a3 2d3f 12d7 d8be 5960 cabe
000002a0: 0e4f 443e 5c71 f33d af13 f93e 560b c63e
000002b0: e1cc 583e 942f fb3d 4976 6ebe b713 98be
000002c0: fc90 983e 41bb 3ebe a689 39bf 2396 e3be
000002d0: 6a32 7cbe 9af6 893e d1b9 903d 8412 e33d
000002e0: 0bf5 11be 1738 7dbe 1329 543e 9d53 babd
000002f0: b67e af3d fdc8 113d ea01 33be 2b94 813d
00000300: 3459 d73d bcd6 f83d b308 303d 5e57 acbd
00000310: 3584 cabe 3631 dabe f1ce aebd bc33 b43d
00000320: 9d65 81be fa1e 103e cb46 823d 58d2 213e
00000330: 4ea9 43bf 65a1 b33d a5b4 013e 3bbe 1abf
00000340: 6cae 45bd c52d a9be cbbf 13bf d9b0 a1be
00000350: 1e4e 22be a85e 843e 8478 8b3d 85c9 91be
00000360: 5bc2 03bf 635e 073e eddc 473e 9233 d1be
00000370: 0745 f6be 24b6 46be f288 b6be aeb8 ea3e
00000380: 56d2 8b3e 0af8 c63e c2a2 d5be a942 debe
00000390: 77ca 82be 8c64 443e b04c dfbe 6379 0abc
000003a0: 72c2 a6bd 6929 643d 30fc 1abe 3d11 3d3d
000003b0: 5e1f 953d 2bf9 343d 61e4 d6bc f37e 83be
000003c0: 4684 53be 8399 ac3e 9e94 4abf 6247 e6be
000003d0: 8368 58be 0b3a d0be 290d 3b3e da3f c33d
000003e0: de0c c3be bb61 cd3e 070c dd3d e53c 6cbe
000003f0: d8cc 373d 1297 52be 0071 a3be f09c 22bf
-0.024361782 -0.3262529 -0.4600916 0.16208062 -0.23576842 0.23604557 -0.51258105 -0.251293
0.1955616 -0.3826576 -0.54104066 0.29926756 0.81090486 0.123048365 0.26780027 0.14022964
-0.038148616 0.09645353 -0.22777523 0.036257163 0.025627919 0.48900017 0.2584041 -0.20788218
-0.48238114 0.7608801 -0.52453923 0.043915644 0.061916333 -0.3676292 0.5036445 0.4345457
0.43386582 0.10408248 -0.22910331 -0.19233479 -0.3811747 0.24629381 0.45994556 0.0875904
-0.059442263 -0.13818751 -0.46592486 0.11096756 -0.10093794 -0.048643112 0.04433276 -0.34999678
-0.8369686 0.3310366 -0.53358626 -0.2973169 -0.7666622 0.6187384 0.5001431 -0.34032115
0.60612845 -0.149034 -0.33959305 0.0643663 -0.1636346 0.02360586 0.054364838 0.40794006
0.5367058 -0.22182435 0.4520783 0.22548589 -0.21092461 0.27155682 -0.3809394 -0.4435994
-0.37208927 -0.28188905 0.30586094 -0.1226057 0.6026699 -0.10079518 -0.0558156 -0.40504408
0.61454225 -0.3601432 -0.055168748 -0.45970798 0.054350164 -0.32823026 -0.4122753 0.41205534
-0.20608117 0.13381292 0.10012523 -0.5720909 0.08234937 -0.28785482 0.12621935 -0.47389495
0.27137387 -0.22615631 0.022278456 -0.34496906 0.17121355 0.3864149 -0.76375943 -0.2202773
-0.21991381 0.85269874 -0.868935 -0.13983949 0.10217029 0.1848267 -0.47406864 0.27700847
0.056696538 -0.17038226 0.030388743 -0.12096093 -0.4953966 0.3750683 -0.48748925 0.14925793
0.2348889 0.16984536 0.18279386 0.23158966 -0.3903385 -0.39204276 0.21087335 -0.15372232
-0.5704644 0.57847685 0.38318944 -0.27583984 -0.6165994 -0.14025916 0.24252813 0.084185824
-0.00063206104 0.4601671 0.44120798 -0.1738396 -0.26823923 -0.6355271 -0.12636594 0.31354192
-0.4869877 -0.1834617 0.76826733 0.33263567 -0.28605822 -0.08875275 0.35268918 0.07227569
-0.23309548 0.20020689 0.14410846 -0.31873253 -0.2694438 -0.41713336 -0.0899322 0.076127954
-0.20592767 0.048790902 0.08558561 -0.05134048 0.09716886 0.67827564 -0.42351586 -0.39526632
0.19170782 0.11886856 0.4864783 0.38680524 0.21171905 0.12264934 -0.2328731 -0.2970254
0.29798114 -0.18626119 -0.7247566 -0.44450483 -0.24628606 0.26945955 0.07066692 0.11087516
-0.14253633 -0.24728428 0.20718794 -0.09097979 0.0856909 0.035592068 -0.17481199 0.06327089
0.10515061 0.12150332 0.042977046 -0.084151015 -0.3955399 -0.4261567 -0.08535565 0.0879893
-0.25272837 0.14074317 0.06361159 0.15802896 -0.76430213 0.08771018 0.12666567 -0.6044652
-0.048262045 -0.33042732 -0.5771453 -0.31580237 -0.15850112 0.25853467 0.06810096 -0.2847406
-0.5146844 0.132196 0.1951787 -0.40859658 -0.4809954 -0.19405419 -0.35651356 0.45844024
0.2730891 0.38861114 -0.41725737 -0.43410233 -0.25545093 0.1917898 -0.43613195 -0.008451792
-0.08142556 0.055703554 -0.15135264 0.046159018 0.072813734 0.044182938 -0.026231946 -0.25682792
-0.20655927 0.3371087 -0.7913302 -0.44976336 -0.21133618 -0.40669283 0.18266739 0.09533663
-0.38095754 0.40113625 0.1079331 -0.23070104 0.04487309 -0.20565441 -0.3192215 -0.6352072

temp_derivative_decoder.2.bias f4 [16]
00000000: 8d7c 71bd 8717 7cbe 55c9 f03c 767a ffbc
00000010: 5c57 d5bd 2e90 60bd e3e3 b3be c57c 4fbd
00000020: a973 8cbd 3260 cabd b5d8 2cbe 664b 3c3c
00000030: b1c7 77bd 0000 0000 d77e 7dbd fceb 90bc
-0.05895667 -0.2461835 0.029392878 -0.031186324 -0.10417053 -0.054825 -0.351348 -0.0506561
-0.06857998 -0.09881629 -0.16879542 0.011492586 -0.060493175 0.0 -0.061888542 -0.017690651

temp_derivative_decoder.4.weight f4 [1, 16]
00000000: 86b7 503f b45e 9ebd 9c6b 5dbe 1a3c 40be
00000010: 6578 0e3d b2a1 7d3c d32e b5bd a316 553e
00000020: efa6 2abf d889 003c c96d 10bd 47a1 34bf
00000030: a84a f33e 6b94 893e 90c4 9a3e cde6 47bd
0.81530035 -0.07732907 -0.21623081 -0.18772927 0.034782786 0.015480446 -0.08846822 0.20809416
-0.6666097 0.0078453645 -0.03526095 -0.7055859 0.47517896 0.26871046 0.3022809 -0.048804093
