pivae_sde/2024-8-28_14-51-4-665538/best_model.pth (torch, 22882 bytes, 22 tensors)

encoder.0.weight f4 [16, 18]
000000 f5 f1 ee bc 87 da 38 bd 7d be 25 3d 74 a9 ac 3c
       -0.029168108 -0.04513028 0.040464867 0.021076895
000010 5d 3c 00 3e 64 2f 56 be ee 29 f0 3d 66 30 be bc
       0.12523027 -0.20916516 0.117267475 -0.023216438
000020 ee 30 0a 3e 2a 5d 78 be d0 3b 9e 3d 11 1a 3b 3c
       0.13495228 -0.2425429 0.07726252 0.011419789
000030 3c d8 bc 3b f3 42 cc be 78 68 dd 3e be 98 3d bf
       0.005763082 -0.39894828 0.43243766 -0.7406119
000040 e7 5e bf 3e 4e 86 e3 3d 29 f4 a1 3e 74 85 db be
       0.37377092 0.11109601 0.31631592 -0.42875254
000050 a5 d8 8e be cd a7 fe be d4 7a 54 3c 6e 4b ed 3d
       -0.27899662 -0.49737397 0.012968738 0.11586653
000060 74 ae c0 3d 4d dd 2e 3e 33 4b bc 3d b6 01 8e 3e
       0.09408274 0.17076607 0.091940306 0.2773568
000070 af 38 29 bf e9 47 e7 3d 34 bc 96 3e 12 9c 68 3e
       -0.6610212 0.11293013 0.29440463 0.22715786
000080 95 65 1b 3f 85 d2 14 bb a5 49 32 bd 73 b9 8e bc
       0.60701877 -0.0022708487 -0.043527264 -0.017422413
000090 ec 05 4c 3d d5 10 cd bd 7e 83 75 3d 4f b6 31 be
       0.049810335 -0.10012976 0.059939854 -0.17354701
0000a0 ca 95 7f 3d 75 e9 0b be fd 88 f4 3d 7a c0 d5 3d
       0.06239871 -0.13663276 0.11940191 0.104371026
0000b0 8e 3c a6 3d 98 a7 e6 3d ae 07 30 3c 9c d4 76 bd
       0.08117019 0.11262435 0.0107440185 -0.060261354
0000c0 ba 52 e2 3e 7e 90 3a 3e 27 0a 25 be 21 01 c0 3e
       0.4420374 0.18219182 -0.16117154 0.3750086
0000d0 3b a3 5a 3e 25 d0 e5 bd 7a c1 aa bd fb ca 94 be
       0.2135133 -0.11221341 -0.08337684 -0.29061112
0000e0 6c 30 a1 3d 0b d3 2e be cc 89 eb 3e 96 8c 61 3e
       0.07870564 -0.17072694 0.46003568 0.22026286
0000f0 ca 46 50 be eb 8b b1 3d 9c 58 66 be 76 9f c4 bd
       -0.20339504 0.08669265 -0.2249474 -0.09600727
000100 15 a7 21 be 90 3a 5b be 0a cf b1 be cf e6 41 be
       -0.15786393 -0.21409059 -0.3472827 -0.18935703
000110 0a fd 78 be a3 aa e1 be cc b5 e1 be cb 51 2c 3e
       -0.24315277 -0.44075498 -0.44084013 0.16828077
000120 49 01 12 3e 45 3e ba bd 00 b2 25 3e b6 18 97 bd
       0.14258303 -0.09093908 0.16181183 -0.0737776
000130 8c e5 69 3e 35 36 e0 bc c8 c8 4b 3d be ed 78 3e
       0.22841471 -0.027369598 0.049752027 0.24309441
000140 13 3f 32 be 01 5d 7d 3e 8a 74 29 3e 74 da 49 be
       -0.17406873 0.2474251 0.16548362 -0.1971224
000150 a9 db 97 3e a2 9c 87 bd 20 e8 9f 3d c3 3f ed bd
       0.29659775 -0.06621672 0.07807946 -0.11584427
000160 b2 53 6f 3e 6f 7a 52 3f 6c 70 e2 3d f0 d8 c7 bd
       0.23371771 0.8221807 0.11056599 -0.097581744
000170 49 9c 0f 3e 2c e1 ba 3e 9b 49 8a 3e 69 c1 2e 3e
       0.14024462 0.36499918 0.27009282 0.17065968
000180 ae a7 4d bf c0 d3 ae 3e 01 5e 95 3e 5d 48 6f be
       -0.80333984 0.34145927 0.29173282 -0.23367448
000190 c7 71 28 3e b6 29 b2 3e 39 d3 4f bf 70 75 0d 3f
       0.16449653 0.34797448 -0.81181675 0.5525732
0001a0 45 26 f5 be 13 12 11 3e a7 c4 ad 3e dc d4 03 be
       -0.4788076 0.14167051 0.33939096 -0.12874168
0001b0 80 07 48 3e b8 76 b2 3c 4c 52 af 3e 4c 22 96 bc
       0.19534111 0.021785125 0.34242475 -0.0183269
0001c0 6b 9e d5 be 34 b1 0a 3e 36 29 38 bd cf b1 c1 be
       -0.41722426 0.1354416 -0.044961177 -0.3783097
0001d0 05 c0 a0 3e 06 50 29 be 93 0f e2 3d 28 e7 49 be
       0.313965 -0.16534433 0.11038127 -0.19717085
0001e0 84 dc c0 3c 1c 74 7d 3e e4 7b b2 be c4 0c 7c 3e
       0.02354265 0.24751323 -0.34860146 0.24614245
0001f0 06 67 13 be b1 4e 8c bc dc ee ad 3e 7a 23 0f bf
       -0.14394769 -0.017127367 0.33971298 -0.5591351
000200 2d 53 90 bb ea ec d7 3e 38 f7 03 3f 74 c3 27 3f
       -0.0044044466 0.4217294 0.515491 0.6553261
000210 7f e7 ff bd bf 2a 74 be 04 5f 0a 3e 23 7e 13 3e
       -0.12495326 -0.23844431 0.13512808 0.14403586
000220 58 61 52 bd ec ab 23 be c3 3a 02 be 09 70 93 be
       -0.051362365 -0.15983552 -0.12717728 -0.28796414
000230 ba eb 25 3d f4 17 54 3d 52 3f 4d be 08 c7 0c 3f
       0.04050801 0.051780656 -0.20043686 0.549912
000240 74 fc bc bd b3 3b 19 bf 6c fe 11 be 26 fd af 3e
       -0.09227839 -0.5985672 -0.1425721 0.34372824
000250 6b 17 52 bd c0 ea 28 be 39 9e 11 3f 9c df 22 bf
       -0.051291864 -0.164958 0.56882054 -0.6362245
000260 c1 3b 27 bf 2e 30 a1 3e ae 20 87 be f4 d4 da be
       -0.6532555 0.3148207 -0.2639212 -0.42740595
000270 d4 e1 f5 3e 4c 2f 34 3f 17 78 62 be fb fc b4 be
       0.48023856 0.7038467 -0.22116123 -0.3534926
000280 06 27 e8 be 1f 93 b9 be 1f 11 83 bd 70 6a a6 3d
       -0.45342273 -0.36245057 -0.0639975 0.0812577
000290 9b a8 13 be 70 47 06 3e 8a f9 82 3e 54 8a 17 bf
       -0.14419787 0.13113189 0.25581008 -0.59195447
0002a0 b2 e2 62 3e 60 99 52 bf d3 ae 60 3f 88 e5 40 3e
       0.2215679 -0.8226528 0.8776676 0.18837559
0002b0 96 10 5e 3e db a3 10 3f 90 55 2d bf 8b 4f 7d 3e
       0.21686015 0.56500024 -0.67708683 0.24737374
0002c0 3a a2 cc 3c be 0f b9 ba 30 1f 1f bf 14 35 ed 3e
       0.0249797 -0.0014119071 -0.62156963 0.46329558
0002d0 c6 ee 79 3e aa fa 0d 3d 01 7d d2 3d 79 cd 0a bd
       0.24407491 0.03466288 0.10277749 -0.03388736
0002e0 08 30 84 3e ed d8 b9 bd 32 de c5 3a 4d 3a 9b 3e
       0.25817895 -0.090745784 0.0015096127 0.30317917
0002f0 48 4d 08 3e d5 f5 d5 be ed 47 68 3e 20 f8 62 be
       0.1331073 -0.41789117 0.22683688 -0.22164965
000300 89 54 01 3f ce 09 b2 3e 51 1f c3 be 4f 4a 33 be
       0.50519615 0.34773105 -0.3810983 -0.17508815
000310 f7 9e 3e 3e 57 0c 0e be 2c a0 07 be bb 4b 98 3d
       0.18615328 -0.13871895 -0.13244694 0.074363194
000320 66 e2 7b bd 80 0d 4e be 81 40 27 bd 5f 02 01 3e
       -0.061495207 -0.20122337 -0.040833 0.12598561
000330 18 79 91 3e d9 5c ce 3c 56 52 a8 3e 25 8d 54 be
       0.284127 0.025190758 0.32875317 -0.20756967
000340 5c 6e dc bd 34 a0 8d be ee 78 23 3e 44 40 c6 be
       -0.10763237 -0.27661288 0.159641 -0.38720906
000350 5a 36 f4 3e fb f8 20 bf 6f fc 6c 3d fc 60 00 bf
       0.47697717 -0.62879914 0.057857927 -0.50147986
000360 ec 0c 8b 3e df af 0a 3e bd 40 ca bd 64 a3 2f bf
       0.27158296 0.13543652 -0.09875629 -0.6860869
000370 2e 4f 07 3f ec c3 40 3d 88 da 4b 3f 1a 2e 74 be
       0.52855194 0.047061846 0.7963033 -0.23845711
000380 da bb 5a 3b 5a d8 74 bc 0d 6b df bd 1f cc 49 bf
       0.0033376128 -0.01494416 -0.1090909 -0.7882709
000390 a5 1a 79 bf 5d 34 35 3e 68 c2 0a bd 7b ed f1 bc
       -0.9730628 0.17695756 -0.033876806 -0.029532185
0003a0 3a 8f 96 3d bc 78 2e bd 30 ec f6 bd af f4 15 bf
       0.07351537 -0.04259561 -0.12056768 -0.5857648
0003b0 48 f6 cb bd 67 31 18 3e 8c fa a5 3e 6c 5f e4 3e
       -0.09959084 0.14862595 0.32417715 0.4460405
0003c0 9b 4e c4 3e fb 8b 5d 3f 9e 27 7e be dc 7b de 3e
       0.3834122 0.8654172 -0.248198 0.43453872
0003d0 98 fe b7 3e f8 2d de be a9 f9 08 bf 83 f4 52 bd
       0.35936427 -0.43394446 -0.5350595 -0.051502716
0003e0 6a 48 a9 be 58 5d 53 be 1d 06 3c be 87 b2 b8 3e
       -0.3306306 -0.20641077 -0.18361707 0.36073706
0003f0 d4 96 17 3e 1e 7c 75 3c 6e 72 59 3d ce c2 c1 3e
       0.1480363 0.014983205 0.053087644 0.37843937

encoder.0.bias f4 [16]
000000 83 54 9b be b8 08 07 3d 0a 0d 40 be 00 00 00 00
       -0.30337915 0.0329673 -0.18754974 0.0
000010 82 82 5e be 90 92 c8 bd 00 00 00 00 00 00 00 00
       -0.21729472 -0.097935796 0.0 0.0
000020 00 00 00 00 00 00 00 00 e5 4a 3f 3e 3e 41 e9 3d
       0.0 0.0 0.18680914 0.11389397
000030 24 63 3d bc 1c 35 07 bc 00 00 00 00 00 00 00 00
       -0.0115592815 -0.008252408 0.0 0.0

encoder.2.weight f4 [16, 16]
000000 8d 46 27 bf e9 4d 20 3f fa 42 cf 3c 38 c8 90 be
       -0.65342027 0.6261888 0.025300492 -0.28277755
000010 5c 3c ca 3e f3 d6 2a be 7e a3 18 3e 83 0d 10 bf
       0.39499176 -0.16683559 0.14906117 -0.5627062
000020 50 f1 a4 3e aa 37 b3 3e 50 68 99 3e 6e 30 5a 3e
       0.32215357 0.35003406 0.29962397 0.21307537
000030 2f 86 95 3e e8 ae fa bd 65 d6 98 3d 3f 5a 65 bf
       0.29203936 -0.12240392 0.074627675 -0.8959083
000040 c5 d8 1b be 8f 46 c9 bd db 8b 9c 3d 27 e9 74 bd
       -0.1521941 -0.09827911 0.07643863 -0.059792664
000050 55 03 f6 be ab f6 19 3e 11 d7 df 3d 03 ec 46 bf
       -0.48049417 0.15035503 0.109296925 -0.77703875
000060 c1 16 36 be 64 2e 00 3f be c6 08 3f ea 8e 3e 3f
       -0.17782117 0.50070786 0.53428257 0.7443682
000070 88 0b 55 3e 7f d3 c2 be 19 85 8d 3e b8 fb 92 be
       0.2080518 -0.38051984 0.27640608 -0.2870767
000080 93 76 f0 3d 63 35 d1 be 5a ad 0f 3f 22 d8 b7 be
       0.11741366 -0.40861043 0.5612389 -0.35907084
000090 78 2c 26 3d 15 f9 5d be d3 e3 89 3e f8 f4 51 be
       0.040569752 -0.21677049 0.2693163 -0.20503604
0000a0 ce a5 81 3e 24 a7 43 3f 0b 5d c2 3d 24 a1 09 3e
       0.2532181 0.7642691 0.09490403 0.13440377
0000b0 81 6c 22 bf d8 01 e7 be 24 c2 c9 be d8 8e 3e be
       -0.63446814 -0.45118594 -0.3940593 -0.18609178
0000c0 e5 e0 d1 3e c3 bd a6 3e 43 72 eb bd c1 53 18 3f
       0.40991893 0.32566652 -0.11496403 0.595028
0000d0 b2 cf 72 bc 62 a5 a9 be f0 b0 f4 bb 52 f8 5e 3c
       -0.014820026 -0.3313399 -0.0074673817 0.013609009
0000e0 2a 37 2b bf c8 5b b6 be 32 28 06 be ce e0 35 bd
       -0.6688105 -0.356169 -0.13101271 -0.044403844
0000f0 80 57 12 3f 1b 5f 90 3e b0 76 a7 be fe 97 29 bf
       0.57164764 0.2819756 -0.3270774 -0.66247547
000100 15 5f 84 3e 35 5f 3c 3e 42 6c 36 be 7e cb e7 3c
       0.25853792 0.18395694 -0.17814735 0.028295275
000110 33 bb 56 bf 77 6a 09 bf f4 94 23 3f 0e 51 0d bf
       -0.83879393 -0.5367808 0.6389916 -0.55201805
000120 10 c4 e1 3e 9f 44 c1 bd c6 13 05 bf 00 89 87 be
       0.44094896 -0.094369166 -0.51983297 -0.2647171
000130 2d 85 ab 3e 8a 5f a6 3e e1 ca 5c 3f cb bb 89 be
       0.33500043 0.32494766 0.8624707 -0.26901087
000140 ee da e9 bd 29 cd d8 3e 80 2a 11 3e 92 a1 bf bd
       -0.11418711 0.42344025 0.14176369 -0.09356989
000150 a4 e1 63 bd d8 63 6c be 10 30 a8 bc 2f 5b 2c be
       -0.05563511 -0.23084962 -0.02053073 -0.16831659
000160 74 94 96 3e 3d c5 1c be 55 5c 44 bf d9 4e 64 be
       0.29410136 -0.15309615 -0.7670339 -0.22295703
000170 d9 0b ef bd 7b 83 cf bd 8c 98 b5 be 1a 26 d4 be
       -0.11672182 -0.101325 -0.35467947 -0.4143532
000180 e2 b4 dc bc 02 54 2d 3e 4e 38 d8 be 33 a2 9c 3d
       -0.02694172 0.16926578 -0.42230457 0.076481245
000190 5f 79 91 3e 4f 35 21 3e 3c bc 13 be 49 4f 03 3f
       0.2841291 0.15742992 -0.14427274 0.51292855
0001a0 c4 c1 07 bf 3f bd aa bd 4f 51 03 be 0b d0 37 be
       -0.5303004 -0.08336877 -0.12823986 -0.17950456
0001b0 78 fd a1 be d2 e5 94 3e d4 62 f6 be 2c b2 8b be
       -0.31638694 0.2908159 -0.48122275 -0.27284372
0001c0 43 8f ea 3d 99 83 2e be d8 ed 9c be da f9 bd 3d
       0.11453106 -0.17042388 -0.3065021 0.09276171
0001d0 4c 09 5e 3f 43 59 cc be de a1 f0 3c 16 67 be 3e
       0.86732936 -0.3991185 0.02937406 0.37188023
0001e0 e1 c9 80 3e f2 6d 97 3e c9 62 90 be 22 b1 ec 3e
       0.2515402 0.2957607 -0.28200367 0.46228892
0001f0 07 f9 4e 3e 55 11 ae 3d 95 de 6b 3e 7b 16 92 be
       0.20212184 0.084993996 0.23034127 -0.28532776
000200 4a a4 13 bf 72 a5 b7 3d ca d9 78 3e 70 b7 ec 3e
       -0.5767256 0.08967103 0.2430183 0.46233702
000210 21 7d 68 be 87 ec 97 3e b7 11 8d be 52 b6 7d 3e
       -0.22703983 0.29672644 -0.27552578 0.24776581
000220 20 13 5d bd 17 a2 b1 3c 15 a1 81 bd d9 4b c3 be
       -0.053973317 0.021683736 -0.06329552 -0.38143805
000230 fc 65 ce 3d 95 c8 9f be 78 c6 7d 3e 66 2f 48 3e
       0.10078046 -0.3120772 0.24782741 0.19549331
000240 1c a4 40 3e 47 a2 13 3f c9 42 bc 3e fe 65 2b 3d
       0.18812603 0.5766949 0.36769703 0.041845314
000250 3d a9 8c be dd 46 12 bf ee ef b0 3e 9f aa ac 3e
       -0.2747287 -0.5713938 0.34558052 0.33723924
000260 d7 dd 03 3f 27 f0 52 3e 1e f6 47 3c 38 44 0d be
       0.51510376 0.20599423 0.012204675 -0.13795555
000270 b3 dd 26 3e d5 11 8b 3e d4 cb d7 bd 85 7f 0b bf
       0.16295509 0.27162042 -0.10536924 -0.54491454
000280 74 1b e1 3d 79 c0 00 bf 9f d1 45 3c 71 37 32 3e
       0.109915644 -0.5029369 0.012073903 0.17403962
000290 80 a2 a9 bc 5b 04 14 be 02 79 d5 3e 52 03 a9 be
       -0.020707369 -0.14454786 0.41693884 -0.33010346
0002a0 b1 b0 1c bf da d6 7f 3c 41 11 27 be 61 c0 5b 3e
       -0.6120711 0.015615189 -0.16315176 0.21460105
0002b0 21 2a 0a 3e 79 87 fb be b6 91 e4 bd 97 0b b2 bc
       0.13492633 -0.49126795 -0.11160605 -0.021734042
0002c0 5c 8f c9 3e 6f 1c 75 3e c2 68 61 bd 60 ee d1 be
       0.39367187 0.23936628 -0.055031545 -0.41002178
0002d0 f2 63 b8 3e ed 5a 25 be 48 1c 2c 3e 3f 82 5a bc
       0.36013752 -0.16147967 0.16807663 -0.013336717
0002e0 29 2d 07 bf b6 02 69 bd d8 4e ec be 60 3f dc bd
       -0.52803284 -0.05688735 -0.46153903 -0.10754275
0002f0 b9 4a fb 3e e0 8c c6 bd 2e 37 8e 3e 66 e0 bf bd
       0.49080446 -0.096948385 0.27776474 -0.093689725
000300 ad bc b2 3d 26 cd 45 3f da 2f 89 be fa ff 34 3e
       0.08727393 0.77266157 -0.2679432 0.17675772
000310 db e3 8d 3d 79 3e de 3d 1b 76 c2 be 20 fb 88 be
       0.069282256 0.108517595 -0.37980732 -0.26754093
000320 63 b5 a3 3d 3b 60 0f 3e 6c 3f 3f bd 3b db 20 3f
       0.07993581 0.14001553 -0.046691343 0.6283452
000330 d9 c6 02 bf da b4 25 3f 0a 61 dc 3e 60 3a 1d 3d
       -0.5108467 0.6472908 0.43042785 0.03838575
000340 1d c7 87 3e ce e9 bd 3e 07 38 22 bf 26 83 e4 bc
       0.265191 0.3709244 -0.6336674 -0.027894568
000350 f0 69 95 be a4 ea 2d 3f 1a 49 94 be 7a 3e ce 3d
       -0.29182386 0.6793616 -0.28962022 0.1007051
000360 3e 15 33 3e 5e fb 40 3e 48 cf cc be 12 09 79 be
       0.17488572 0.18845889 -0.40001893 -0.24319866
000370 84 36 d6 3b df 60 21 bf 0e 2e 6d 3e 97 c3 82 bf
       0.0065372605 -0.6303844 0.231621 -1.0215939
000380 e8 a6 0e be 77 0a 11 3f 9a a8 a7 3e 39 6d 4e be
       -0.13930857 0.56656593 0.3274582 -0.20158853
000390 8d 28 59 3e 76 a4 b6 be aa 73 11 3e 9b 3b 03 3c
       0.21206875 -0.3567235 0.14204279 0.0080098165
0003a0 ad 54 85 3d f4 ae e4 3e a2 79 8d bd 97 af 49 bf
       0.06510291 0.4466473 -0.06907965 -0.78783554
0003b0 e5 a0 60 3d 9e d5 26 3e 91 52 3c 3e f4 ca 64 3e
       0.05484094 0.16292426 0.18390872 0.22343045
0003c0 44 cd 11 be 35 16 24 be 1a b2 b1 3d e6 0a b7 3e
       -0.14238459 -0.16024096 0.08676548 0.35750502
0003d0 af c8 19 bf fd 30 5a 3f b7 6a 54 3e 7d 3b 2b bf
       -0.60071844 0.85231 0.20743833 -0.66887647
0003e0 a3 7f ee bd 65 cd a5 be 0a 28 b6 be 0e 87 8c be
       -0.116454385 -0.32383266 -0.35577422 -0.2744679
0003f0 01 24 3e 3e a0 4d db be c9 5d e2 3d 0d 62 65 3e
       0.18568422 -0.4283266 0.11053044 0.22400685

encoder.2.bias f4 [16]
000000 b4 63 ba bd e3 ce df 3c 6f 6a 77 be 28 1f f5 bd
       -0.09101048 0.027320331 -0.24161695 -0.11968833
000010 00 00 00 00 00 00 00 00 f0 85 c0 bb 4c d4 45 be
       0.0 0.0 -0.0058753416 -0.19319266
000020 e4 01 04 3d a0 39 46 bc dc 4a 1a 3d ec 83 32 bd
       0.032228366 -0.0120987 0.037669048 -0.04358284
000030 c3 52 2a 3d 50 58 25 be 8d d8 23 3d f4 1b 97 be
       0.041582834 -0.1614697 0.04000144 -0.29513514

encoder.4.weight f4 [32, 16]
000000 fd 80 b9 3e 5c 1b 90 be 42 1c 33 3e 5f 64 da bc
       0.36231223 -0.28145874 0.17491248 -0.026659189
000010 d4 8a f1 bc 81 7c 03 be 86 73 70 3c 82 b0 a8 3e
       -0.029485144 -0.12840463 0.01467598 0.32947165
000020 57 2a ff be 2c df ab bd 70 ca cc be a1 54 e6 3d
       -0.4983699 -0.08392176 -0.39998198 0.112466104
000030 66 22 24 be 1a 89 27 bf 27 e4 2c 3e 77 05 93 be
       -0.16028747 -0.65443575 0.16883908 -0.28715107
000040 7e 72 10 bf 17 40 02 be e7 4d 0b bf f7 b9 31 3d
       -0.564247 -0.12719761 -0.54415745 0.04339024
000050 aa 0f 46 3e e1 54 b8 3e 24 fe 8d be 64 53 1b bf
       0.19341913 0.36002257 -0.27732956 -0.6067412
000060 bc c2 9d be 44 d6 ac 3e 5d bc 0f 3d 28 84 de 3e
       -0.30812633 0.33757222 0.035091747 0.43460202
000070 0d 28 c6 be 4f e4 1e 3e 85 7f b6 3d e0 75 7a 3d
       -0.3870243 0.1551678 0.08911041 0.06114757
000080 6e a3 65 3d 45 1d 60 bd 98 c8 49 3e b8 d9 c7 3d
       0.05606406 -0.054715414 0.19705427 0.097583234
000090 52 00 80 be e1 fe b1 be 09 ec 63 be b7 3d aa bd
       -0.25000244 -0.3476477 -0.22258009 -0.083125524
0000a0 f1 c6 0d bf 72 87 dd 3e 6d 06 3b 3f a5 e4 a7 be
       -0.55381685 0.432674 0.7305668 -0.3279163
0000b0 ae 96 45 3f d0 c9 d4 3e e4 3f 35 bf fb ef a3 3e
       0.77183044 0.4156022 -0.70800614 0.32019028
0000c0 f7 a8 9d bd cb 15 a8 3e ef dc d7 be ce db 7a 3f
       -0.07698243 0.32829127 -0.42160746 0.97991645
0000d0 67 b9 7a 3e b9 f8 ff be f6 8f 92 be c5 23 04 3f
       0.24484788 -0.49994448 -0.28625458 0.5161708
0000e0 48 3d 80 3e d8 64 0c be db 02 9a be b4 a6 a7 3d
       0.25046754 -0.13710344 -0.30080304 0.08186093
0000f0 65 d6 23 be d9 9c 3d 3d d4 21 ce be e8 3c 08 bf
       -0.15999754 0.04629216 -0.40260184 -0.53217936
000100 35 eb 40 3e fd 3c d4 3c fd 64 fb be 37 f1 b5 3e
       0.18839724 0.025907988 -0.49100485 0.35535595
000110 87 47 cc be c4 b2 ac be 05 67 a2 be 5b 3a 14 3d
       -0.3989832 -0.33730137 -0.31719223 0.036188465
000120 87 3b 13 3f a1 10 5f 3d 7d 77 4b be 14 02 f5 3e
       0.57512707 0.054459218 -0.198698 0.47853148
000130 40 85 1c 3f 40 ee 9e bf fb 54 4a 3e b2 ff 21 3e
       0.61140823 -1.2416458 0.1975898 0.15820196
000140 2f 66 c4 3d 20 2b 81 bd 36 c4 57 be ac d7 8b be
       0.095898025 -0.063070536 -0.21070942 -0.27312982
000150 fd 06 e1 3d 1b 22 fe be b9 13 f6 3d a3 cc f2 3d
       0.10987661 -0.49635395 0.120154805 0.118554376
000160 d2 c2 c9 be 8e 7e 04 3f 53 03 33 be ca d6 53 3e
       -0.3940645 0.5175561 -0.17481737 0.20687404
000170 f7 85 f1 3e 03 71 b9 bb b9 85 b5 be a8 55 1a be
       0.4717252 -0.005659224 -0.35453585 -0.15071738
000180 52 32 f1 3e 11 7d db be bd 2b e2 3e 13 c0 ea 3e
       0.47108704 -0.42868856 0.44173995 0.45849666
000190 3d 4d 7f be 42 c5 0c be 4d 1f 4d 3c c7 31 36 be
       -0.24931808 -0.13747123 0.01251967 -0.17792426
0001a0 c5 3b cd be fc 51 1e 3f 51 f4 cf 3e 3b fc 57 3e
       -0.40084663 0.6184385 0.40616086 0.21092312
0001b0 66 f3 01 bd 57 a2 07 bf 07 0d 68 be fe 9a 21 bf
       -0.031726263 -0.52982086 -0.2266122 -0.63127124
0001c0 e9 65 22 bf 0e 2f bb 3e fa f9 e9 bc fd 2f f2 be
       -0.6343675 0.36559337 -0.02856158 -0.47302237
0001d0 a4 21 02 bd 6b 40 a4 3e 03 a7 a4 bd 4d 2c 11 bf
       -0.031770363 0.32080397 -0.080396675 -0.5670822
0001e0 3b b4 2b 3e c3 30 d9 3e 3d b4 e7 bb ef 65 be 3d
       0.16767971 0.42420015 -0.0070710466 0.09296786
0001f0 6a ef 8a be ba 8d 87 3e b2 da 54 be e9 a2 c2 bd
       -0.27135783 0.26475316 -0.2078655 -0.09503729
000200 af 06 70 3d f5 ea 13 bf b9 1a 9c 3b 4e a4 d6 3e
       0.058600124 -0.5778039 0.004763928 0.4192223
000210 6d e2 aa be 4c fb d5 bd a7 a7 f8 be 01 94 13 3f
       -0.33375874 -0.10448322 -0.4856541 0.5764771
000220 0d b6 b8 be 4c 1b fe be ff 92 11 3f 02 28 ec be
       -0.36076394 -0.496302 0.56864923 -0.46124274
000230 3f 7c 52 3d 06 9a fb 3e 92 c4 85 bc b0 53 a4 3e
       0.05138802 0.49140948 -0.016329084 0.32095098
000240 5a e4 02 bc 8d a2 0e be 3f e4 5a be f0 36 cb 3e
       -0.007989014 -0.13929196 -0.21376131 0.3969035
000250 99 9f 22 be 32 8d ae 3e 04 02 2d 3e 0a eb 4e 3e
       -0.15881194 0.34092098 0.168953 0.20206848
000260 64 66 d1 3d 14 23 b2 3e a2 40 fd be 0d 2c 90 3e
       0.102246076 0.34792387 -0.49463373 0.28158608
000270 df 4c 89 bd ae 0b d1 bd db 25 f7 be 6e 8c 7a be
       -0.06704115 -0.10207306 -0.4827107 -0.24467632
000280 3a ce c4 3e e2 c2 46 3e b2 f2 5b 3e d8 0d 84 be
       0.38438588 0.1941028 0.214793 -0.25791812
000290 e3 d8 07 bf 48 ce 2e bf 57 4e c2 3e 8c 8a eb 3d
       -0.5306532 -0.6828351 0.37950394 0.11501035
0002a0 9c 3b cc be 40 30 ee be 5f 7d 09 bf 0b 46 c9 bc
       -0.39889228 -0.46521187 -0.53706926 -0.024569532
0002b0 07 ed a2 3b 22 62 20 be 77 ac 30 bf 51 5d a0 be
       0.0049721035 -0.15662435 -0.6901316 -0.31321195
0002c0 0b d1 05 3f ca 0e a9 be 01 89 2d 3e f5 2a 66 3d
       0.522721 -0.33019096 0.16946794 0.05619331
0002d0 31 1e cc 3e c0 f9 44 3f 9f ee 85 3e f9 35 56 be
       0.39866784 0.7694359 0.26158616 -0.20919026
0002e0 d3 6a 1b be e9 02 c1 be 51 a2 89 be 5a 8d e6 bd
       -0.15177469 -0.37697533 -0.2688165 -0.112574294
0002f0 f3 10 ce be 07 19 bc 3e 2e 00 29 3d 6c 26 ef bb
       -0.40247306 0.36737844 0.041259937 -0.0072982814
000300 c4 10 c1 be ae 5f 27 be 26 0f 5e be 41 94 01 be
       -0.37708104 -0.16345093 -0.21685466 -0.1265421
000310 18 12 e2 be 1a 8d 4e 3e 96 d8 79 3e 00 18 12 bf
       -0.4415443 0.20171013 0.24399027 -0.5706787
000320 ae 26 dc 3d 99 d1 e0 3e 9e 7f ce 3e b0 05 e5 3e
       0.10749565 0.4390991 0.4033174 0.44730902
000330 67 b8 b1 be 36 6b 08 3e 12 a6 03 3c f5 df 19 be
       -0.34711 0.13322148 0.0080352 -0.15026839
000340 c5 47 29 3d 93 c7 50 be ee a2 a5 be c6 c8 55 3f
       0.04132821 -0.20388632 -0.32350868 0.8350948
000350 ee 6c d6 be 97 70 09 3f 54 c7 19 bf 8b 7d cc be
       -0.41879982 0.53687423 -0.60069776 -0.39939532
000360 f1 c9 c5 3e ac c9 1e be 30 bf 04 3f 71 ed 5a 3e
       0.38630632 -0.15506619 0.5185423 0.21379639
000370 ea e6 74 be b5 f2 42 3e e3 e2 d7 3d 04 b7 00 bd
       -0.23916212 0.19037898 0.10541322 -0.031424537
000380 87 9c 7c bd 38 0e 3c 3e c7 08 e3 3e 88 dd 25 3d
       -0.061672714 0.18364799 0.44342634 0.04049447
000390 ad c6 12 bf 2b 89 8a 3e 02 f6 35 bd bf 99 19 3e
       -0.57334405 0.27057776 -0.044424064 0.15000056
0003a0 a2 4d fe 3e 2c 16 cf bd 37 f6 28 3e da 79 f3 be
       0.49668604 -0.10111651 0.16500174 -0.47553903
0003b0 ec c0 a3 3e fe d3 9e 3d bf 68 b5 3e 52 b7 1a 3e
       0.31983125 0.07755278 0.35431477 0.15108994
0003c0 4f 87 40 be c5 e6 fb be 87 0b d1 bd 17 62 1c 3f
       -0.18801616 -0.491995 -0.10207277 0.61087173
0003d0 2c fe b0 be d4 b3 f8 3e cf 67 8b 3f af e6 95 3e
       -0.34568918 0.48574698 1.0891055 0.2927756
0003e0 4d ad 1b be 53 da 9a 3d dc 2a 8a 3c bc d7 34 bd
       -0.15202828 0.07561173 0.01686614 -0.044151053
0003f0 ef 19 94 bc fa 9e 89 be 75 7b 12 3e 02 1e b0 3d
       -0.018078772 -0.26879102 0.14304908 0.085994735

encoder.4.bias f4 [32]
000000 2b 0c 74 3c db 1e 56 3d d3 7d 89 3c bc d9 b5 3d
       0.014895479 0.05227552 0.01678363 0.0887942
000010 6a e5 f0 3d 97 b9 a2 3d 25 14 bd bd f2 e4 e5 bb
       0.11762507 0.07945555 -0.09232358 -0.007015818
000020 ca d9 b3 3d ab 3b 98 bd 4e 8a a6 3c 1f fc 60 3d
       0.08781774 -0.07433256 0.02032962 0.05492794
000030 48 77 22 bd 45 0e 89 bd 3d 7b b3 bd ea 20 99 3e
       -0.039664537 -0.06692175 -0.0876374 0.29907924
000040 e8 e5 13 be a4 81 74 3d 8e 66 cd bc 5b f9 f0 bd
       -0.14443171 0.059693947 -0.025073316 -0.11766311
000050 70 9b c0 bd d0 40 b9 bb 83 9e b7 bc 04 ae 13 be
       -0.09404647 -0.005653478 -0.022414451 -0.1442185
000060 0c 44 00 be 75 eb 86 3d 05 7e c4 bc d5 2a cb 3d
       -0.12525958 0.065878786 -0.023985872 0.09920279
000070 0e bb 8c 3d 04 2d 08 be e4 5a 60 be 61 8f 08 3e
       0.06871615 -0.13298422 -0.21909672 0.13335945

nee_decoder.0.weight f4 [16, 32]
000000 da 62 fa 3d 96 62 89 3e 5f 22 7d bd b3 11 af 3b
       0.12225886 0.26833028 -0.061800357 0.005342686
000010 1e bb a9 be ab f5 7f 3e 7f 5d ab be 13 f3 10 3e
       -0.33150572 0.24996059 -0.3346977 0.14155225
000020 2e eb 04 3f db 97 2b 3e 80 8b 75 be 0b ca 09 3d
       0.51921356 0.16757147 -0.23978996 0.03363995
000030 05 00 eb be af 43 52 be 9a 8c cc 3e a8 17 e1 3e
       -0.45898452 -0.20533632 0.3995102 0.4396336
000040 06 73 ce bd de 75 3a 3e f9 85 ad bd fd 98 73 be
       -0.10080533 0.18209025 -0.08472819 -0.23788829
000050 35 6d 86 3e 9e 13 76 be 93 7e e7 3d 89 30 b7 be
       0.26255193 -0.24030921 0.11303439 -0.35779217
000060 0a 23 97 be e2 ae 53 3e 06 a5 1e 3e 3b 1b 72 3e
       -0.2951892 0.20672181 0.15492639 0.236432
000070 c9 6e a1 3e ed 4f 89 be c5 5a 3d be 63 7e 7b 3e
       0.31529835 -0.2681879 -0.18491657 0.24559931
000080 a9 c2 27 be 05 a5 b6 bd bd 23 85 be 0e c2 22 be
       -0.1638285 -0.08918194 -0.2600383 -0.15894338
000090 c3 d4 1c 3e cc f1 34 3e 9b 9e 00 bf a2 8e 23 be
       0.15315537 0.17670363 -0.5024201 -0.15972379
0000a0 ef cc de 3e 03 db 9e bd e6 bc 75 bd 30 4b d3 3e
       0.43515727 -0.07756617 -0.0599946 0.412683
0000b0 95 2a 35 3e 5a 8c 44 3e 44 56 e2 bc c6 f9 74 3e
       0.17692025 0.19194165 -0.027629025 0.23923406
0000c0 87 86 e1 bc 67 c9 e6 be 59 8a 1e 3c 51 21 69 bd
       -0.027529968 -0.45075533 0.009676539 -0.05691654
0000d0 0e 43 81 3e 78 d6 fe 3d ed a0 49 3e bc 4a a0 bd
       0.2524647 0.124432504 0.19690295 -0.078267545
0000e0 39 53 16 be 90 8b a0 be 4d 9a cf 3e 03 45 3a bd
       -0.14680184 -0.31356478 0.4054741 -0.04547597
0000f0 f0 2d d4 bc b3 bb 57 be 22 12 92 3e 81 9c e8 be
       -0.025900811 -0.21067695 0.2852946 -0.45431903
000100 aa 38 ae be 49 3f ef be 78 4c 84 bd 50 d8 00 bf
       -0.34027606 -0.4672797 -0.06459898 -0.50330067
000110 00 83 54 3e 12 23 8f be 94 2d ee 3d 3e 03 63 3c
       0.20753098 -0.27956444 0.11629787 0.0138557535
000120 34 23 bf bb ad a8 d4 3d f7 dd 25 be e0 6d a3 bc
       -0.005833054 0.10383735 -0.16197954 -0.019949853
000130 14 d4 f6 be 7e db 04 3c 1a 2b 3a 3d 6d 5b 06 bd
       -0.48208678 0.008108972 0.04545126 -0.032802034
000140 8e 5a 44 be df 4a 41 3e 32 ac 12 3f b2 7b 9c 3e
       -0.19175169 0.18876217 0.57294 0.30563122
000150 60 de a9 bd ca de e7 be 7a 30 98 be b6 d6 30 bd
       -0.08294368 -0.45287162 -0.29724485 -0.043173514
000160 ea 44 55 3e bd 05 2d be eb 42 00 bf d2 a6 49 3e
       0.2082707 -0.1689672 -0.5010211 0.19692543
000170 ea d9 4a 3d 4c f8 df be 1f ab 60 3d 68 55 e9 bd
       0.049524225 -0.43744123 0.054850694 -0.11393243
000180 99 4b 91 3e 91 29 9c 3c fd 09 42 be 7f 34 20 bf
       0.2837799 0.01906279 -0.18949123 -0.625801
000190 8e b2 17 3f df 30 d6 3e f9 d8 cb be 9b 6d 0c bf
       0.5925683 0.4183416 -0.39813974 -0.54854745
0001a0 40 1f 63 bd 72 04 2b 3d f0 fd 93 3e 9b 9c 42 3d
       -0.055449724 0.041752286 0.28904676 0.047512632
0001b0 ca 16 4a 3d 04 ae d4 bd e0 a6 b0 bd 94 03 8d 3e
       0.04933814 -0.10384753 -0.08625579 0.27541792
0001c0 65 1b 69 be 53 e6 75 3e d7 94 c4 3c 12 38 bc be
       -0.22764356 0.24013643 0.023996754 -0.36761528
0001d0 11 22 c0 be e2 d2 3f 3e 19 24 df be 17 d3 e0 3d
       -0.3752599 0.18732789 -0.43582228 0.10977762
0001e0 bb 97 99 3e b7 80 c6 bd 4b 83 13 bc 59 ba 08 3e
       0.29998574 -0.09692519 -0.009003471 0.13352336
0001f0 53 6b d4 bc 0e fc dd be fa 53 d9 3e aa 65 0a bf
       -0.025930082 -0.43356365 0.42446882 -0.5406138
000200 71 83 77 3e 71 a7 3a 3f 29 5d 28 bf e4 22 0a bd
       0.24171235 0.72911745 -0.6576715 -0.03372468
000210 db 37 80 3e df 50 23 be c0 60 f3 3e a8 b7 36 3e
       0.25042614 -0.15948819 0.47534752 0.17843497
000220 4b b4 18 bf 22 00 a9 be ec 60 0d bf 01 86 d5 3e
       -0.59650105 -0.33007914 -0.55226016 0.417038
000230 40 d0 1c 3e 69 05 f3 3e e3 54 cd bd e2 c0 1d 3d
       0.15313816 0.47465065 -0.100259565 0.038514026
000240 2d d3 f8 be 28 34 47 bd 7a 44 00 3d df 8a 38 3e
       -0.48598614 -0.048633724 0.031315304 0.18021725
000250 13 1a bb 3e 55 94 86 3e 0a e5 ca 3e fc c6 89 3e
       0.3654333 0.26285043 0.39627868 0.26909626
000260 e9 51 a0 3e 3e 69 eb 3d 40 28 6f 3e 4e 9f 43 3e
       0.31312492 0.11494683 0.23355198 0.19103739
000270 48 db df bd 72 93 2a be 33 eb 2b be 64 ff dc bd
       -0.109304965 -0.16657808 -0.1678894 -0.107908994
000280 0f f6 b4 bd c8 67 e8 3d b7 ed b4 be bb 24 94 bd
       -0.088359945 0.1134792 -0.35337612 -0.07233568
000290 cc e4 a7 3e 66 61 f5 3d 74 33 8c be 52 35 9e 3e
       0.32791746 0.11981468 -0.27383006 0.30900055
0002a0 31 25 3e 3f b5 40 20 be bf e2 98 3e 82 35 ca bd
       0.742755 -0.15649684 0.29860494 -0.09873487
0002b0 76 fc 59 bf f3 86 bf 3d 62 a2 06 3f 08 bc 80 3d
       -0.8515085 0.093519114 0.52591527 0.06285864
0002c0 d5 d0 40 3f e3 da 06 bd 8b cc a9 3d f2 e5 cb be
       0.7531865 -0.03292359 0.082909666 -0.39823872
0002d0 0e 62 0f bd 7f 44 6d 3e 1a 35 f4 be 73 aa 07 be
       -0.03500562 0.2317066 -0.47696763 -0.13248615
0002e0 54 60 c0 be 7f 92 d0 be 8d 8c ad 3d 80 bd 34 3f
       -0.37573493 -0.40736768 0.084740736 0.70601654
0002f0 a8 68 04 3e 3f 70 0f bf 12 13 e8 3c 3d e2 bf 3d
       0.12930548 -0.5603065 0.028329406 0.093693234
000300 87 2b da bd 53 6a 36 bf 02 36 31 3d a6 14 84 bd
       -0.106528334 -0.7125599 0.043264396 -0.06449251
000310 75 13 2a be 27 62 b1 3d a6 92 c4 bd 5f 0c 61 bc
       -0.16608985 0.08661299 -0.095982835 -0.01373586
000320 21 47 8a 3e a7 4e 73 be 71 a7 84 be e4 64 49 be
       0.27007392 -0.23760472 -0.25908998 -0.19667393
000330 5f 46 ac be 41 50 83 be e9 0b 49 3b 05 74 37 3e
       -0.3364744 -0.25647166 0.0030677265 0.17915352
000340 c8 bd 18 be fc 99 ad bd b9 b9 c8 3d 81 31 2b 3f
       -0.14916146 -0.08476636 0.09801049 0.6687241
000350 eb 83 be be 34 c9 45 3e 3b 63 44 3d be 95 c2 bd
       -0.3721002 0.19315034 0.047946196 -0.09501217
000360 a9 92 fb 3d e8 7b 0f 3e 9b 4a 26 bd 93 2e 4c bc
       0.122838326 0.1401211 -0.040598493 -0.012462276
000370 f3 b8 fc 3d 7a da 00 3e 36 32 8d be 83 7e bf 3e
       0.12339964 0.12583342 -0.2757737 0.37401208
000380 a1 cc e2 3e b3 80 d9 3b 8d 6b 8c 3d 35 1e bd be
       0.44296744 0.0066376566 0.06856451 -0.3693711
000390 be 76 b2 be 58 ba b0 be ef fd e6 be 80 a7 e2 bc
       -0.34856218 -0.3451717 -0.4511561 -0.02766776
0003a0 13 14 37 3e 50 1a ac 3e c4 dd c1 3e 5d 60 61 3d
       0.17878751 0.33613825 0.37864506 0.05502354
0003b0 24 b9 ea 3e e2 8b 76 3e a4 75 8a 3e 35 70 19 3c
       0.45844376 0.24076799 0.27042878 0.009365131
0003c0 4b fd 30 bd 4b e6 6b be 79 4e ee be 97 09 d3 3c
       -0.04321031 -0.23037069 -0.46544245 0.025761409
0003d0 7e 3f 0e 3f 2a fd dd 3e 25 51 d8 bc 2e 16 d0 3d
       0.5556563 0.4335721 -0.02640588 0.101604804
0003e0 e7 95 53 3e ca 03 09 3f c2 a6 3c 3c 30 3e 30 be
       0.20662652 0.53521407 0.011514368 -0.17211223
0003f0 53 47 7d bf d8 dd 4b 3e 8e d8 ea bd 70 ad 10 ba
       -0.9893696 0.19908845 -0.11467086 -0.0005519008

nee_decoder.0.bias f4 [16]
000000 48 72 24 be 64 ef dd bd bf c0 5a be 6e 52 88 3e
       -0.1605922 -0.10836676 -0.2136259 0.2662539
000010 1f c8 50 3d 1a a5 b5 be 24 ac 7a 3c 8b 15 9b bb
       0.0509721 -0.35477525 0.015299831 -0.0047327927
000020 81 81 8d 3d 14 b4 50 3e aa 01 b9 bd 5c 06 a8 bd
       0.069094665 0.20381194 -0.090335205 -0.08204338
000030 7c fb 17 be 70 c3 8e bd 31 dc 61 be 28 f1 be be
       -0.14842027 -0.069708705 -0.22056653 -0.37293363

nee_decoder.2.weight f4 [16, 16]
000000 e6 59 32 bd 3e 72 2e bf 2d 13 6b be 9d ff 80 bf
       -0.043542765 -0.6814307 -0.22956534 -1.0078007
000010 ba 9b 71 3e 3a fd 21 3f 25 c2 6c bf e6 2e 2d bf
       0.23594561 0.6327702 -0.9248374 -0.67649686
000020 52 94 0d be 24 70 9f be 76 5c 3e bf 0e f1 8d bc
       -0.13826111 -0.31140244 -0.74359834 -0.017326858
000030 27 97 1a bf 00 0a 91 3d ed de e9 3c 5c 3c 3d 3f
       -0.6038689 0.070819855 0.028548682 0.73920226
000040 09 a3 2a 3f cb c5 20 bf 40 59 23 bf 43 bb 24 3e
       0.6665502 -0.6280181 -0.6380806 0.1608706
000050 93 ee 39 bf cc 94 35 be 00 96 02 bd 70 ce bb be
       -0.7262966 -0.17732543 -0.031881332 -0.36680937
000060 e6 cd 2c bd f0 f4 38 be 71 60 0d 3f f9 51 8d 3e
       -0.042188548 -0.18062186 0.5522528 0.27601603
000070 33 19 78 3d 04 e6 cd 3c 0d 15 90 bf e0 69 17 bf
       0.060570907 0.025134094 -1.1256424 -0.5914593
000080 36 dc 17 bf 3b 95 08 bd ef bd 1e 3e 3b a2 1f bd
       -0.5932039 -0.033345442 0.15502141 -0.038973074
000090 bf 6b 78 bf a9 f7 46 3d ec 5c e8 be 63 e0 05 bf
       -0.9703941 0.04857603 -0.45383394 -0.5229551
0000a0 f9 16 83 bd 82 39 36 3d 24 63 47 3f f6 4f cd 3d
       -0.06400866 0.044488437 0.7788565 0.10025017
0000b0 f0 68 0e be 93 51 16 3f 96 9e 07 3e 50 35 94 3e
       -0.13907218 0.5871822 0.1324409 0.28946924
0000c0 8a fd f3 be 4c 5b 4d 3b a6 94 a6 3d e4 61 8e 3e
       -0.47654372 0.0031334935 0.08133821 0.2780906
0000d0 e7 80 90 3e b4 54 0e bf 28 be d3 bd c4 98 bd 3e
       0.28223345 -0.55597997 -0.10339004 0.37030613
0000e0 b7 e9 be 3e f2 c7 13 3e a8 59 f5 be 99 c4 b4 be
       0.37287685 0.14431742 -0.47919965 -0.35306242
0000f0 2e 7e a9 3d a9 f1 e1 be 97 37 eb 3e a1 9e ff bb
       0.0827602 -0.44129685 0.4594085 -0.0078008925
000100 a4 94 47 3e 11 db 44 3e 8e fc 97 be ea 0f e9 3d
       0.19490296 0.19224192 -0.2968487 0.113799885
000110 c3 a2 33 bd d1 65 25 3f 9d b8 06 bf e9 b7 d4 3e
       -0.043856394 0.64608485 -0.5262545 0.41546562
000120 28 fd 8c bf e6 d5 a5 be 1d 34 cf bc 68 91 a8 3d
       -1.1014757 -0.32389754 -0.025293404 0.08230859
000130 45 29 b8 bd 67 7d 23 3e 9d 84 40 be 39 00 fb be
       -0.089922465 0.15965806 -0.18800588 -0.49023607
000140 a5 2e 29 be f5 5a a5 bd 05 d6 e4 3e d0 5e 95 be
       -0.165217 -0.08073989 0.44694534 -0.291739
000150 0f f2 49 bf bd b8 8c 3e 6f a0 a9 3e df 07 4e 3e
       -0.7888498 0.27484694 0.33130214 0.2012019
000160 9c 41 24 bf c0 e2 95 be 50 58 d2 3d f7 df af 3e
       -0.6416261 -0.2927456 0.102707505 0.3435056
000170 cd f0 15 3f 73 06 36 3d d8 2e 8b 3e eb 0e f3 3c
       0.5857056 0.044439744 0.27184176 0.0296702
000180 a9 86 19 bd 39 7c 80 3d 4c fe 44 be 10 84 f8 3e
       -0.037481938 0.062736936 -0.19237632 0.48538256
000190 16 4b c5 bb cb 94 24 bf 8b 89 09 bf 9a 60 88 3d
       -0.006020914 -0.6428954 -0.537255 0.0665905
0001a0 9d 1c 76 3e 93 4b 06 3f c0 88 fe 3e 88 69 b6 3e
       0.24034353 0.5245907 0.49713707 0.3562739
0001b0 5c 36 fb 3d b1 a8 b9 3e 44 a0 7b 3e 40 31 b8 3d
       0.122662276 0.36261514 0.24572855 0.08993769
0001c0 44 fe 92 be ac 2f ba 3e 2e 10 09 bf cd cf 80 be
       -0.28709614 0.36364496 -0.53540313 -0.2515854
0001d0 59 4e 13 3e 7f 47 83 be a3 a6 aa bf 0e db 93 3e
       0.14385356 -0.25640485 -1.3332103 0.28878063
0001e0 b7 58 9c 3e 4e 8b eb be b9 ab 78 bf 5a e4 7c bf
       0.30536434 -0.4600472 -0.9713703 -0.98785937
0001f0 4e 05 a0 bf f8 50 14 3f 4f 15 b3 be 9b 2e d3 be
       -1.2501619 0.5793605 -0.34977195 -0.41246495
000200 86 cc 6f bf c8 bd b4 3e 73 25 56 3e cd 4c d3 3d
       -0.93671453 0.35301042 0.20912723 0.10317383
000210 c3 86 cf 3e 8f d9 2d be 54 ba 9b 3d f6 e8 0e 3f
       0.40532503 -0.16977523 0.07603899 0.5582422
000220 3c 5e b0 3d 56 b2 27 3f 21 ef 79 be ab 4e aa 3d
       0.08611724 0.65506494 -0.24407627 0.08315786
000230 1c 80 fe 3e 82 5a 30 be bb 9f 1a 3f 36 0e 5e be
       0.49707115 -0.17222026 0.6039998 -0.21685109
000240 09 df 18 3f 70 c3 e3 3e 7a db f7 3c 31 84 84 bd
       0.59715325 0.44485044 0.030256022 -0.06470526
000250 80 fa 24 bd cc ef 94 3f c5 ff 85 be 6e 17 31 bf
       -0.040277958 1.163568 -0.261717 -0.69176376
000260 f3 73 1a bf a2 73 1c bf c6 f6 6b bd f8 d7 10 3f
       -0.60333174 -0.6111394 -0.05760839 0.5657954
000270 2b 4c 2a 3e e9 59 1f 3f c3 a2 1d bf 91 4f ce be
       0.16630618 0.62246567 -0.6157648 -0.4029508
000280 ff 7f 2d 3f b0 88 05 bf 48 00 2d 3e f8 c3 88 be
       0.6777343 -0.52161694 0.16894639 -0.26712012
000290 81 e7 2b 3d b3 a5 c3 3f 58 b2 c3 ba fc b6 b3 3e
       0.041968826 1.5284942 -0.001493047 0.35100543
0002a0 b6 28 86 be 9a ef 2b 3f 33 b2 62 bf 88 b1 9b 3e
       -0.26202935 0.6716248 -0.8855316 0.30408883
0002b0 85 12 3a 3d 7a b9 8f 3e 80 2e 98 3e b5 ec 80 be
       0.045427818 0.28071195 0.29722977 -0.25180593
0002c0 2d a6 92 bd 12 35 8c 3e 5f 22 e1 3e b5 28 de 3e
       -0.07160602 0.2738424 0.43971536 0.43390432
0002d0 72 81 a8 be 54 f3 e4 be d9 b0 8b 3e 30 ed c7 be
       -0.3291126 -0.44716895 0.27283362 -0.39048147
0002e0 de 2f ad bc bb b9 ec be 9e 30 3e 3e 19 f0 5e 3d
       -0.021140989 -0.4623545 0.18573233 0.054428194
0002f0 f1 27 f6 be a6 0e 11 bf b8 05 38 bc 5f e4 1b be
       -0.48077348 -0.56662977 -0.011231832 -0.15223835
000300 b1 17 9f 3e 9f 2c 0c be b4 a3 27 3e 3f 03 13 be
       0.31072763 -0.13688897 0.16371042 -0.14356707
000310 4f df f8 bd 58 bd 85 3f 98 0d 0e bf 96 bc 10 be
       -0.12151968 1.0448408 -0.5548949 -0.1413444
000320 34 1a 67 3e 57 89 0c 3f 14 7b 1a 3e 12 17 25 3f
       0.2256859 0.54897064 0.15086013 0.6448833
000330 d8 bf 24 bf 7f a7 23 3e 73 ba 35 be b4 59 fd bd
       -0.6435523 0.15981863 -0.17746906 -0.12370625
000340 bb 85 4c 3e f1 d7 a0 bf 82 8e 1a be 3a 70 25 bf
       0.19972889 -1.25659 -0.15093425 -0.6462437
000350 c3 ae 30 3d c5 d6 28 3b 6c aa 35 be 2f 8c 96 be
       0.043135416 0.0025762778 -0.17740792 -0.29403827
000360 ba d0 80 be ba b4 97 be d0 b4 7b 3e c3 40 42 bf
       -0.25159246 -0.2963007 0.24580693 -0.7588007
000370 46 58 15 3f f6 e2 47 3f 46 1c 85 be 3d a3 69 3e
       0.5833782 0.7808069 -0.25998133 0.22816177
000380 56 eb 4c bd d8 01 cd 3e 4d 8e 0d be 92 ae 2b bf
       -0.05002912 0.4004047 -0.13823815 -0.6706325
000390 b4 a5 71 bf 1f 92 4b be db 17 47 be 05 cb 7b 3d
       -0.9439347 -0.1987996 -0.19442694 0.06147291
0003a0 ec 25 4a be e2 4b a4 bd a0 8a 38 be ed 3b f9 3e
       -0.19741029 -0.08022286 -0.18021631 0.48678532
0003b0 a9 30 11 3f a6 b3 06 3c 60 e0 f0 bd 66 67 7c bd
       0.56714875 0.008221542 -0.11761546 -0.061622046
0003c0 02 cb 5d 3e 47 c4 bd 3e 6e 02 55 be e1 33 7f 3e
       0.21659473 0.3706381 -0.20801708 0.24922134
0003d0 07 06 9d 3e 08 0e 04 bf e3 cb 95 3e 28 54 65 bf
       0.3066866 -0.5158391 0.29257116 -0.8958154
0003e0 5c 3f 89 be b7 be 86 be 0c d3 1c bd 78 81 3d bd
       -0.26806152 -0.2631738 -0.038287207 -0.04626605
0003f0 4b f5 bf be 9e d4 3d 3e 9e 3b 55 bf e6 05 a9 3e
       -0.3749183 0.18538138 -0.83294094 0.33012313

nee_decoder.2.bias f4 [16]
000000 ca 42 c6 3d fa 87 60 3d 5d 66 f9 3c 3c 9c 85 3e
       0.09680708 0.054817177 0.030444318 0.2609576
000010 7b f2 dc be 9c 9d 26 be 53 5d 38 3e be f5 6d be
       -0.43153748 -0.1627106 0.1800435 -0.23238274
000020 9f 9c 0d 3e f0 13 e3 bd af aa 8b bd 03 3f 29 3f
       0.13829277 -0.11087787 -0.06819665 0.66111773
000030 33 ea 97 be 43 9e 67 bc 08 ff 91 be 27 9d 1f 3e
       -0.29670867 -0.014136854 -0.28514886 0.15587293

nee_decoder.4.weight f4 [1, 16]
000000 58 f8 00 bf e6 ee 02 bd 4e a0 4b be 85 07 28 3f
       -0.5037894 -0.031966113 -0.1988537 0.65636474
000010 ec e1 36 be 43 70 84 be e7 e0 08 3f a3 96 27 3e
       -0.1785962 -0.258669 0.53468174 0.16366057
000020 b5 74 2d 3e 64 b1 66 bf f4 c0 61 be 80 40 8f 3e
       0.16939051 -0.90114427 -0.22046262 0.27978897
000030 20 22 39 be 3b 71 1c 3f 83 3d 88 be ab ac 3e 3f
       -0.18079424 0.61110276 -0.2660943 0.7448222

temp_derivative_decoder.0.weight f4 [16, 32]
000000 9d 87 27 be c0 be b0 3d 0c 98 bf be 6f f3 e7 bd
       -0.16360326 0.08630133 -0.3742069 -0.11325728
000010 9b 6e 82 be 06 a4 8d 3c c3 e6 dd 3c 36 a5 e2 3e
       -0.2547501 0.017290127 0.027087575 0.4426667
000020 72 f3 0c be 18 c3 ad bd 50 df cf be 31 7d 56 bd
       -0.13764742 -0.08484477 -0.4060006 -0.052365486
000030 4e e1 30 3e 00 9f 2e 3e 1f fd eb 3d 19 05 05 be
       0.17273447 0.17052841 0.115228884 -0.12990226
000040 c3 a7 09 3f b7 c4 03 bf c8 5c 4b be de 42 07 3e
       0.5377161 -0.5147204 -0.19859612 0.13209102
000050 2f 46 7e 3e 92 b9 50 be 1a 83 d5 be c9 6b 5a 3e
       0.2483146 -0.2038329 -0.41701585 0.2133018
000060 b9 5b 88 be f5 6c 08 be e1 39 05 3f ca f2 46 3d
       -0.2663248 -0.13322814 0.5204144 0.048571385
000070 48 d0 1c 3e 3a 5e 17 be b9 8a 1c 3f da 82 85 3e
       0.15313828 -0.14782038 0.61149174 0.26076394
000080 4a d4 bb 3e a5 aa 21 3e 90 8a 91 3d bd c9 4e bd
       0.366854 0.15787752 0.07106507 -0.05048536
000090 c9 da 86 3e 06 dc 2e 3e ca 1d 6d be bd 4c 47 bd
       0.26338795 0.1707612 -0.23155895 -0.048657168
0000a0 81 08 d6 3e 1c f6 af be e9 71 c8 3d ba d1 14 3d
       0.41803363 -0.34367454 0.09787352 0.036332823
0000b0 4e c0 98 bd 7d cb dc bd ff e1 5a be 02 65 35 be
       -0.07458554 -0.10781 -0.21375273 -0.17714313
0000c0 78 ed 9f be e1 73 35 3b a4 19 2a be 3b 62 af 3e
       -0.31235862 0.0027687477 -0.16611344 0.3425463
0000d0 f3 af 4f 3c 8a 20 38 be d3 75 5f be 3d 60 18 3e
       0.012676227 -0.17981163 -0.2182229 0.14880462
0000e0 21 ec b4 3d c4 59 02 3e c2 9f c4 3d 9b b6 8d bb
       0.088341005 0.12729555 0.09600784 -0.004324747
0000f0 59 ee c3 3d 36 02 6b be f7 cc df 3d 8e 28 aa 3d
       0.095669456 -0.22950062 0.10927766 0.083085164
000100 7d f6 82 3d f4 4c 29 3f dd 8d cc bd 28 a4 2a be
       0.0639467 0.66133046 -0.09987996 -0.16664183
000110 8f a5 dd 3e de 2f 15 3d a6 6d 6d bd 3b a2 dc 3e
       0.43290374 0.036422603 -0.057965897 0.43092522
000120 60 5a 3f bd b6 2d 1c 3e 46 6b f1 be 29 25 8e 3e
       -0.046717048 0.15251812 -0.47152156 0.27762726
000130 e3 d1 ba 3d 09 96 62 3e 48 8d 78 3e a8 bf 7c 3d
       0.09122064 0.22127546 0.24272645 0.061706215
000140 68 63 9c 3d 58 19 4c 3e ce ec cb bb cd 20 ae be
       0.07636148 0.19931543 -0.0062232977 -0.340094
000150 75 d4 7c 3e 33 e7 6c be 44 d0 c9 3d 68 8c 06 be
       0.24690421 -0.2313507 0.09854177 -0.13139498
000160 37 56 38 3b d6 77 c0 3e 83 ad e4 3e dd c1 08 3d
       0.002812756 0.37591428 0.4466363 0.033388007
000170 b3 9d 93 3e 1f 60 f4 be 3a eb 65 3d eb fc 6e 3c
       0.28831252 -0.47729585 0.056132533 0.0145866675
000180 2f 03 0b bd 4e 13 ec 3d 1d 08 a0 3c 73 c2 5c be
       -0.033938583 0.115271196 0.019535119 -0.21558551
000190 2a aa 2e be 0a 3b 9d bd 33 6f 41 be 51 25 95 be
       -0.170571 -0.076772764 -0.18890075 -0.29130033
0001a0 5c af 68 bd 2b be 32 bf 3c 9b 38 3d 7a 7c c8 3c
       -0.05680786 -0.69821423 0.045069918 0.024473418
0001b0 94 c4 57 be 3f 53 64 3e 8e 22 88 be 7c b8 6b be
       -0.21071082 0.22297381 -0.26588863 -0.23019594
0001c0 7e 72 ac bc 36 a8 84 3e 02 31 ab 3e bf b4 a2 bd
       -0.021050688 0.25909585 0.33435827 -0.07944631
0001d0 0f 22 f7 3d 79 98 92 bd ae be 97 bd 34 5f 88 3c
       0.12067043 -0.07157988 -0.07409416 0.016646959
0001e0 f3 a4 39 be 69 45 34 be ab ac 6e be ee a7 00 bd
       -0.1812933 -0.17604603 -0.23308055 -0.03141015
0001f0 3f 2d 08 3e c1 ed 62 be 96 7f f7 be 51 e7 83 be
       0.1329851 -0.22161008 -0.48339528 -0.25762418
000200 f0 06 c6 3e b4 6b 91 3e b0 65 8c 3e bb e8 93 3d
       0.38677168 0.28402483 0.2742133 0.07222124
000210 26 ff f4 3e ac 81 da be 2c 2a a2 be 13 52 ac 3e
       0.47850913 -0.42677057 -0.316728 0.33656368
000220 06 8e 87 3c 88 4b ed 3c 94 67 1e 3e ed e3 48 3e
       0.016547214 0.02896668 0.154692 0.19618197
000230 ce f4 3e 3c 48 c5 30 be 83 2b 1f bc 9e ed bc bd
       0.011655046 -0.17262757 -0.009714964 -0.092250094
000240 c7 ad bb be 5e 6a aa 3b ef bd 4e be d3 aa 95 bc
       -0.3665602 0.0052006682 -0.20189641 -0.018269932
000250 ad ab 5a 3e ef 8e 13 3e 64 f6 c4 be 11 bf 8e 3e
       0.21354552 0.14409994 -0.3846923 0.27880147
000260 5c f1 de 3b 70 ad 07 3f 12 4c cc be 33 ef ea bd
       0.0068036746 0.5299902 -0.39901787 -0.11471405
000270 c9 24 74 3e a3 f9 42 be 56 61 36 be 36 1b 55 be
       0.23842157 -0.19040541 -0.17810568 -0.20811161
000280 7f de 28 bc b7 c3 8b 3e 48 96 a9 bd 03 f1 d5 bd
       -0.010306953 0.27297756 -0.08280617 -0.1044636
000290 b4 da 09 bf 4a 1d f4 3c 35 1f 85 be 9c 19 cb 3d
       -0.5384934 0.029799122 -0.26000372 0.09916994
0002a0 35 3d af 3c 0a c6 60 bd d2 53 0b be 6f 21 b7 3e
       0.02139149 -0.054876365 -0.13606194 0.35767695
0002b0 6d 60 41 3e 28 ba d9 bd 74 59 a3 3e 59 02 4d 3e
       0.1888444 -0.106312096 0.31904185 0.20020427
0002c0 53 f3 13 3e 5f c7 9c bd 64 74 37 3d 1d 07 77 bb
       0.1444829 -0.076552145 0.044788733 -0.0037693449
0002d0 b5 b7 c0 3e 31 da 22 be f6 26 09 3d 5b 23 83 3e
       0.37640157 -0.15903546 0.03348442 0.25612912
0002e0 7b 00 f5 be 6d 58 08 3e b4 2b 05 3e b4 b2 1c be
       -0.4785193 0.13314982 0.13004953 -0.15302545
0002f0 68 d5 60 3e 11 00 5d be 2c 1b 98 3e a7 72 78 3e
       0.21956408 -0.21582057 0.2970823 0.24262486
000300 5f e3 4c be 8a 8d 69 3d 00 71 a5 bd 8c 11 22 bf
       -0.2000861 0.057019748 -0.08078194 -0.63308024
000310 49 1e b3 3d 0c 49 53 be 06 cd 16 be 62 cf fd 3e
       0.08746011 -0.20633334 -0.14726648 0.49572283
000320 35 16 11 bf 23 32 bd 3d 1d c5 49 be db 39 2c be
       -0.5667451 0.092380784 -0.19704099 -0.16818945
000330 81 51 70 3e b8 bc 26 be 9b 7d 6f bd e3 8e 3d 3e
       0.23468591 -0.16282928 -0.058469396 0.18511538
000340 fa 26 18 3e 56 ed 3e be 7d 67 08 3d 8c db c8 3d
       0.14858618 -0.18645224 0.03330182 0.098075
000350 b5 53 84 3e 48 e7 5c be e4 b3 7a bd fd 05 a5 be
       0.25845113 -0.21572602 -0.061206713 -0.3223113
000360 88 8f f7 be fe e2 b6 3e 10 4e 9b 3e 52 f2 e8 3e
       -0.48351693 0.35720056 0.30332994 0.45497376
000370 06 67 a3 3e c2 c2 4a be da b4 4b be c7 5b 2d be
       0.31914538 -0.19800857 -0.19893208 -0.16929542
000380 62 41 5e be 58 6b 07 3f c6 05 3e 3e e6 71 99 be
       -0.21704629 0.5289817 0.1855689 -0.2996971
000390 02 5b ef 3e 63 7f 9b bc 95 0b d7 be 75 7f bb 3e
       0.4674912 -0.018981641 -0.42001024 0.3662068
0003a0 7c 94 9d bd cf 68 d0 3d 19 49 90 3e 7c 28 21 3e
       -0.07694337 0.10176241 0.2818077 0.157381
0003b0 76 43 fb 3c 76 ad 5c be 18 43 07 be 36 0f cd 3e
       0.030671816 -0.21550545 -0.13209188 0.40050668
0003c0 85 de 19 3e 44 22 f8 bc f5 17 93 3e 50 80 2c 3e
       0.1502629 -0.030289777 0.28729215 0.16845822
0003d0 e2 41 25 bd 68 74 7f 3d b2 21 bf be 18 36 ed be
       -0.040346034 0.062366873 -0.37330395 -0.46330333
0003e0 5f 89 94 3e 8d e3 e5 3d 06 a2 0d bf 7b 53 69 3e
       0.29011056 0.112250425 -0.55325353 0.22785752
0003f0 b6 0e af 3d 83 d4 57 bd 3e 20 c9 3b 69 08 09 3e
       0.08547728 -0.0526929 0.006137877 0.13382114

temp_derivative_decoder.0.bias f4 [16]
000000 ef d2 a2 be 2f f3 d9 bd 48 e8 b4 be 22 a6 03 be
       -0.31801555 -0.10642087 -0.35333467 -0.12856343
000010 4f 4c af bd de 92 2a be bd f8 2c be 72 68 53 bc
       -0.085594766 -0.16657588 -0.16891761 -0.01290332
000020 b7 b4 37 bd 1d bc 83 be d7 98 ad be 3d c9 80 be
       -0.044850077 -0.25729457 -0.3390567 -0.25153533
000030 9b a0 8f 3d f0 9e a1 be 15 d2 17 be 30 f1 3b be
       0.07013055 -0.31566572 -0.14826234 -0.18353724
