pivae_sde/2024-9-2_12-6-53-216082/best_model.pth (torch, 22882 bytes, 22 tensors)

encoder.0.weight f4 [16, 18]
00000000: 4752 d33d 90fa f23c dc84 cfbd c818 eebb
00000010: 26ea 483d 9271 743d fcef 8d3c 2c2e d93d
00000020: eccf c53d ca88 6fbe 4a1f 56bd 1304 063e
00000030: e67a 07bc 7b25 d63e 6d64 d7be 4085 623e
00000040: 587d 5cbf 8b17 cb3d acca ce3d ee86 6c3d
00000050: b05c 273e f833 883e fd4f 0fbc 5e4d e439
00000060: 1891 4fbe 0dbd 0ebe 4fbe 7ebe f5b1 dc3d
00000070: 8adb 71bd efdc b43d 4c44 66bd 5bb1 793d
00000080: d3f0 57bd fabf 403d a533 303d b90c 53be
00000090: 2247 f2be 9ac2 683d cc22 0abf 6dc1 c33e
000000a0: 6090 3d3e a95a 9ebd d59d eabc 155a 9abe
000000b0: aa97 3fbd c39d 833e e55c 5fbd 0f54 433d
000000c0: 328e 46be 0c44 aabe 5c3f fc3e 6724 ebbd
000000d0: 6be7 27be 7b9f f33d 2d76 313e 20f9 89be
000000e0: ff1c e73e 0078 2a3e d972 03bf 23d0 c53e
000000f0: aeb4 253d 7f98 963e 2716 713e 3567 08be
00000100: 5831 873e e308 753e b4a5 c1bd 310f ce3d
00000110: 76ed 8dbe d217 1bbc 41e0 793f 4ed9 01be
00000120: d076 16be 2c51 36be 240e 3abe 8875 d6bd
00000130: 2c2a 5c3e ad7a aebd 7bb2 483f d6e3 343e
00000140: 2643 2fbe d5bc 29be bc3d 3c3e 343d 34bf
00000150: b25b 0f3f 3aea 01be 3ef9 51bc 8581 4b3d
00000160: 965f 603f 4093 673d 1fb1 2d3d 4a7a 77bc
00000170: c61d 82ba 0ac7 dbbc de31 c6bd 19dd ddbd
00000180: 1f1b 45be 0362 a6bd ca57 ad3d c966 4abd
00000190: cb93 1d3e 0d0e c5bd ce3d 233c 7fce 64bd
000001a0: 17c2 f13d 1090 fdbc 103b 03bf 4efb 0a3d
000001b0: a4ca f7bd 3e9d d4bd 2ca4 27be 819d 8c3c
000001c0: 7ead 07bd 4b9f fa3c 60be 5e3d ac21 ad3e
000001d0: e416 283e 1c50 283e 8790 af3c acb5 87bd
000001e0: 06d9 833d 2b7d dc3d dc3e 5bbd 26ed 97bd
000001f0: 6d08 013f ab3a 443e d392 59bc 8e14 79bc
00000200: 13c4 ec3d 223d b1bb 1863 9abc 4395 3c3c
00000210: 73f3 ef3d 94e8 e9bd b4e4 a6be 168b 833e
00000220: 0337 5dbd a4f0 c1bc 758c ed3c 0ee1 9dbd
00000230: 2c26 6c3d 4f21 74bd a7df 8cbf 671b dc3c
00000240: 1d79 a53c 7c87 283f b212 a9be 60c0 a53e
00000250: c38f c73e 621c 3fbd fb89 96be 0097 8e3e
00000260: 0be3 7cbe 71fa 6b3e c2dd 95b9 dfc7 093f
00000270: ab3c e9be de9d e5be e57b f33e f99d 933e
00000280: 2324 02bd 0d0e 15be 945f 1cbd 2267 30bd
00000290: ad1c b73d 07e7 fe3d ee90 933d 224b 3b3d
000002a0: 764f ac3d 6e4c c2bd b94d 15be b073 a33d
000002b0: 3dcb 13bd 1a8c 30bc 26e9 ed3c abfb 82be
000002c0: e87a 633e 3bf3 20bc 3d4b 793f f74f d33c
000002d0: 6544 863d e361 93bd 611e dbbb 1cf4 f5bc
000002e0: 470d 1bbe 777a 4ebc 7e88 79be a588 1f3e
000002f0: f3fc 9e3d d583 d6bd 8512 a9bd c83b 983e
00000300: bd91 febd 3657 97bd 28e0 fe3d ddb5 653e
00000310: 37dc 813f 42ef 47be 5e34 aebc 0f46 d33a
00000320: 24d7 ce3b 5430 a53c 53b5 203c 606e a1bc
00000330: bd76 b9bc 5f90 953c ffdb 413e e6b1 f1bd
00000340: e9b9 03bc b57c 6e3c 1e15 d2bc 3ab7 1abe
00000350: c56a 143e da87 37bd 8476 aebc 79dc 893e
00000360: 4d12 f1bc 5089 c83d f93d e6bc c99e 333e
00000370: c2b0 69bc b716 60bc c595 37be fd02 32bd
00000380: 59da 513e 63bf fdbd c275 b03c c24c 4b3d
00000390: 85b2 60bd fd88 9f3e 7ca8 85be 1b12 fdbc
000003a0: 7765 523f d9ab 1a3c 1f77 2a3d fc5a 1a3c
000003b0: 6ff4 8a3d b7a6 ddbd 87b2 e4bc 029a 603c
000003c0: 81c2 e73d b1db bebd a977 a4be 9d25 1a3e
000003d0: b9a9 16bd 99c0 a0bb 6c65 653c 5e49 653d
000003e0: 8e86 62bd 40d0 143d 8040 0b3f 37c0 ee3d
000003f0: facc 46be 5139 0b3d dc6e e5be 8f7c 16bf
0.103184275 0.029660493 -0.10132763 -0.0072661377 0.049051426 0.05967862 0.017326348 0.1060451
0.096587986 -0.23392025 -0.052275933 0.13087492 -0.008269047 0.4182547 -0.42068806 0.22121143
-0.8612876 0.099166 0.1009725 0.057745866 0.16343951 0.2660215 -0.008747098 0.00043545192
-0.20270193 -0.13939305 -0.24877284 0.1077613 -0.05904726 0.08831202 -0.056217477 0.060960155
-0.052719902 0.047058083 0.043018002 -0.20610322 -0.47319895 0.05682621 -0.53959346 0.3823351
0.18512106 -0.07732136 -0.028639713 -0.30146852 -0.046775497 0.257063 -0.05453195 0.047687586
-0.1939018 -0.3325504 0.4926709 -0.114815526 -0.16396873 0.11895653 0.17330237 -0.2694788
0.4513931 0.16647339 -0.5134712 0.38635358 0.040455513 0.2941322 0.23543607 -0.1332062
0.26404834 0.23929171 -0.094554335 0.10061491 -0.2772023 -0.009466128 0.9760781 -0.12680551
-0.14693761 -0.17804402 -0.18169457 -0.10471636 0.21500462 -0.08519492 0.7839734 0.17665038
-0.17115459 -0.1657594 0.18382925 -0.7040589 0.5599929 -0.12687007 -0.012815772 0.049684066
0.8764585 0.056536913 0.042405244 -0.01510484 -0.0009927086 -0.026828308 -0.0967748 -0.10833187
-0.19248627 -0.08124163 0.0846401 -0.04941443 0.1538841 -0.096218206 0.009963466 -0.055860993
0.11804598 -0.030952483 -0.51262 0.03393107 -0.120991975 -0.10381554 -0.1637122 0.017164947
-0.03312444 0.030593535 0.054380774 0.33814752 0.16414982 0.1643681 0.02143122 -0.06626448
0.06437878 0.107660614 -0.053526744 -0.07418279 0.5040348 0.19163005 -0.0132796345 -0.0152026545
0.11560836 -0.005408899 -0.01884608 0.011510196 0.11716356 -0.11421314 -0.32596362 0.25692052
-0.05400754 -0.023674317 0.02899764 -0.077089414 0.05765359 -0.059602078 -1.1005753 0.026868535
0.020199353 0.6583173 -0.33022076 0.32373333 0.3897687 -0.046657927 -0.29402146 0.2784958
-0.24695985 0.23044755 -0.00028584717 0.53820604 -0.45554098 -0.44847006 0.47555462 0.2883146
-0.031772744 -0.14556141 -0.038177088 -0.043067105 0.08941016 0.12446409 0.072053775 0.04572595
0.084135935 -0.09487234 -0.1458043 0.0798105 -0.036082495 -0.01077559 0.029041838 -0.25582632
0.22214854 -0.009823616 0.9738043 0.025794966 0.06556014 -0.07196405 -0.006686971 -0.030023627
-0.15141784 -0.01260244 -0.24368474 0.1557947 0.0776309 -0.10474364 -0.082554854 0.2973311
-0.12430141 -0.07389681 0.12445098 0.22432657 1.0145329 -0.19524863 -0.021265205 0.0016118902
0.006312268 0.020164646 0.009808856 -0.019705951 -0.022639627 0.018257318 0.18931578 -0.118015096
-0.00803993 0.0145561 -0.025644835 -0.15108958 0.14493854 -0.044807293 -0.021296747 0.2692602
-0.029427672 0.09791815 -0.028105723 0.1754104 -0.014263334 -0.013677291 -0.17928226 -0.04345988
0.2049345 -0.1239002 0.021540526 0.04963375 -0.05485775 0.311592 -0.26105106 -0.030892422
0.82186073 0.009440386 0.04161751 0.009421106 0.06784903 -0.10822814 -0.02791716 0.013708593
0.113163956 -0.093192466 -0.32122543 0.15053411 -0.036782954 -0.004905772 0.014001232 0.05597817
-0.055304103 0.036331415 0.54395294 0.11657756 -0.1941413 0.033990208 -0.44811141 -0.5878381

encoder.0.bias f4 [16]
00000000: 4d7c 0dbf e41c 05be 65ef c3be 7aff 623f
00000010: c7ae e33e a688 95be bdc9 a23e 11b3 89be
00000020: 3c1a 55be 119e 5d3f 6b6d 003f 172e a83e
00000030: b0fc fb3e 49b3 623f 9ee4 57be f397 eb3e
-0.5526779 -0.12999302 -0.3826858 0.88671076 0.44469282 -0.29205817 0.3179454 -0.2689443
-0.20810789 0.86569315 0.5016696 0.32847664 0.49216223 0.8855482 -0.21083304 0.46014366

encoder.2.weight f4 [16, 16]
00000000: 0c36 853c 83ea d13e f233 853e 74c5 683e
00000010: 7c4d abbd f995 8abe 7d04 24bf ee21 dcbc
00000020: f127 923f c247 b0bc 0df0 f1bc a41f ad3d
00000030: 17e1 1d3f 3102 ccbe c3bd 643e 4116 85be
00000040: 7e14 88be 1bd4 40be 7bb2 c4bc 8972 2c3e
00000050: aa6a 363f 37c1 28be 8db0 95be 32de 253d
00000060: 1dc9 d9be 4017 9cbe 744b 613e 1226 f13e
00000070: cf04 f1be 7d07 1a3f 2969 c33e 23ff 2fbf
00000080: 29ff e7be 02e6 9f3e c32c c03d 27ac 3cbd
00000090: 95f9 313e 5f40 bdbe 0a35 e7bd 6a39 f4be
000000a0: fdd9 babe 75e5 26bf 1d6b 0cbe b38a 95be
000000b0: d613 35bf 1c23 07be 02ab b3be 7c17 6abe
000000c0: a16f 943d 36e9 b23c 488f 1b3c 1d59 283f
000000d0: dc68 9c3b 0867 a5be d739 133e 4c7d 4cbe
000000e0: 7e3a 10be 3001 27bf babf 213e 541d 19bf
000000f0: 0917 323d 01df d83e 76d3 a2be 501b 99be
00000100: d346 8abe 9ef1 d6be 1349 ba3e f60f 9dbd
00000110: 27e5 b43e 6aba 80bd befa a6bd 5a33 503d
00000120: fb41 893e 7a69 343f 34ec eabd 11fa d5be
00000130: 1743 073c 84a0 66be fb20 643d 740e ab3d
00000140: 15d4 4d3f 1bce a4be cd8c c0be 5f37 263f
00000150: 016d 08bf 9185 9fbe 7ea9 cabe c0ee a2be
00000160: 85b8 2cbf df91 0abf 6c57 b2bf 761c c83e
00000170: 5571 72bf 2a4d e4bd ec35 81bf 9d4b 17bf
00000180: 0499 8f3d c767 2e3f bef9 193e a55b ab3d
00000190: bf2e 1c3f 6c82 623e 0f4d af3d ff5d c8be
000001a0: 053b 2cbe 01a3 8a3e f315 8cbe c743 b7bd
000001b0: d0f7 cd3d 9187 82be 371d c83d be72 283f
000001c0: 214c 523e cfd6 bebd c487 cfbd 6b24 afbd
000001d0: bc44 1bbd 164f a93e da86 643e 1e0c 273f
000001e0: af0b 9e3d 0761 af3e 3fa5 48be f086 213e
000001f0: 820f 673d c656 02bf 33a1 573e ad5d 8c3d
00000200: 3b69 f23e eb63 e8be baa1 e33e 3efb f3be
00000210: 1b08 2c3e be69 8d3e acab 54be 905a 1f3d
00000220: e638 87bd 3183 b4be 5170 3e3d 0753 9c3e
00000230: 3cfa fb3d 3c01 a23e 7e27 203f 0e1b b23d
00000240: 4507 99bd 9d67 db3c 8f6d b63d a588 6fbd
00000250: fad9 82bf 0f36 54be c486 e73d 4def 92be
00000260: 7599 ab3d 8680 2fbe 34de 05bf d24b 38bc
00000270: c912 51bf 272c 9e3e 1030 87be ede5 8bbe
00000280: 02ec b4be c01e 59be 9cd2 4cbf c283 a4bd
00000290: d090 97bf 5cc3 963c e0a1 79be 1e9e 1b3d
000002a0: ac7b b3bf b0df ba3d a45d c7be 8a94 393d
000002b0: bb5e f33e 6da9 943e 33d4 3a3e 6ba5 a7bb
000002c0: 273d cc3e 5648 133f 8a9b ca3d 4eeb 903e
000002d0: daeb 783e 1438 9dbe 09e3 c83e 5174 d9be
000002e0: d8de 893e b721 22be fb29 a83d c485 62be
000002f0: 0764 46bf 604b 7ebe 0715 0abf f927 ae3d
00000300: d1db a6bd 872c 94be 4a69 fdbd 2670 27be
00000310: f798 3cbe bc21 25be 5e99 7cbe d330 28be
00000320: 07ca c93d ed4f 893e c498 1b3f 32d8 b2be
00000330: b0d8 e13e bc1a b73e d93b 433f 9b67 fcbd
00000340: f47d f9be 832f c23d b3d0 cebe 791d e43e
00000350: ed54 73be 5996 cdbe 6dff debc eeaa 8dbd
00000360: 1acd acbd c749 963e d317 b03e 9adc 98bd
00000370: 9b11 12bf f5f9 88be c0f2 5ebf 85e2 c03e
00000380: 7a73 963e 60c4 9fbf eae6 423e dc95 89bd
00000390: cf47 5f3f 2791 57bd 9d8e 02be 6d21 b73c
000003a0: e528 30bf 02c9 aebd b8e5 cdbe c076 1fbe
000003b0: bf76 dfbe b865 fe3e 8bb2 db3e 02be 393d
000003c0: 32da 313e 44fe 54be 86c8 3f3e eca2 ce3d
000003d0: 54bc b83e ef45 083e 2ea8 a43e 6417 babe
000003e0: 4845 dc3d 8c9c 5d3e 2037 a2be 3a58 173f
000003f0: d5dc ae3e 8db1 ea3e 1d0f 3ebe c88b 2e3d
0.016261123 0.4099923 0.26016194 0.22731572 -0.08364388 -0.27067545 -0.6406935 -0.026871648
1.1418439 -0.021518592 -0.02953341 0.084533006 0.61671585 -0.39845422 0.22338013 -0.2599354
-0.26578134 -0.18830912 -0.024010887 0.16840567 0.71256506 -0.16479956 -0.2923626 0.040495105
-0.4253625 -0.30486488 0.2200144 0.47099358 -0.4707398 0.60167676 0.38166168 -0.6874868
-0.4531186 0.3123017 0.093835376 -0.046062615 0.17380364 -0.36963174 -0.11289413 -0.47700053
-0.36494437 -0.65193874 -0.13712735 -0.29207382 -0.7073339 -0.13196987 -0.35091406 -0.22860521
0.07247854 0.02183972 0.00949461 0.65760976 0.0047732424 -0.3230517 0.14377533 -0.19969672
-0.14084813 -0.65236187 0.15795794 -0.59810376 0.043479 0.42357638 -0.31801957 -0.2990365
-0.2700716 -0.41981214 0.36383876 -0.0766906 0.3533108 -0.06285556 -0.08153294 0.050830223
0.26808152 0.70473444 -0.114708334 -0.41792348 0.008255742 -0.2252217 0.055695515 0.08352366
0.80401736 -0.32188496 -0.37607422 0.6492824 -0.53291327 -0.3115659 -0.39582437 -0.31822777
-0.67469054 -0.5412883 -1.3932929 0.39084214 -0.9470418 -0.111475304 -1.0094581 -0.5909975
0.07011607 0.681271 0.15036675 0.08367089 0.6100883 0.22120064 0.0855962 -0.39134213
-0.16819389 0.27077487 -0.27360496 -0.089484744 0.10057032 -0.25494054 0.09771197 0.6580008
0.20536853 -0.09318315 -0.10133317 -0.08551868 -0.037907347 0.3306815 0.22317067 0.65252864
0.07717072 0.34253713 -0.19594286 0.15774131 0.056411274 -0.50913656 0.21057586 0.06853805
0.4734591 -0.4538873 0.44459325 -0.4765262 0.16799967 0.27619737 -0.20768613 0.038904727
-0.066026494 -0.3525634 0.046493832 0.30532095 0.12303588 0.31641567 0.6256026 0.086965665
-0.0747209 0.026782805 0.089076154 -0.058479924 -1.0222771 -0.20723747 0.113050014 -0.28698197
0.08378879 -0.17138872 -0.5229218 -0.011248546 -0.8166929 0.3089306 -0.26403856 -0.27323857
-0.3533631 -0.21203136 -0.80008864 -0.08032943 -1.1841068 0.018403701 -0.24378157 0.03799259
-1.4022117 0.09124696 -0.3893863 0.045307674 0.4753321 0.29035512 0.1824501 -0.005116155
0.39890406 0.5753225 0.09892948 0.28304523 0.2430872 -0.30706847 0.39235714 -0.42471555
0.2692783 -0.15833174 0.08211132 -0.2212134 -0.7749638 -0.24833441 -0.53938335 0.08503718
-0.081473954 -0.28940222 -0.12373598 -0.16351375 -0.18417726 -0.1612615 -0.2466788 -0.16424875
0.09852987 0.2681879 0.60779977 -0.3493057 0.44110632 0.35762584 0.76263195 -0.12324449
-0.48728907 0.094817184 -0.403936 0.44553736 -0.23762865 -0.4015377 -0.027221406 -0.06917368
-0.084375575 0.29353163 0.34393176 -0.074639514 -0.57058114 -0.26753202 -0.8708916 0.3767282
0.29384977 -1.2481804 0.19033399 -0.067180365 0.87218946 -0.052628662 -0.12749715 0.022354806
-0.688124 -0.08534433 -0.40214324 -0.15572643 -0.43645284 0.4968698 0.42909655 0.04534722
0.17368391 -0.2080012 0.18728837 0.10089669 0.36081183 0.13307928 0.3215956 -0.3634597
0.10755402 0.21641749 -0.31682682 0.59119 0.34152856 0.45838585 -0.18560453 0.042613775

encoder.2.bias f4 [16]
00000000: 88ca 42bc 2878 6f3e 3727 bcbb c3b7 eb3e
00000010: 659f d93e 9fa9 0abd 6d2c bd3e e626 a1be
00000020: 7bc9 c0be 62eb fc3e fb49 d0be 8db4 a23e
00000030: 6d47 ae3e a1a7 b43e 8d5b d9bc dea9 cd3e
-0.0118891075 0.2338568 -0.0057419795 0.46038637 0.4250442 -0.03385317 0.36947957 -0.3147499
-0.37653717 0.49398333 -0.40681443 0.31778374 0.3403887 0.3528414 -0.026532913 0.4016866

encoder.4.weight f4 [32, 16]
00000000: c69d 273d 3f83 47bd 223f 843c 2a47 9bbd
00000010: 4dd8 cabe 6867 c3be 972b bc3c 4133 45bc
00000020: 8a93 3f3f b432 b6be 2b6b 2dbe 58d6 0a3e
00000030: e3d7 e73e ae7a 4b3e 96f6 153e 4c4c d0be
00000040: d64a e13d 1049 1dbe e815 03bf b899 ef39
00000050: ecbc e3be c890 20be 8c9b 993d e45f 4fbe
00000060: a6cf 493e 507b 82bc 977d a2bc 7f06 f53d
00000070: bccd a13e c2a4 8cbe e144 f1be fdd2 8e3d
00000080: 5d25 1c3f cd74 a23e 1c8f 333e f567 b2be
00000090: ee8a 853d f1d9 15bf 0908 af3d be20 ab3d
000000a0: 45cc 04be 704d 35bf 4a5b dfbc db8c 903e
000000b0: 19af 89be c148 c03e 2b3b 1cbd 890b f7bd
000000c0: 8070 2e3e 2182 e9bc daab 7b3e 308e 82be
000000d0: eafb ff3e 3790 e2be 480e f33d 9a57 acbd
000000e0: 09fe 6cbe e509 023f 65d5 a1be 92c3 15be
000000f0: 79f1 a63b 340f 46bf ba9e 823d 2ab0 1fbe
00000100: b2f9 ba3d b50f 02bf 252e 063f fd12 b33e
00000110: 1daa c9be cfd1 d53b 773f 6f3e 1acb 07bf
00000120: bbc0 523e 4aa3 e93d 486f 173f 35df 0a3f
00000130: b573 cb3e 64ae 3e3f 8ba5 4ebd 1287 a1be
00000140: e90e ebbe fbeb 463c 46af d1be 1f43 563f
00000150: a48b 043e 4098 c93e b14c 983d f56c 0fbd
00000160: bec3 d13d 23c4 11bf aca1 b5be 8a5b db3e
00000170: acc6 14bf 314e 773d c3ae 8abe 3e65 20bd
00000180: c602 313e 4f8d 51be 8778 7cbc fbb4 9d3e
00000190: 37d3 1a3f 23f4 2f3d 5008 1b3e 59dc 5abe
000001a0: 3aac 43bf f7cc e33e b6a3 493e 3b37 d83d
000001b0: 8fdf 15bf ec0f 21be 22ab 37bf 8a31 7bbd
000001c0: b626 c43e 43d1 c93e d118 f23e 9922 243d
000001d0: 6cae 0ebc 0ee2 063f 4817 0abe 1def cbbe
000001e0: 80e5 07bf a074 edbd b824 02bd 171d 193f
000001f0: d5e5 09be 8819 8b3e 0dcb 073e 9720 7b3d
00000200: c4ee 5fbe 54ca 683d 8d7a c33e 1f87 753f
00000210: f26b 4b3e 2cc0 4d3f 6ab2 42bf 11ba 313e
00000220: d79e 413f 3582 493f ec47 253f dc37 5f3e
00000230: c2a4 53be 6fb0 74be f919 2dbf cb1e 93bd
00000240: 6c63 a4be 6dcd ce3d 1de7 823f 2dbd 7c3e
00000250: 517e ab3e 5ca5 02be 7a4e 31bf 096e a8be
00000260: d059 183f 005b 913d 4692 57be 7e5a 8fbe
00000270: 3ebf af3e e5a2 fd3e 5d6e e3be 2952 c3be
00000280: 2ebc f8be 9f8e 753f ac4f 24be b923 c8bb
00000290: f702 93be e918 1fbf 3958 37be a15e d1bd
000002a0: ee41 adbe 0bb9 afbe 9b80 ddbe 2a5b 0fbf
000002b0: 35c4 903e 1196 ea3e 6288 da3e 7a8d aabe
000002c0: 9988 b83e 1730 3cbf af1a 943e facf a9bc
000002d0: 9952 47be d793 febd 5c56 2d3e b1a3 a23e
000002e0: b438 243f 9b22 1d3e 2497 98be 09a1 45be
000002f0: f48e 3ebe cd48 0f3f 634d 063f 9d3f 3fbe
00000300: f861 74be 9af3 b63e a3be c4bd dcf8 a13e
00000310: d8f1 0c3f 9131 2bbf e577 ee3d 94a8 10bf
00000320: 2980 b6be abd9 86be 3c91 8e3f fcb7 75bd
00000330: bb42 88be aff5 33be e02e 633e a435 0ebf
00000340: cd39 413f be2f c3be cd9e 45be 15c9 713e
00000350: 9cd8 b3be 993c 9d3e 8a0a 87bd ac97 1bbd
00000360: fa2b e0bd d101 183e 9b75 3c3e e3f7 3a3e
00000370: 03ff 5d3e c2e9 95be a275 73bb 9987 42be
00000380: 1940 9bbd 30b4 7e3e 5d65 c3be 5e7c 623e
00000390: 785e 04bf 1482 4a3f 18fe a93c b9fb 8a3d
000003a0: 6520 93bd b359 98be 031e f2be f558 a7be
000003b0: f607 6a3e c178 2d3e aec4 9b3d 2214 f53c
000003c0: a2ae 1fbf feec 343f de27 91bc 2f2f 993d
000003d0: 057e 15bf 44a0 d73e c852 633d 0558 833e
000003e0: e700 d63e 6bbe e1be e30f d83e 87ee d73e
000003f0: 99bf 8dbe 6d4b acbd 426a 333f aa1f 0bbd
0.04092195 -0.04870915 0.016143385 -0.07581933 -0.3961815 -0.3816483 0.022970004 -0.012036146
0.748345 -0.35585558 -0.16935413 0.13558328 0.45281896 0.19871017 0.14644846 -0.4068321
0.11000602 -0.15359902 -0.512053 0.00045700162 -0.44480073 -0.1568023 0.07500371 -0.20251423
0.19708118 -0.01592794 -0.019835277 0.1196413 0.31602275 -0.2746945 -0.47122863 0.069738366
0.6099451 0.31729737 0.1753506 -0.34844938 0.06520639 -0.5853568 0.085464545 0.083558545
-0.12968548 -0.70821285 -0.02726521 0.28232464 -0.268914 0.37555507 -0.038142364 -0.12062747
0.17035103 -0.028504433 0.24577275 -0.25499105 0.49996883 -0.44250652 0.11867958 -0.08415146
-0.23143782 0.5079635 -0.3160812 -0.14625385 0.0050947038 -0.7736695 0.06377931 -0.15594545
0.09129657 -0.5080522 0.5241416 0.34975424 -0.393876 0.0065252553 0.23364054 -0.53044283
0.20581333 0.11408098 0.59154177 0.54246837 0.39736715 0.7448485 -0.050450843 -0.31548363
-0.45909813 0.012141223 -0.40954036 0.8369617 0.12943894 0.3937397 0.07436503 -0.03501602
0.10242413 -0.56939906 -0.35474908 0.42843276 -0.5811565 0.060377304 -0.27086458 -0.039159052
0.17286214 -0.20464061 -0.015409595 0.3080214 0.6047854 0.042957436 0.1513989 -0.21373118
-0.7643467 0.44492313 0.19691357 0.105574094 -0.5854425 -0.1572873 -0.717455 -0.06132654
0.38310784 0.39417467 0.47284558 0.040072057 -0.008708578 0.5268868 -0.13485444 -0.39830866
-0.53084564 -0.1159451 -0.0317733 0.5981001 -0.1346658 0.27167916 0.13261051 0.061310377
-0.21868426 0.05683358 0.38179436 0.95909303 0.19865397 0.80371356 -0.7605349 0.17356135
0.75632995 0.78714305 0.6456287 0.21798652 -0.20668319 -0.23895429 -0.67617756 -0.07183608
-0.32107103 0.100977756 1.022678 0.2468154 0.3349481 -0.12758392 -0.6926037 -0.3289645
0.59512043 0.07097435 -0.21051893 -0.27998728 0.34325594 0.4953834 -0.44420138 -0.3814862
-0.4858107 0.9592075 -0.16046017 -0.006107774 -0.287132 -0.62147385 -0.17904748 -0.10223127
-0.33839363 -0.34320864 -0.4326218 -0.5599848 0.28274694 0.45817617 0.42682177 -0.33311063
0.36041716 -0.7351088 0.28926608 -0.020729054 -0.19465102 -0.12430542 0.16927475 0.31765512
0.6414902 0.15345232 -0.2980281 -0.19299711 -0.1860922 0.5597046 0.5246183 -0.1867661
-0.23865497 0.35732728 -0.096066736 0.31635177 0.55056524 -0.6687251 0.11643962 -0.5650723
-0.35644653 -0.26337942 1.1138072 -0.059989914 -0.2661341 -0.1757419 0.2218585 -0.555506
0.7547882 -0.38122362 -0.19298859 0.23611863 -0.35126197 0.30710295 -0.06593807 -0.037986442
-0.10945888 0.14844443 0.18404238 0.18258624 0.2167931 -0.29279906 -0.0037148972 -0.18997039
-0.07580585 0.24873424 -0.38163272 0.22117755 -0.5170665 0.79104733 0.020751044 0.067862935
-0.07183913 -0.29755935 -0.47288522 -0.32685056 0.228546 0.16940595 0.07605873 0.029916827
-0.62375844 0.7067412 -0.017719205 0.07479703 -0.58395416 0.4211446 0.05549887 0.2565309
0.41797563 -0.4409059 0.4219962 0.4217417 -0.2768524 -0.08412824 0.7008401 -0.033965744

encoder.4.bias f4 [32]
00000000: 9b16 6fbe f00d df3e 24a3 f8be e991 99be
00000010: b2b2 623e 687e dabe 79fe 1ebe d169 b33e
00000020: 0981 8cbe d95c 4cbe e37b 31be 69fc b1be
00000030: b4a7 cc3e 5e86 b0be e9bd ae3e dfcc afbe
00000040: 328a aa3d aa4e afbe 9fb9 7b3e 44ad debe
00000050: b9dd dfbe e9d7 b03e 301b e63e 2a65 d83e
00000060: c9c3 85bc 89a8 b9be c952 de3e 8949 a0be
00000070: 6dab c0be a415 79be f109 c1be 8013 ad3e
-0.23348467 0.4356532 -0.48561966 -0.29994133 0.2213848 -0.42674565 -0.15526761 0.3504167
-0.27442196 -0.19957294 -0.17332415 -0.34762886 0.39971697 -0.34477514 0.34129265 -0.34335992
0.0832714 -0.34239703 0.24582528 -0.43491566 -0.43723848 0.34539726 0.44942617 0.42264682
-0.01632871 -0.36261395 0.43422535 -0.31306103 -0.37630787 -0.24324661 -0.37702897 0.3380394

nee_decoder.0.weight f4 [16, 32]
00000000: 208a c13e 312c 9b3e c255 223f 472c d33b
00000010: ca48 e73c 5e9b 40bd 142b d7be 772c 48be
00000020: 3085 d7be bbae 8a3d 0d1e a5bd 3b81 a33d
00000030: e173 8dbf 30cc f0bd 8df4 633e 5c57 af3e
00000040: f3d7 f3be 801a 0b3e 06dc 0d3d e284 8b3c
00000050: 0266 ac3f bdd2 013e 1157 b6bf debc 0a3f
00000060: a119 1e3f c615 e53b dc08 a4bf f221 2bbc
00000070: a41e c53e 1fa7 5fbe f131 453e 49e8 7cbf
00000080: 7c0c f9bd fb07 8f3e 1a6c eebe c3ea 453d
00000090: 7926 0a3e 8e00 703d 2829 38be f21b d33e
000000a0: da84 ca3e 343f bbbe 9493 44bf 1581 1fbf
000000b0: f117 f1bc aadb 46be f582 753e 63f9 c83e
000000c0: bc88 e6be df9e c5bb 829b 383f 7cc7 c03e
000000d0: 4c50 3dbe 4c12 dd3e d527 783e 0527 453f
000000e0: 7ada 403e 1b0c 98be d73f 663e e12e 18be
000000f0: 9cc3 85be 6f2a 0dbf fb19 d03e 7c2d 87be
00000100: a8f1 e13c 4376 053e 6046 f73e 7286 dbbe
00000110: ed07 c5be fc8d 8abe d4c2 90be 2f71 c43e
00000120: a531 a83c 4010 4abd b755 f63d 8085 99bd
00000130: 8da5 d0be 3046 513e 6626 fe3e 0478 80be
00000140: 558b a13e 843b 1dbd d997 783e 451d e73d
00000150: a2e0 693e 17b7 393e 70a9 95bf 102b 1cbe
00000160: 9943 c1be a3e1 b53e de1f f6be 786f 2ebf
00000170: 01ea ea3e b4b2 b4bd 4657 bfbe 4f85 be3e
00000180: fce7 863c 8603 9dbe 1561 703e 5c36 bdbd
00000190: b50a 4dbf 70ec 183e 6fb0 163e a648 323e
000001a0: 8c6c 0f3f 20c8 7f3e 5071 a63e 5842 433d
000001b0: 102a 5c3e 557e 66be 04e5 4fbe 40e7 e13e
000001c0: 1cf1 513e e047 ab3e 4bba 003e e420 b43e
000001d0: af0c ab3d 3d95 003d d029 b0be bde5 52bd
000001e0: 98fd dabe c803 9abe 03e0 8cbe 2871 973e
000001f0: 195c b2bc 2ab5 47be 3df3 fdbd 1c15 adbd
00000200: c133 6a3e eccb 193f b77c eabd 4c16 c3be
00000210: 5cc9 f3bc f5c8 32be 5879 91bd 61d7 c73d
00000220: 98cf 12bf 4ee5 20bf 3876 4b3d 1fdb bcbd
00000230: 3f58 39bf f761 c4be 1875 bebb 1577 fdbd
00000240: 3968 823e 8c7d 22be e531 fe3e abcc 753e
00000250: bd3b c1be eb31 42bd 3668 39bf 4975 bd3e
00000260: 3fb1 c93d 4278 953e 58ad 43be 0b5e 89bf
00000270: b6af c13e f82a 66be 4acd 443e 4a0a c1be
00000280: d510 2b3e 81ed f3bd 3a22 ec3c 6b80 cfbd
00000290: 75ee 953e d1fc ecbd 319b 2abe 9b91 e03e
000002a0: 0391 28bf 4941 8bbe 58b7 fe3e d585 9c3e
000002b0: 9f0d cd3e bc36 0c3f 5d80 ee3e 375f 14bf
000002c0: a42e 47be 843e 553e c6b9 c8be 53cb 9cbe
000002d0: 2c98 d7bf 23c6 253e 6de1 2d3e 432a a8bd
000002e0: 8cb7 4abf 8ea9 0bbf 58ee 213f 25ad 88be
000002f0: c3ae f1be 2d74 ec3d 12ce 903e 3c0f 36be
00000300: 4dfd 753e 8982 1e3f 72c5 3cbe 74cf b23e
00000310: 45cf 8cbe 16fb 863c 68a1 83be 44b4 883d
00000320: 1d89 26bf 42e5 9a3e 2a22 8b3f d775 2abf
00000330: 529c 913e ddea 00bf c045 823e 4d5f a53d
00000340: ef64 fd3e 9ce2 393e 2655 c2be fcae d23e
00000350: 0167 b73f fbba 893e d82f 41be bc40 8abe
00000360: f3b2 9c3e 6ffa 253e 235c f6be 8775 043e
00000370: eaf7 613d ce48 43be efb9 bbbd 7e8e d5be
00000380: 1026 9dbe faa4 2a3f eed3 a83c 5178 febd
00000390: d331 763e 4c97 4cbe eb45 483e 78a7 d4be
000003a0: 5ad8 533f c1e8 33be 8d0a 25be a7aa b3bd
000003b0: bd38 85bd 7b61 003e 8008 0f3f 828f 3e3f
000003c0: c01b cc3e 7272 c8bc b34d 0c3f 3061 b73f
000003d0: bc7f 91bf 451c 66be eb16 2e3f 792e 32be
000003e0: 5b4b 4ebe 3324 21bb 9eb6 a73e b176 6d3e
000003f0: 9472 2ebe 8203 593d 4b55 1f3f b14a f23e
0.37800694 0.30307153 0.63412106 0.0064444873 0.02823295 -0.04702317 -0.42025054 -0.19548212
-0.42093801 0.067716084 -0.08062372 0.07983633 -1.1050988 -0.11757696 0.22261257 0.34246337
-0.47625694 0.13584328 0.03463366 0.017031137 1.346863 0.12678047 -1.424532 0.5419444
0.61757857 0.006991121 -1.2815204 -0.010445105 0.3849994 -0.21841095 0.19257332 -0.9879194
-0.12160584 0.27935776 -0.4656685 0.04831959 0.13491239 0.05859428 -0.1798445 0.41232258
0.39554483 -0.36571658 -0.76787686 -0.6230634 -0.029430361 -0.19419733 0.23975737 0.39252767
-0.45026195 -0.006030902 0.72112286 0.37652194 -0.18487662 0.43178022 0.24233945 0.77012664
0.18833342 -0.29696736 0.2248529 -0.14861633 -0.261258 -0.55142874 0.40644822 -0.2640189
0.027581051 0.13033395 0.4829588 -0.4287601 -0.3848261 -0.2706145 -0.28273642 0.38367602
0.020531485 -0.049331903 0.120280676 -0.07496166 -0.40751305 0.2043693 0.4963867 -0.25091565
0.31551614 -0.038386837 0.24276675 0.112848796 0.22839597 0.1813625 -1.1692333 -0.15250802
-0.37746885 0.3552371 -0.48071188 -0.6813884 0.45881656 -0.088231474 -0.37371272 0.3721108
0.01646804 -0.3066675 0.23474534 -0.09238884 -0.8009446 0.14933944 0.14715742 0.17410526
0.56025004 0.24978685 0.32508326 0.047670692 0.2150042 -0.2250913 -0.20302206 0.44121742
0.20502132 0.33453274 0.12571065 0.35181344 0.083520286 0.031392325 -0.344069 -0.051488627
-0.42771602 -0.3008101 -0.27514657 0.2957852 -0.021772431 -0.19502702 -0.1239991 -0.08451292
0.22871305 0.60076785 -0.11449569 -0.3810295 -0.029759102 -0.17459472 -0.071032226 0.09757877
-0.5734801 -0.6284989 0.04967329 -0.092214815 -0.7240028 -0.3835599 -0.0058122985 -0.12376229
0.2547014 -0.15868205 0.49647442 0.24003856 -0.3774089 -0.047410887 -0.7242464 0.37003544
0.0984826 0.29193312 -0.19109094 -1.0731825 0.3782937 -0.22477329 0.19218937 -0.37703162
0.1670564 -0.11910535 0.028824914 -0.10131916 0.2928349 -0.115716584 -0.16660763 0.43861088
-0.6584627 -0.27198246 0.49749255 0.30570856 0.40049455 0.5477102 0.46582308 -0.57957786
-0.19451386 0.20824629 -0.39204234 -0.30623874 -1.6843314 0.16188864 0.16980524 -0.08211186
-0.7918632 -0.54555595 0.6325431 -0.266946 -0.47203645 0.11545596 0.2828222 -0.17779249
0.24022408 0.6191793 -0.18434694 0.349239 -0.27501884 0.016477149 -0.2570908 0.06675008
-0.6505297 0.30253035 1.0869801 -0.6658606 0.28439575 -0.5035837 0.2544384 0.08074818
0.4949107 0.18152851 -0.37955588 0.41149127 1.4328309 0.26900467 -0.18865907 -0.27002513
0.30605277 0.16208814 -0.4811717 0.12935458 0.05516807 -0.19070742 -0.091663234 -0.41710275
-0.30693102 0.66657984 0.020608868 -0.12425292 0.24042444 -0.1997959 0.19557922 -0.4153402
0.82752 -0.17569257 -0.16117306 -0.08772784 -0.065049626 0.12537186 0.55872345 0.74437726
0.39864922 -0.024468634 0.5480606 1.4326534 -1.1367106 -0.22471721 0.6800372 -0.1740054
-0.20145933 -0.0024588227 0.32756513 0.23189808 -0.17035896 0.05298186 0.6223952 0.4732261

nee_decoder.0.bias f4 [16]
00000000: 7fb1 18bf 310e c93d 0301 abbd f149 273d
00000010: 6c60 493e 7011 0b3f 89c3 913d 050f a63e
00000020: 5811 cc3d 2614 c6be 0193 2cbe 5318 d13e
00000030: 67c3 a5bd 1204 33be 17e2 27be 0e58 ce3c
-0.5964584 0.0981716 -0.08349802 0.040842 0.19665688 0.5432348 0.071173735 0.32433334
0.099642456 -0.38687247 -0.16852953 0.4083887 -0.08093911 -0.17482021 -0.1639484 0.025188472

nee_decoder.2.weight f4 [16, 16]
00000000: d41f 2dbf f7c0 673e 6207 e0be 9e1f 0bbf
00000010: a98a 15be 0416 e7be 1010 6bbe 6870 5c3f
00000020: 5f1f f83e c1f7 c43e 48c1 6d3e c2d9 133d
00000030: ab90 18bc e338 e83f d61e bd3e be0f 69bd
00000040: 15f5 223d 9e0c b7bd c8b1 b3be ad07 6dbe
00000050: eb8a d1be 0110 25bf 16f2 2dbe f3a6 a43e
00000060: 1202 10bf c08e 9dbd 09dd 183e 4d0f e9be
00000070: 55b7 21bf 0112 45bd 9922 93bd 66d0 9f3e
00000080: 8364 95bd 322c f13e d780 a43e fb9c 793f
00000090: 04a1 6cbe 522c 35bf ed45 22bf dbe7 97be
000000a0: 417f 39bf 30f8 70be cf59 1ebe 1b29 f03e
000000b0: e555 f33e 1bc4 4c3f d1a4 823f 4265 753f
000000c0: b48e 27be 5438 dcbf 1eeb f13d 21f5 1e3f
000000d0: 6eef 39be 58e9 343e 089d 083e b407 5ebe
000000e0: 1843 d23c 5ebe bfbd bc0c d0bf 6905 153f
000000f0: bed8 7e3f 65b0 bf3f b6be 27bf d72c 8bbe
00000100: 2f9a febe ada9 0dbe 1384 a33e 7387 093f
00000110: e2a3 a83e 4c74 1b3f 9b0d 113f 1246 f03d
00000120: b4fe a5be cf8c f73e 2e75 1abd 4e45 8e3d
00000130: a8be 8e3e d57d 0cc0 798f b83e 203b bf3c
00000140: 802a 493f d054 1fbf 241d 343f 5a3e 9cbe
00000150: 66c8 123e 5b55 15c0 8dfb 8cbf a94f 0fc0
00000160: 7ba3 863e 2187 2bbf f15b 99bf 14d6 27bf
00000170: 3d20 96bf 450f 90bf c5b2 17bd 745a 81bf
00000180: b069 43bc 0606 74bf d836 6ebe d403 0cbf
00000190: 8aac 0cbe eaef d2bf ea93 393f 4665 5cbe
000001a0: 34e9 17be 9615 c2be 055d 963f 1d5c 893e
000001b0: 2fed 593e 7a77 e63d 7230 00be 6990 47bf
000001c0: 0af2 5a3d be0a 803e 0dbe 223f e697 56be
000001d0: a5a6 703f adda ac3e 43eb 543f 01ac 37bd
000001e0: c64e 3e3f 4b3d 65bd 900c 113e f381 20be
000001f0: de7e 21bf e09e bc3f 8a81 8bbf 7413 9ebe
00000200: c5c5 813e c1f3 c43e d9ff 8cbe 04a9 eabe
00000210: 0ff4 06bf b821 5dbe d8b4 e43e 12bc 813e
00000220: ef77 6fbe 0211 2ec0 6e8c 5c3e f583 9f3e
00000230: 0bfe 993e a971 75bf a56a acbe 5542 963e
00000240: 4e09 bf3e 8435 193f ea5f a83e 0ef4 aebe
00000250: a9fb dd3d e2c2 4b3e c3e2 023f d013 883e
00000260: aef9 2dbe 8ef9 073e db63 ecbd 35f9 1dbe
00000270: 0f04 23bf 3056 fb3f d55d c5be e7b5 223f
00000280: c440 aebe 4fd4 973d 4f25 1b3e 9837 60be
00000290: 5ae9 eebc 8a27 953f aff3 90bd 7eb3 55bf
000002a0: 8502 3cbe e6d4 0e3e 5b63 09bf 1670 afbf
000002b0: ff88 4ebf d2af c6bf ffd8 20bf 1a1f e5bc
000002c0: 98a0 503f d454 31bf f6b8 44be ba6f adbf
000002d0: 591f ed3e 1751 92bf 180d d0bf 0b74 46bf
000002e0: 79b9 59bd 8944 7fbf bbd3 11bf 599f 543f
000002f0: 32d9 b7bf 5528 c7bf 2b7c 1ebe b622 813e
00000300: 802f 1c3d f687 08bf 54ba 7f3f b4bd 4bbe
00000310: 422c 3a3e 99fa 19c0 fc32 01c0 01de 20c0
00000320: 348f aebd 6733 c2be 4eba e1bf 24f1 dabf
00000330: 0174 7fbf a794 fa3d 8027 573d f24f acbe
00000340: 50e6 f4be 3698 46bd 76ef 8b3e fdfe 1b3f
00000350: fe3f c63d 2807 ab3e 80cb 273f df45 b23e
00000360: 7211 e0bc 7946 0cbe 6324 8abe 76ea d93e
00000370: 4450 9b3e 142e d4bf 3156 bc3e 0079 d0be
00000380: 5ea4 a13f 50a7 bf3e 7b10 4b3e 372e edbd
00000390: 8f96 bcbe 891b 11bf 0ad6 79bf 81d6 183e
000003a0: c437 99bd 9154 343f 6ad0 313f a8c4 ca3c
000003b0: 77f5 d03f 01c0 5a3f b581 85bd 6e67 3ebe
000003c0: 1525 ea3d 5f3c 84be fd50 e93e 6dc2 09bf
000003d0: db2f 793e dd80 36bd 7fce 05be 65d1 963f
000003e0: 0e31 a73e 79a4 9bbf 64e3 cbbe d026 a3bf
000003f0: ae8f 16bf b2b7 8e3f 9f87 4f3e b767 963e
-0.6762669 0.22632204 -0.43755633 -0.5434512 -0.14603676 -0.45133984 -0.22955346 0.8610902
0.48461434 0.3847027 0.23218262 0.036096342 -0.009311835 1.814236 0.36937588 -0.05689978
0.03978451 -0.089379534 -0.35096574 -0.2314746 -0.40926298 -0.64477545 -0.1698688 0.32158622
-0.5625316 -0.07693243 0.14928068 -0.45519486 -0.6317037 -0.048112873 -0.07184333 0.31213683
-0.07294562 0.4710403 0.32129547 0.9750516 -0.23108298 -0.7077075 -0.6338795 -0.2966908
-0.724598 -0.23532176 -0.15463947 0.4690636 0.4752647 0.79986733 1.0206548 0.9585763
-0.1636303 -1.720469 0.11812423 0.6209279 -0.18157741 0.17667139 0.13341153 -0.21682626
0.025666758 -0.093624815 -1.6253886 0.5821138 0.9954947 1.4975706 -0.65525377 -0.27182648
-0.49727008 -0.13834257 0.31936702 0.53722304 0.32937533 0.6072433 0.56661385 0.11732115
-0.32420886 0.48349616 -0.037709408 0.069468126 0.27879834 -2.1951802 0.3604696 0.023343623
0.78580475 -0.6223879 0.70356965 -0.3051632 0.14334258 -2.3333347 -1.1014267 -2.239237
0.262966 -0.67003065 -1.1981183 -0.6556103 -1.1728588 -1.125466 -0.037035722 -1.0105729
-0.011927053 -0.9532169 -0.23263109 -0.5469334 -0.13737693 -1.6479466 0.72491324 -0.21523008
-0.14835054 -0.37907094 1.1747137 0.2682809 0.21281885 0.11253257 -0.1251848 -0.7795473
0.053453483 0.25008196 0.63571244 -0.20956382 0.9400428 0.33760586 0.8317148 -0.04484177
0.7433895 -0.055966657 0.14164948 -0.15674572 -0.6308421 1.4735985 -1.0898907 -0.30874217
0.253462 0.3846722 -0.27538946 -0.45832074 -0.52716154 -0.21594894 0.44669223 0.253388
-0.23385595 -2.719788 0.21537945 0.31155363 0.30076632 -0.95876557 -0.33675113 0.29347482
0.37311786 0.59847283 0.32885677 -0.34170574 0.10839016 0.1989856 0.5112726 0.26577616
-0.16989776 0.13278791 -0.115424834 -0.15427096 -0.6367807 1.9635677 -0.3854815 0.6355881
-0.34033787 0.074135415 0.15150951 -0.21896207 -0.029164005 1.1652691 -0.07077729 -0.8347701
-0.18360336 0.13948402 -0.5366723 -1.3706081 -0.8067779 -1.5522406 -0.6283111 -0.027968932
0.81495047 -0.6927006 -0.19211182 -1.3549721 0.4631298 -1.1430997 -1.6253996 -0.7752082
-0.053155396 -0.9971395 -0.569637 0.83055645 -1.4363158 -1.5559183 -0.15477054 0.25221795
0.038131237 -0.5333246 0.9989369 -0.19896585 0.18180946 -2.4059203 -2.0187368 -2.51355
-0.085234076 -0.37929842 -1.7634981 -1.710484 -0.9978638 0.122353844 0.052527905 -0.33654743
-0.47831964 -0.048485003 0.27331132 0.60935956 0.09680174 0.33403897 0.6554489 0.34818932
-0.027352069 -0.13698758 -0.26980886 0.42561692 0.30334675 -1.6576562 0.3678451 -0.40717316
1.2628286 0.37432337 0.19830506 -0.115810804 -0.36833617 -0.5668264 -0.9759222 0.14925577
-0.074813396 0.7044154 0.6945864 0.024751976 1.632491 0.85449225 -0.0651888 -0.18594143
0.11432854 -0.2582731 0.45569602 -0.53812295 0.24334662 -0.044556487 -0.13067053 1.1782652
0.32654613 -1.2159568 -0.39821923 -1.274622 -0.5881299 1.1149809 0.20266579 0.29376003

nee_decoder.2.bias f4 [16]
00000000: 2c40 043f 6f84 14be e65f 21be 80fd 7fbf
00000010: 5d41 b9bd 1d41 83be 402d 7ebf 8321 cc3d
00000020: e99d 87be 3611 cf3d ae9e 453c d128 56be
00000030: 1edb c7be 5644 bf3d 14b3 15bf def0 663d
0.5166042 -0.14503644 -0.15759239 -0.99996185 -0.0904567 -0.25635615 -0.99287796 0.09967329
-0.26487663 0.101107046 0.012061758 -0.20914008 -0.3903436 0.09339206 -0.58476377 0.056382053

nee_decoder.4.weight f4 [1, 16]
00000000: dc15 193f 1ded c0be e709 ebbe 4e58 ca3f
00000010: 89e0 9fbe fb7e 0d40 f6ea 8dbf 10a2 053f
00000020: 9e36 a2be a452 223f ff39 eebe 2c54 e13f
00000030: e336 5440 84ff 02bf 83d5 ebbe 0618 473f
0.5979898 -0.37680903 -0.45905992 1.5808198 -0.31225994 2.2108753 -1.1087329 0.5220041
-0.31682295 0.6340735 -0.46528623 1.7603812 3.31585 -0.51171136 -0.46061334 0.7777103

temp_derivative_decoder.0.weight f4 [16, 32]
00000000: 3bef 3abe 6e48 d6bd cabf 3a3e 7de4 3a3f
00000010: f2e8 eabc d06e a13c f4a2 983d 34d1 aebc
00000020: 0eaa 44be b3c7 e23e ff64 36bd 709c 1fbc
00000030: 1cd0 c63d f8f4 54bd c65d 12bd 2e3c 2fbd
00000040: 561b 883e 4306 b33d 81d7 24bf 2d18 dd3e
00000050: b22b ddbd cf06 593d fec2 c9bb 91d2 90be
00000060: 70c5 97bd 4e6f de3e a86d dcbb ca3b c2be
00000070: 9449 d53e 9653 023e 6d28 8c3e f52b 183e
00000080: 9dff 483e 248f 033e db5e d93d 9ac1 12bc
00000090: e96a cfbd 3b14 413d 3430 1f3d e44b 5e3e
000000a0: 08ad dd3e d575 8c3e 35fd e7bd 5938 053d
000000b0: 8461 5a3e 740f 663e 04ca 46bf 10b5 febd
000000c0: 90c4 193d 83e6 d33e ac02 2fbe 0bb6 e9bd
000000d0: 8350 093c 7396 69bf 2e89 00bf 4b9a 953c
000000e0: cfa1 17bf a86c c03e e7eb dbbe 3a39 473d
000000f0: 5aa0 a53e 4de6 f03e a3a4 eb3d dd39 0bbe
00000100: 5fae 903e 9002 17bf b279 9d3e ae86 533e
00000110: 5504 a6be 50cb f73d 146e e53d 61cc 8bbe
00000120: c4b3 dbbd 69eb 703e cc51 ddbe ae2c 8fbe
00000130: 7284 523c 37fd 523e c7c0 35bd ad22 51be
00000140: d248 96ba 0c92 c83e ac8b a5be 0633 813e
00000150: 4a2e 3abe 5fe7 8cbe b1f4 22bd 647d e1be
00000160: c766 ed3d e7cf 833e 5a5a 823e 6b15 9f3e
00000170: 081a c1be 582e 693e 3784 f9be 3a85 8f3e
00000180: 47a2 463e e6ac 28be a18f 653e 2a9b aebb
00000190: 2c0c 79bf 3082 3a3e 7a1e f2be 80df e3ba
000001a0: b37a 433e 1696 afbe fd1d 78bd f60a f2bd
000001b0: f071 91be 690d 8bbe f3bb 8cbe 0b67 c5be
000001c0: 8f25 6f3e 5629 38be a6a6 99bd e902 3a3e
000001d0: 86cc 703e e17b 1dbf cc14 99be 1839 01bf
000001e0: 7597 e43e 51e9 633e 2f24 32bf b501 b83e
000001f0: 996c 1d3f 5297 6f3c 6678 983d 3812 db3c
00000200: a136 953e 73a2 9bbe 8979 1c3e c447 cc3d
00000210: a9a3 2b3f da3e e93d e265 873e 5d78 9a3e
00000220: 11c5 203f fe5b 3fbe c8c4 bc3d 70f3 cabe
00000230: bdd9 3bbe 9801 fc3d cf63 193c 056f 03be
00000240: 1aa1 ddbe 24fc c5bd 9c2b 6abe d168 923e
00000250: 308e c0bc cb90 ba3e 70af f0be d2c4 033f
00000260: 7199 ce3e 6c8a 723d 1009 9cbf fbf6 94bd
00000270: ce5e e53d 440e a5be e306 a73e 94ad 8cbc
00000280: 8782 fb3d 3388 263e 29fb 9b3e 21b5 e1be
00000290: ca98 38be bc2b f2bd 0ed1 72bd 46f2 bbbe
000002a0: 997d 99be a3c2 313f 9885 213e 6438 2f3f
000002b0: df26 6cbe 88c3 053e 1cca 683c 096d a6be
000002c0: 29a3 3e3d 8426 2b3e 7f14 20bf e4fa 36bf
000002d0: e55c 8d3e f7d1 9c3e 6e33 62bf e537 81bc
000002e0: 3937 b7be 24eb 3e3f 6a42 31be 09f0 893d
000002f0: e183 143f 7233 35be 5820 b13e d12c 31bf
00000300: 6e53 7a3e 7d26 a63d d0aa e53a 4d1c a13e
00000310: ee99 e53e 44dc 09be 9f1a 45bd bdfd 27be
00000320: a9c6 823e dedf 003f 05d9 ca3e ce7c e1be
00000330: 284b a23e e99d c8bd dd4d 7bbe 2e24 c2bd
00000340: 9e5b 403f b3ac 5bbe 9e83 38be fe38 a33e
00000350: f536 a8be 4578 54be 85fc fbbe 99fb a73d
00000360: c549 293e bb94 87bd 490e 9a3d d02d 4b3d
00000370: d771 8a3d 9854 97be 707d f9bd 38ef 2f3e
00000380: 0844 723f 2fcb b0bd f0d1 d83e 9169 5a3e
00000390: fcd6 c33e 671d e63e 4363 e4bd 7955 ba3d
000003a0: d25a cfbe b80c 413f 57db 80be 4c9a 083e
000003b0: f145 3f3e 0170 383f 73c8 01bf 8259 703e
000003c0: 22c5 39be 9ad4 db3d 7c0b 2a3d c277 f2be
000003d0: bff2 afbd 3704 05bd e6e6 93be 51aa c03d
000003e0: 0b33 943e 83d8 973f cef2 80be 7e4c 5cbe
000003f0: 29a8 053e 3217 e53d 8f5c de3d 66b2 103f
-0.18255322 -0.104630336 0.18237224 0.73004895 -0.02867553 0.01970616 0.07452956 -0.02133999
-0.19205496 0.44292983 -0.04452991 -0.009741887 0.097076625 -0.051991433 -0.03573396 -0.042782
0.26583356 0.08741429 -0.6439133 0.43182507 -0.1079935 0.05298501 -0.006157278 -0.2828565
-0.07410705 0.43444294 -0.006726939 -0.3793624 0.41657698 0.12727198 0.27374592 0.14860518
0.19628759 0.12847573 0.10613795 -0.008957291 -0.10127813 0.047138434 0.03886433 0.21708637
0.43296075 0.2743365 -0.11327592 0.03252444 0.21326262 0.22466832 -0.77652 -0.12436879
0.037540972 0.41386804 -0.17090863 -0.11411675 0.008381012 -0.9124519 -0.5020932 0.01826205
-0.59231275 0.37582898 -0.42953417 0.04863856 0.323489 0.47050706 0.11506011 -0.13596292
0.28258035 -0.58988285 0.3075691 0.20656845 -0.3242518 0.12099326 0.11202636 -0.27304366
-0.10727647 0.23527302 -0.4322647 -0.27963775 0.01284896 0.20604406 -0.0443733 -0.20423384
-0.0011465794 0.39173925 -0.32333124 0.2523424 -0.1818172 -0.27520272 -0.039784137 -0.44040978
0.11591869 0.25744554 0.25459558 0.31071028 -0.37715173 0.22771585 -0.48733684 0.2803133
0.19397841 -0.16472206 0.22418071 -0.0053285556 -0.972842 0.18213725 -0.47288877 -0.0017385334
0.19089775 -0.34294194 -0.060575474 -0.11818497 -0.2840724 -0.2715867 -0.27487144 -0.38555178
0.23354171 -0.17984518 -0.07502489 0.18165173 0.2351552 -0.6151715 -0.2989868 -0.50477743
0.44646803 0.22256972 -0.6958646 0.35938802 0.6149383 0.01462348 0.07444839 0.026742086
0.2914324 -0.30397376 0.15280737 0.09974626 0.670466 0.11388941 0.26444918 0.30169955
0.628007 -0.18687436 0.092172205 -0.39638853 -0.1834478 0.123049915 0.009362175 -0.1283532
-0.43286973 -0.09667233 -0.22868198 0.28595594 -0.0235053 0.36438593 -0.47008848 0.514722
0.40351442 0.05921404 -1.2190266 -0.0727367 0.11199723 -0.32237446 0.32622442 -0.017172612
0.122807555 0.16262893 0.30465057 -0.44083503 -0.18027034 -0.11824748 -0.0592814 -0.36708277
-0.29978636 0.6943762 0.15773618 0.6844542 -0.23061703 0.1306287 0.014208343 -0.32505062
0.04654232 0.16713911 -0.62531275 -0.7147658 0.27609935 0.3062894 -0.88359725 -0.015773723
-0.3578432 0.74577546 -0.17310491 0.06735236 0.5801373 -0.17695406 0.3459499 -0.6920901
0.24445888 0.0811281 0.001752222 0.31466904 0.44844002 -0.13462931 -0.04812109 -0.16405387
0.2554219 0.50341594 0.39618698 -0.4404053 0.31697965 -0.09795744 -0.24541421 -0.09479557
0.75139797 -0.21452598 -0.18018958 0.3187942 -0.3285443 -0.20749004 -0.49216095 0.08202285
0.16532047 -0.06620165 0.07522256 0.049604237 0.067599945 -0.29556727 -0.121821284 0.17181098
0.9463506 -0.08632504 0.4234767 0.21329333 0.38249958 0.44944307 -0.11151745 0.09098334
-0.40498978 0.7541003 -0.25167343 0.1334011 0.18679024 0.72045904 -0.50696486 0.23471645
-0.18141606 0.1073391 0.04151486 -0.47356993 -0.08591222 -0.032474723 -0.288871 0.09407485
0.28945193 1.1862949 -0.25185245 -0.21513554 0.1305243 0.11186065 0.10857498 0.56522214

temp_derivative_decoder.0.bias f4 [16]
00000000: d452 d3bd 46fb 8bbe a5cf 543d f9b5 52be
00000010: 8728 85bd 8c7c 97be d92e 37bd c3ec 61bc
00000020: 6e5a 88bd 50a3 14be 241a 53be b277 f0bd
00000030: cff6 7abd c7cf 61ba 8289 1dbd 7ec6 a0be
-0.103185326 -0.27340144 0.051955838 -0.2057723 -0.065018706 -0.2958721 -0.04472241 -0.013789359
-0.06657873 -0.14515424 -0.2061544 -0.1174158 -0.06127053 -0.000861403 -0.038461216 -0.31401438

temp_derivative_decoder.2.weight f4 [16, 16]
00000000: e54f 13be b8ba e63e 33d8 d5bd b1e2 7fbf
00000010: 1b89 b23e 747e 72be cc72 edbd 0235 e03e
00000020: 580c 39bf 2027 96be 34bd bc3e 5d4d b23d
00000030: 5c86 30bf cc9f cabe 1f83 12bd 1fbd 4abe
00000040: a72f a6be a986 463e ddae c83d 50e3 4f3e
00000050: 2430 2f3e 65cc 61bf cff1 be3e 656f 5b3e
00000060: ea09 e93e 7fa8 01bd e7a6 aebd 1db6 2c3e
00000070: b94f 87bf 8216 01be cafb 46bf 30d4 e5be
00000080: 26d0 32be 5403 923e abf7 203e b0b3 b0bd
00000090: ff33 513e 1994 38bf 25fb 6abe 57f6 8e3e
000000a0: 1e86 cabe 1514 213e f1ad debe e2d9 253f
000000b0: 850b 2fbe a49b 72be ec80 af3d 44f6 293d
000000c0: 8540 b5be 2986 28be 06fd 273d 1dd6 24bd
000000d0: ecf3 353e fb94 13bf 9937 02bf 8151 ebbe
000000e0: 8c6d eebd 8987 5c3e 92f1 023e ee8a 113e
000000f0: ee80 11bd e952 01bf 5574 653d 7a2f 05bf
00000100: 9f9f 1d3f 0747 42bc d85f 21be 25cd 39be
00000110: 461c 293e aeb5 cf3e 4784 8abe ae5e 17be
00000120: 7b1b aa3e af8d d1be 3505 edbe 5d2f ca3e
00000130: 968a 55bf 931e cd3d 6aaa a3be 1abf b23d
00000140: f72d 523e 9965 953e 3ddb 20be adbd a3be
00000150: 0a52 51bf 47f4 36bf ca94 af3e ea04 5e3e
00000160: f852 4cbf 4950 0a3f 149f 4bbe d1e0 94bb
00000170: aa6f f2be c81b 113f 48b0 e63e f021 0ebe
00000180: 72c2 7c3e e070 d73e c98c d4bd c637 503e
00000190: 1e09 40bf 9f9b 94bc 76a8 16bf eb38 913e
000001a0: 137f f2be b99c 5dbe 57d4 5dbf 1455 9cbd
000001b0: ab8a 80be f095 b4be 5b26 9a3e ea7a 0fbf
000001c0: 9327 94be f479 97be 7c9b 54be 1a5b 3b3e
000001d0: fc0c 62be cadc aa3e 7ac8 a1bc 0334 5c3e
000001e0: 12a5 05bf 713d 433f 9a6a 4fbe 8fdd d13c
000001f0: b7cb 2bbe 1369 1dbd d7a2 91bd bace 353e
00000200: d1bb af3e 2630 873e 3de3 02bf b9c3 ba3e
00000210: 3601 8abc 30e1 9cbd b4c0 d83e b676 3fbe
00000220: 47e3 393f b151 cf3e 653f dc3e b9fb c2be
00000230: 6f42 3b3d f385 78be c599 1dbf 5778 b03e
00000240: 95f1 ffbe 3115 fabe 99f6 30bf 916d a0b9
00000250: e433 3fbf d73a c1bc 81b3 d8be 0768 d3bd
00000260: 66db 1dbe 6bf1 fbbe 4a73 5f3e 271c 713e
00000270: 340d 79bc af08 09bf c37c 0cbf c1ca a1be
00000280: 3e93 ca3e 02f4 89bf e1d5 13bf 4772 4abf
00000290: 3b69 e4bd 4313 143f a850 08be 49dc 4abf
000002a0: cfbc 893d ddcc 11bf 8110 fdbc 3588 86be
000002b0: f3ab 5abe a842 6f3e 25de 4b3e 2c61 c0bc
000002c0: 4bb2 8b3d eb84 9e3d 384e 71be 243b e2bc
000002d0: 2e1f b9be a9ee a73d 28b2 a7be f253 e83d
000002e0: 45e5 b3bc 0752 f23e 56e0 6f3e fe5e 9e3d
000002f0: dc21 163e 5464 11bf 28d6 fa3e aaff c2be
00000300: 0e3d ecbe f9c1 df3e 5774 16bf a61a 79bf
00000310: 0435 0fbf 6342 e83e 1b86 b23e 9163 4cbd
00000320: 1c01 80be d6a5 d43d 42a2 003e a240 8f3e
00000330: cce0 76be 537f f93e eeab 803e 9a53 a2bf
00000340: 6921 9dbd 4c62 c53e 43ab dcbd a0ff 91bf
00000350: 1155 473e b3ba 28bf 8c85 d83c 1866 d1bc
00000360: e745 613e abaf 65be 873d a2be fc16 07be
00000370: a9b5 4cbe d57a 0d3f 9bc5 043f 6dd6 98be
00000380: f9fe ff3e 9742 52be 4c9a 17be c4b7 35bf
00000390: 3645 833c 7950 bebd f972 2dbe 81f2 733d
000003a0: f67b 0ebc bd5a 483d 0173 f93d 64c5 d33e
000003b0: 866c 90be b69b aebd cb57 113e 5e07 47bf
000003c0: 558f a13b 54bb 73be b063 10bf e74d b3bc
000003d0: b8af ecbc 7081 a23e 8a04 1c3e ed1e e53e
000003e0: df72 903e 6760 223d 5364 8ebe de12 163d
000003f0: b727 093e 98aa 1b3e e35b fdbd 0c19 843e
-0.14385946 0.4506433 -0.10441627 -0.9995528 0.34870228 -0.2368105 -0.115941614 0.43790442
-0.7228446 -0.29326725 0.368631 0.08706162 -0.68955016 -0.3957504 -0.035769578 -0.19798706
-0.3245823 0.19387306 0.097989775 0.20301557 0.17108208 -0.88202506 0.3729386 0.21429212
0.45515376 -0.03165483 -0.08527928 0.16866346 -1.0571204 -0.12606242 -0.7772795 -0.4488845
-0.17462215 0.28518164 0.15719478 -0.08628023 0.20429991 -0.7210098 -0.22947367 0.27922317
-0.39555448 0.15730317 -0.43492082 0.6478559 -0.17094238 -0.23692185 0.08569512 0.041494623
-0.35400787 -0.16457428 0.041012786 -0.040243257 0.1776883 -0.576492 -0.50866085 -0.4596062
-0.11641988 0.21536078 0.12787464 0.14213154 -0.035523348 -0.50517136 0.056019146 -0.5202557
0.6157169 -0.011857755 -0.15759218 -0.18144663 0.16514692 0.40568298 -0.27054045 -0.14782211
0.3322409 -0.40928409 -0.46293035 0.3948926 -0.8341459 0.10015597 -0.31965953 0.08727856
0.20525347 0.29179075 -0.15708633 -0.3198065 -0.81765807 -0.7146649 0.34293205 0.21681562
-0.798141 0.54028755 -0.19884902 -0.0045434018 -0.47350818 0.56683016 0.45056367 -0.13880134
0.2468355 0.42078304 -0.10378415 0.20333776 -0.7501391 -0.018140612 -0.588508 0.28363737
-0.47362575 -0.21641816 -0.8665213 -0.07633415 -0.25105795 -0.35270643 0.30107388 -0.56046927
-0.28936443 -0.2958523 -0.20762438 0.18296471 -0.22075266 0.33371574 -0.019748915 0.21504216
-0.52205 0.7626563 -0.20255509 0.025618343 -0.1677693 -0.038430285 -0.07111137 0.17754641
0.3432298 0.26403922 -0.5112799 0.3647745 -0.01684628 -0.076601386 0.4233452 -0.18697628
0.7261242 0.40492013 0.43017116 -0.38082674 0.045717653 -0.24269848 -0.6156276 0.34466812
-0.49989 -0.48844293 -0.6912628 -0.00030599211 -0.74688554 -0.023587627 -0.4232445 -0.10322576
-0.15415725 -0.49207625 0.21821323 0.23545896 -0.015200902 -0.53528875 -0.5487787 -0.316
0.39565462 -1.077759 -0.5774823 -0.79080623 -0.111528836 0.5784189 -0.13312018 -0.7924238
0.067254655 -0.5695322 -0.030891659 -0.26275793 -0.21354656 0.23365271 0.1990896 -0.023483835
0.06821116 0.07740196 -0.23564994 -0.027616091 -0.361566 0.08199818 -0.3275311 0.11344136
-0.02195991 0.47328207 0.23425421 0.07732962 0.14661354 -0.56793714 0.48991513 -0.3808568
-0.4614033 0.43702677 -0.5877127 -0.9730629 -0.5594027 0.4536315 0.3486794 -0.04989964
-0.25000846 0.10383193 0.12561896 0.27978998 -0.2410919 0.48729953 0.25131172 -1.2681763
-0.07672388 0.38551557 -0.10774853 -1.1406136 0.19466044 -0.6590988 0.026430868 -0.025561377
0.21999322 -0.22430293 -0.31687567 -0.13192362 -0.19991173 0.5526555 0.5186402 -0.29851094
0.49999216 -0.20533215 -0.14804953 -0.7098353 0.016024213 -0.09292693 -0.1693839 0.05955744
-0.008696547 0.04891466 0.121801384 0.41361535 -0.28207797 -0.08525793 0.14193647 -0.77745616
0.0049304166 -0.23801929 -0.5640211 -0.021887733 -0.028892383 0.31739378 0.15236107 0.44750157
0.2821264 0.039642718 -0.27810916 0.036639087 0.13394056 0.15201795 -0.123710416 0.2580036

temp_derivative_decoder.2.bias f4 [16]
00000000: 9678 63be df8b 02bd 573e f1be 180a c7bd
00000010: c367 62be 99c9 94be 9065 6bbe edfa cbbd
00000020: b86a d6bd f5a5 34be dd3c aabe 0a20 d2be
00000030: 716d 88be 9cfb 01be 7f37 4cbc 5667 dabc
-0.22213969 -0.031871673 -0.47117874 -0.09718722 -0.22109894 -0.29060057 -0.22987962 -0.0995997
-0.10469574 -0.17641433 -0.3324956 -0.4104007 -0.26645997 -0.12693638 -0.012464403 -0.026660603

temp_derivative_decoder.4.weight f4 [1, 16]
00000000: 216f 25bf b125 453e df22 7bbf eb52 4abf
00000010: 3daa 393f c4ab 1f3f cfe8 653f b92a 90bd
00000020: dd0f a2bc 569f 3b3d ff65 153f daea d6be
00000030: 815e 4ebf d808 5b3d 4b92 813e ae54 033d
-0.64622694 0.1925266 -0.98100084 -0.7903277 0.7252539 0.6237147 0.8980836 -0.07039399
-0.019782955 0.04580625 0.5835876 -0.41976053 -0.8061295 0.05347523 0.25306925 0.03206318
