pivae_sde/2024-9-1_21-27-25-615332/best_model.pth (torch, 16034 bytes, 15 tensors)

encoder.0.weight f4 [16, 20]
00000000: 364b d33e 6e30 8bbd 0b4e 873d addf 8e3d
00000010: 0745 babe 62af 6a3d 3698 76be 876a 443d
00000020: 2f5a e93e 5ec8 45be ec68 5bbe 4a4d 94bc
00000030: 7a98 0a3e 0474 c0be b253 a23d 3908 873e
00000040: 500c febe 799a 273e b985 fa3e 49b0 9cbd
00000050: 6212 cc3c 8311 34bf 57a9 9dbc 9ffc b33e
00000060: 5bf2 e2be 742a d6bd 352e 48be 3b9c 4c3c
00000070: 282d a23c 0c2d 4e3d dc1f 1f3e d4d3 25bf
00000080: 0302 fbbe 19fb 203e 4269 86be 4c8c 063e
00000090: b735 cd3e e434 8a3e 6361 493e 8d48 3c3e
000000a0: be94 903e 092c d43d 04b2 6f3d ac9f 213e
000000b0: e456 72be b9ab 73be f137 e43e 5c3f 1fbf
000000c0: 49eb 89be d6f4 97be 5ec9 d23e f2f3 753e
000000d0: 613f fabe f1ac c23d 1f55 30be acc9 ec3e
000000e0: be43 013d 37c6 ae3e 36e5 c9be 9240 6f3e
000000f0: 9fff 9a3e 4f9b 31bf 9ba9 a3be a816 3cbf
00000100: e878 22bf 4584 523e e75c f73d 39c0 95bd
00000110: 4951 753e b266 9e3e 0073 92bd a509 20bd
00000120: 058f 05bd 46ce 6fbd dc8c 083c 2c41 8abe
00000130: 3b51 ab3c 4d37 803d 2d08 e03e aff1 1abd
00000140: 6583 103e 9090 e0bd 643f d6be 6fd5 543e
00000150: e9f3 a4be 5cb4 28be c3b6 39be 3d92 253e
00000160: f9d7 3c3d 296b b23e fe00 16bf d211 b13e
00000170: eca1 3ebe bbc3 023d 841d 3dbc 2e33 02bf
00000180: d5d5 e3be a359 eb3e 02ae 06bf 757f bebe
00000190: aec0 f63d c997 16be 14d9 86be f18b e83e
000001a0: f06e 6abe 07ac 5a3e f1b7 74be 24e8 91be
000001b0: 7d2d 243f 7a22 2a3d b0ad 973d 824b 3b3e
000001c0: 9ebc fc3e 55a1 b33c 0c00 ec3e 77a6 b53d
000001d0: bcc8 bfbc e4cf 0b3f 7788 da3e 3b5a 013e
000001e0: 342d c93e 1314 2e3e 6d40 963b 926f d63e
000001f0: 2f6e 0cbd 696d df3e 4da8 473e f490 573e
00000200: 7620 ae3e e1b7 2cbe 371e 853c 53bd e9bd
00000210: d73e 293e 76fc 04bf 53e4 71be f97e 49be
00000220: 0625 32bd ba04 5ebf 5dfd 27be b503 37bc
00000230: 3990 f8bd 7461 d63e 3b73 e53d d58f 393f
00000240: c8fe 66be 8b7a 843e 26cb 2e3e 6b8d 8b3e
00000250: a8ab 413e 21d0 c7be 00eb 323e 26cf ad3e
00000260: b639 be3e bf0c 1bbe b25f 273f 0772 23be
00000270: 1d2f e43e 9fe6 183e f6b5 e1be 34cb e2bd
00000280: 9531 913e 012e 9b3e 37e3 2e3e 2d90 88bd
00000290: 28db 36be a7e9 413e 517c c63d a98c babe
000002a0: 7238 483d eb38 a7bd d039 0a3f c55d d3be
000002b0: fef8 e0bd 9333 233c 1405 cf3d 1342 8d3d
000002c0: 0f44 073e be32 d3be 9c9d 8a3e 9648 ba3d
000002d0: cdce 5d3d 8959 92bf 1ba1 20bd 4259 4dbd
000002e0: 435d 0a3e 1cdc 50be 4f82 bd3e 4cc6 adbe
000002f0: 85cf 313c af1d debc 8555 073e fa2d 54be
00000300: f4bf 053e a6ba 94be b3dc 3cbf b5c4 cd3e
00000310: 2232 e63e cb23 42be 0aa7 af3d 9095 cd3e
00000320: 925a e7bc 8010 4ebe a314 083f f1a2 263f
00000330: 4376 2b3e 6464 853e 41cf e73e e12e f23e
00000340: 439b 8bbe f502 093d ea91 223c 0c01 723d
00000350: 54da 7e3e 18d1 74be f64d 3b3f 9df7 283f
00000360: 75b9 c2ba 31d8 fabd a717 903e a271 463d
00000370: 4a22 a9bd 6003 e93e 8503 2c3f 188d 493e
00000380: 2f8d b7be e120 aabc 32a7 08be db0c 093e
00000390: 4cb0 84be 0555 9ebe df6b 65bd 846f a6be
000003a0: 46ab 8b3e f5e4 99bc 5581 3dbe 684c 96be
000003b0: 5618 2bbe 825a 733e 34ca 8f3e 2c14 ecbd
000003c0: 1ad9 5fbe 33b1 9cbe a320 68be a53f 703e
000003d0: d1ba ec3c 2376 183f a033 3bbe ec1d 1fbf
000003e0: 006a ea3e 478e 253f a7dc ecbd 7ec7 5b3f
000003f0: eee4 e73e cd14 e6be 3964 1dbf 6440 c63e
0.4126832 -0.067963466 0.066066824 0.069762565 -0.3638079 0.057296164 -0.24081501 0.047953155
0.45576617 -0.19314715 -0.21426743 -0.01810326 0.13534728 -0.37588513 0.0792612 0.2637346
-0.4961877 0.1636752 0.48930147 -0.07650811 0.02491111 -0.7033922 -0.019245787 0.35153672
-0.44325528 -0.10457316 -0.19548877 0.01248842 0.019796923 0.05033593 0.15539497 -0.6477635
-0.49024972 0.15720786 -0.2625218 0.13139457 0.40080044 0.26993477 0.19666056 0.18387051
0.2823848 0.103599615 0.05851938 0.15783566 -0.23665959 -0.23795976 0.4457393 -0.62206054
-0.2693732 -0.29678982 0.41169256 0.24018839 -0.4887648 0.09505642 -0.17219971 0.46247613
0.031558745 0.341356 -0.39432687 0.23364475 0.30273148 -0.6937761 -0.31965336 -0.7347207
-0.6346574 0.2055827 0.120782666 -0.07312054 0.23956789 0.30937725 -0.07150841 -0.039071698
-0.032607097 -0.058546327 0.008334365 -0.27002847 0.020912757 0.06260548 0.43756238 -0.037828144
0.14112623 -0.10965073 -0.41845238 0.20784543 -0.3221734 -0.16475052 -0.18136124 0.16169067
0.046104405 0.34847382 -0.58595264 0.34583908 -0.18616456 0.031924944 -0.011542682 -0.50859344
-0.44499078 0.45966825 -0.52609265 -0.37206617 0.120484695 -0.14706339 -0.26337492 0.45419267
-0.22893882 0.21354686 -0.23898293 -0.28497422 0.6413191 0.041536786 0.07406175 0.18290523
0.49362653 0.021927515 0.46093786 0.08869641 -0.023411147 0.5461409 0.4268224 0.12632076
0.392923 0.16999845 0.004585317 0.41881996 -0.034284767 0.4363816 0.19497795 0.21051389
0.3400914 -0.16867019 0.01624976 -0.11413064 0.16527878 -0.51947725 -0.23622255 -0.19677342
-0.04349234 -0.8672596 -0.16405244 -0.011170317 -0.12136883 0.41871226 0.11203619 0.72485095
-0.22558129 0.25874743 0.17069682 0.2725633 0.18913138 -0.39025977 0.17472458 0.33947104
0.37153405 -0.15141581 0.65380394 -0.15961467 0.44567195 0.14931725 -0.44084138 -0.11073914
0.2835814 0.30308536 0.17078863 -0.06668124 -0.17857039 0.18936788 0.0969168 -0.3643544
0.048881955 -0.08165153 0.53994465 -0.41282478 -0.109849915 0.009961027 0.101083905 0.06897368
0.13209556 -0.4124965 0.2707337 0.09095876 0.0541523 -1.1433574 -0.039216142 -0.05013395
0.13512139 -0.20396465 0.3701348 -0.3394035 0.010852699 -0.027113764 0.13216217 -0.20720664
0.13061506 -0.2904865 -0.7377426 0.40189138 0.44960123 -0.18958966 0.08576782 0.4015317
-0.02824143 -0.20123482 0.5315649 0.6509238 0.16744332 0.26053154 0.4527531 0.4730139
-0.27266893 0.033450086 0.009922484 0.05908303 0.24887973 -0.23907888 0.73165834 0.6600283
-0.0014856296 -0.122482665 0.28143045 0.048448212 -0.08258493 0.45510387 0.6719287 0.19682729
-0.35849902 -0.020767631 -0.1334503 0.1338381 -0.25915754 -0.3092424 -0.056011077 -0.32506955
0.2727911 -0.018785933 -0.18506368 -0.29355168 -0.16708502 0.23764995 0.28083956 -0.11527285
-0.21860161 -0.30603942 -0.226687 0.23461778 0.028897675 0.5955526 -0.18281412 -0.6215503
0.45783997 0.64670223 -0.115655236 0.85851276 0.45291847 -0.44937745 -0.6148105 0.38721

encoder.0.bias f4 [16]
00000000: 6bbb 2cbd 3050 283d acff 35bd dd5d 903d
00000010: 98ba 74bd b35f 443d f84c 21bd 2100 133c
00000020: dc04 ec3c 5275 9fbd 7c49 bdbc f786 683d
00000030: 8b04 a9bc 71a2 2ebd 3887 5abd 3fb7 f4bc
-0.042170923 0.041092098 -0.04443328 0.07049153 -0.059748262 0.04794283 -0.039380044 0.008972199
0.02881091 -0.07786049 -0.02310633 0.056769338 -0.02063205 -0.042635385 -0.05335161 -0.029872535

encoder.2.weight f4 [32, 16]
00000000: 7d15 0b3e 2387 903e 72cd 703e 88cd e1be
00000010: db5f 8a3d de21 77be 40ee 8fbe 28a5 873d
00000020: acb5 32be ab65 213d cd7d 4bbc cad2 a53e
00000030: bafd 67bd 6711 023f ae89 efbe 3817 143f
00000040: 9748 043f b0a4 e9bc 1b0b 913f 29a8 a2ba
00000050: 93c9 de3d ae8c 263e 0b42 63bc 4caa be3d
00000060: 6bdc eebc 60c6 a5be 0f39 143e d0b2 2e3e
00000070: d66a b63d fd80 f43d 506e d8be e3db 86bd
00000080: e0ad b93e 0030 9b3e 4a1e 003f cdc9 22be
00000090: e45c 0a3e 1624 753c 3439 0ebf 0a0d 95bf
000000a0: 5c39 953d 4be3 8fbe a696 babe a652 e1be
000000b0: 2862 d8bd 2c38 b1be 58eb e93e a6b4 d4bd
000000c0: 4148 423d 4651 683f 59c4 963e 26a9 de3e
000000d0: 9436 b03e 9b1f 083f d07b 0dbf 2b4e e8be
000000e0: 555c 10be e53f 5e3d 9d61 94be 8b4b a73e
000000f0: 9c2a 89be 3054 9f3d 59d4 e8bd 4d48 65be
00000100: fd44 79bd 7fd2 9e3e 4ebe c6bd 3e58 913e
00000110: bfcf 26bf ece8 a73d ad62 533e f598 0abf
00000120: 3c7f f13d 70e5 f6be 2f1c c23c 0eb5 683e
00000130: 4382 9d3e 5804 94be 5bd0 d8be 8f28 8c3d
00000140: 205f 5c3c 3560 42bd 14bc 5ebe a296 1fbe
00000150: b658 19bf 1147 b5be 271f 2bbe c84d 27bd
00000160: e204 763e bdb5 3fbe 333b 1abf f410 273d
00000170: 7341 5e3c dd07 02bf 01d3 ffbe b101 323e
00000180: 8c00 1f3d 32dc 473f 19c2 54bf dc3e e73d
00000190: 9e4c 843e 1df0 363e b534 a3be df67 7b3d
000001a0: 0cc3 663e fb99 933c 5a25 6ebe 34bd 983d
000001b0: 9b14 683d 298c e9bd 5511 663e 6fd2 2f3e
000001c0: d075 3d3f ad0d e8bc d720 26be 7afc 1bbf
000001d0: 89de 5c3e 4fb7 1f3f 06d7 413e 756f 82be
000001e0: eda2 9abe 1c67 2dbd 01a4 b5be 5df3 27bf
000001f0: a454 2fbd 4c01 adbd eeaa 933e d921 55be
00000200: ac3b b6bd ceca cf3e 37e0 5c3f a2fe c03e
00000210: bd10 cd3d 0eeb 763d 979e 623c 2af5 dcbd
00000220: 4e6f dabe 0afe 403e 2694 68be ccaf af3c
00000230: 6599 91be a7d2 fbbe 337d 923e 3643 d53e
00000240: e5ff 06be 91dd 9a3d a768 83bd 2089 bc3d
00000250: ecc6 42be 4fc4 cd3e 6b85 11bf 0b20 2ebf
00000260: a7e3 0a3e f24d ecbe d742 7abe 6374 e5bd
00000270: c488 613e 3fd9 e4be 18f0 cf3d ac5e 133f
00000280: 5c8e e1bc ffd2 94be 7092 f5be 0c8d 593b
00000290: 4a7d 10bf 2a8a cb3d adeb aa3d d9ae 47be
000002a0: 5705 47be bdf1 073e 26e1 f63c 1e11 243e
000002b0: b2d9 08bd a828 3d3b fdfb 8bbf 69ba 093e
000002c0: ffa5 8b3e a38d 313e 6ee6 b8bd a0c9 ab3d
000002d0: 0b9d 663e cf39 813e e61b da3e 4de5 a43e
000002e0: c3b5 58bd c790 35bd aa0c 923e 1d11 433e
000002f0: 0b52 c33e 7ab6 87bd 1d45 5fbf 3766 f83e
00000300: 8d9d 8f3d 10d7 90be 2bc9 2ebd fe9d d9be
00000310: 355a 13bf 7151 913e 7397 a4bd c511 2d3e
00000320: 8cb8 11bf aa17 eabc eb47 41bf 3031 403e
00000330: 4a43 89be 5576 39bf bfa4 3ebf d3b5 fd3e
00000340: 3423 b93e 97de a8be ea5c c9bd b16d 5d3e
00000350: d9a5 cb3d 7305 02bf de70 74bc 4a90 e33d
00000360: 90ec b8bd e3ab a63e 20cc 64bd ee0b 353e
00000370: 3695 353e 94f4 8bbe f18e 7abe 03e7 e03d
00000380: 354d ad3e 8731 e33d 729d 7b3e 8cc9 bdbe
00000390: 70ef 1f3e 5164 643d 306d 243c c35e d8be
000003a0: 11d8 123f 7dde 273e b25f 33bc 73db 993e
000003b0: 4a45 413d 769f ac3e bbff 1ebe 60fc b63e
000003c0: 5b5f d3be cd1d 68be aba1 3e3f ea6d 70be
000003d0: c994 97bd 78b1 c93d debd fdbd 1c52 98be
000003e0: a02f ce3e 3bc4 06be cf37 d6bb 92ca 1d3c
000003f0: 4e2c 24be 4bc3 65bd 3707 9d3e ec8a cdbd
0.13582416 0.282281 0.23515871 -0.4410212 0.06756564 -0.24134013 -0.28111458 0.06623298
-0.17452115 0.0394036 -0.01242013 0.32387382 -0.056638457 0.50807804 -0.4678473 0.5784793
0.51673263 -0.028520912 1.1331514 -0.0012409735 0.10878291 0.16264603 -0.013870726 0.09309825
-0.029157838 -0.3237791 0.14474891 0.17060399 0.08907096 0.11938665 -0.42271662 -0.06584909
0.3626547 0.3031006 0.5004622 -0.15897293 0.13511997 0.014962217 -0.55556035 -1.1644604
0.07286331 -0.28103098 -0.3644306 -0.44008368 -0.10565597 -0.34613168 0.45687366 -0.103860185
0.047432188 0.90749013 0.29446676 0.43488425 0.3441664 0.53173226 -0.5526705 -0.45372137
-0.14097722 0.054260153 -0.28980723 0.32674822 -0.2679032 0.07779729 -0.11368627 -0.22390862
-0.060856808 0.3101997 -0.097042665 0.28387636 -0.65160745 0.08198723 0.2064311 -0.54139644
0.11791846 -0.48221922 0.02369508 0.22725317 0.30763444 -0.28909564 -0.42346463 0.068436734
0.013450414 -0.04745503 -0.21751434 -0.15584806 -0.5990099 -0.35405782 -0.16711102 -0.040845662
0.240253 -0.18721671 -0.6024658 0.040787652 0.013565409 -0.5079325 -0.4996567 0.17383458
0.03881888 0.78070366 -0.8310867 0.11291286 0.25839704 0.17865033 -0.3187615 0.061378356
0.22535342 0.01801776 -0.23256436 0.07457963 0.056660276 -0.114036866 0.22467549 0.17170118
0.7400789 -0.028326834 -0.16223465 -0.60932124 0.21569265 0.6238908 0.18929681 -0.2547566
-0.30202428 -0.04233466 -0.35476688 -0.6560572 -0.04280533 -0.08447513 0.28841347 -0.20813693
-0.088981 0.40584415 0.86279625 0.3769427 0.10012958 0.06028276 0.013831756 -0.10788949
-0.42663044 0.18846908 -0.22712764 0.021446131 -0.28437343 -0.49184152 0.28611144 0.4165284
-0.13183554 0.07561792 -0.06416445 0.09205842 -0.19021195 0.40188834 -0.56844205 -0.68017644
0.13563405 -0.46153218 -0.2443956 -0.1120384 0.22024828 -0.44696996 0.10153216 0.5756633
-0.027533703 -0.29067227 -0.47963285 0.0033195643 -0.56441176 0.09938462 0.08345733 -0.19500293
-0.1943563 0.1327581 0.030136656 0.16022155 -0.033410735 0.0028863344 -1.0936276 0.13450016
0.27275082 0.17339186 -0.09028326 0.08388066 0.22520845 0.25239417 0.4259941 0.32206193
-0.052907716 -0.044327524 0.28525287 0.19049497 0.3814853 -0.066266015 -0.87214833 0.48515484
0.07012472 -0.2828908 -0.042672317 -0.4250335 -0.5755952 0.28382447 -0.08036699 0.1690131
-0.5692222 -0.028575737 -0.75500363 0.18768764 -0.2680915 -0.72446185 -0.7447013 0.49552783
0.3615967 -0.32982323 -0.09832175 0.21623875 0.09943742 -0.50789565 -0.014919488 0.11111505
-0.09029496 0.32553014 -0.05585873 0.17680332 0.177327 -0.27335036 -0.2446859 0.10981562
0.33847967 0.11093431 0.2457178 -0.3706783 0.15618682 0.05575973 0.010035798 -0.42259797
0.5736094 0.16393466 -0.0109481085 0.3005024 0.04718522 0.3371541 -0.15527241 0.35739422
-0.41283688 -0.22667618 0.74465436 -0.23479429 -0.074014254 0.098483026 -0.1238973 -0.29750144
0.4027071 -0.13160793 -0.0065374146 0.009630816 -0.16032526 -0.05609445 0.30669567 -0.10036263

encoder.2.bias f4 [32]
00000000: 4d25 f03c d2bd 51bc 3fd6 35bd 2a68 0f3d
00000010: 2a95 d43d 71ca 6b3c 3c29 7c3b 4bcb 013d
00000020: b565 f8bc c980 043d fdd0 cdbc b6a5 da3c
00000030: 8e5d 5d3c ce7a 3cbc afe3 0cbd ce4a 5c3c
00000040: f495 2c3c cb74 913d 753d c1bc c52e 1fbd
00000050: 3558 4d3d ae60 053d 4ab8 6f3c c2a1 043d
00000060: e2ab 0ebb 3f6b ebbc 7911 0b3d efb6 383c
00000070: 3872 dbbb ce2f f23c fc09 84bd dc67 283c
0.029314661 -0.012801604 -0.044393774 0.035011448 0.10380013 0.0143915275 0.0038476726 0.031688016
-0.030321935 0.03234938 -0.025124067 0.026690345 0.013511075 -0.011503888 -0.034396823 0.013445569
0.0105337985 0.071023546 -0.023588875 -0.038862962 0.05013295 0.032562904 0.01463134 0.032380827
-0.002176993 -0.028737662 0.03395221 0.0112740835 -0.0066969655 0.02956381 -0.06447217 0.010278668

nee_decoder.0.weight f4 [16, 32]
00000000: 0a6c aabe 65e5 88be f8e1 21be 8334 b13e
00000010: a2bf 9a3d 46bc 34bf bb89 bd3e cbc2 51be
00000020: 9f0b 0b3e 20de 6d3d 4a57 f93d edd9 a7be
00000030: 9599 98be c756 febd ec2d 9dbe 97c6 fabc
00000040: 3268 67bd 18fe 273e 9442 7fbe 3841 c03c
00000050: 878c 4fbf e4fb 8e3e 63c9 433e d3c3 1b3b
00000060: 65ab 80be 3ec2 f03d e6dc 9c3e 1912 32bd
00000070: 421a d03e 1121 98bc 1da8 1b3e 52d8 c6be
00000080: 7f93 0e3d cf79 c0bd 00c9 b4bd aee5 b1bd
00000090: 6e55 9d3d bccf d7bd 6fde bd3e 7c4d caba
000000a0: 05e6 e53d 913b d13d 3024 adbe 8d4b 943e
000000b0: 376d 4cbe 0476 ab3d 3032 f33d 12c9 443e
000000c0: 57ec 27bd 7472 843d b549 473e b61c b33d
000000d0: de05 88bd 3872 863d f1a1 0b3c a16a 6ebe
000000e0: ba0e b43e 1ce9 433d 0ad5 0c3e f781 4cbc
000000f0: 10a8 cfbb 8fc7 6f3e 1dbe 513d 71ec 0abe
00000100: 0339 093e 283d db3d e580 afbc f867 e2bd
00000110: df94 1b3f 8703 ccbe 7210 383e 902f 2c3f
00000120: 22be a4be f121 c63e 66d3 8f3d 8865 89be
00000130: 320e 2cbe fdc9 22bc ffa8 15bf e50a 35be
00000140: db26 10bc 6200 1fbe b7fd 56bd c152 c8bd
00000150: 74e0 463e 3a4d 763e e955 82be 9c92 37be
00000160: 06e5 23be a034 943d e546 973c 2bdb f13e
00000170: 2eab f2bc 46a9 28bf 6f54 6d3e 4184 8fbd
00000180: 5417 0c3e aafa d7bc dcc2 263d a3fb 0a3e
00000190: 68f8 d2be d54b 85bb 6913 9bbe 4d1b f93e
000001a0: 9dba 123c b422 153c 69f7 763c 9b81 9f3e
000001b0: 219e acbe 7ee7 a73d f6c0 8e3b 4793 6abe
000001c0: 831c 7f3e 6237 babd 990d 4bbe eb78 1d3e
000001d0: 0358 9dbd 09b6 a33d cdfe 2b3e 5441 02bf
000001e0: 3e9c 483e 9269 f43e 05da cfbd ccf8 fcbd
000001f0: e0de 253b 2d4a 1a3e a6b5 2fbe 7b68 103c
00000200: 06db 59bd 3ac9 bebe 868d 4dbd 47cb 043d
00000210: 268f 2ebd 5d4f 0f3f b4dc 41be 486a d43c
00000220: 295e 643e 7401 e53d 5067 9b3c 418f 56be
00000230: 9cee 903d ab4e a53e 2233 a63e 9886 143e
00000240: cf91 d03e 8411 e63e eacb 6abd e97a f73c
00000250: 8542 3abd 0876 6c3e e1bc 08be a9fd 33bc
00000260: 795a fcbd 6de5 6abd 4043 0e3f 073e d93e
00000270: 42ec 98bd d297 3f3e b045 67be 9e50 8dbe
00000280: 2ac1 bbbd ced0 8d3e 10ec cdbe 406e a2be
00000290: 747e f5bd a084 cbbe ecdc 7a3e 02f2 133e
000002a0: b23e edbd 4baa a43d 1fe9 9e3e fdf3 0b3d
000002b0: 8109 9e3e f0d7 493b 227f ff3e 53ac 19be
000002c0: a7f3 a73d 116e 53be 3fef a63e d9aa 673e
000002d0: 0f82 d83c c618 c6be 5902 f43e 72cd 323e
000002e0: 9bbb ddbe 6566 03bf f3d3 4ebe f45c 3f3e
000002f0: a6fa d7bd 2c92 733e 11bb f33d 09be a03e
00000300: 7671 da3e b14d b3bd 358e cfbe 62c7 993d
00000310: 98ad 5bbe 17f9 243e c19b 58be 649d 363e
00000320: 62c0 a8be aba2 78be 5daf 29bd e07f b93d
00000330: d2f5 7ebd 3e85 94bd 5fb7 ebbb 5463 edbd
00000340: d1c4 5e3d fc13 643d 839e 02be 4a87 c9bd
00000350: 1e42 0c3e 7ce7 8e3d 4342 9b3e 2dc8 e83d
00000360: e559 c5bd a196 363e c7a9 3fbc 95e3 4c3e
00000370: 500b 2cba 2ebb 78be 71cf d4bd 614d 10be
00000380: 825d b93c b02c 55be 5d2c 08bb e0c6 b3bd
00000390: 2cd7 4cbe 2c91 8cbe bc5e bf3d 26f0 283e
000003a0: 6c0c 9b3e 029b b0bd 2d48 86bd 32f9 0cbd
000003b0: 0381 0d3f 93ee ecbe 7833 f8bd 6bac 80bd
000003c0: 805a 25be 4884 8a3e 330d aebe eb69 02be
000003d0: e2fa 0ebe c95f 89bd 13ba f5bd 9bb0 0839
000003e0: 2855 373e 9b05 a7bd a69c cebd 5200 54be
000003f0: cd50 613e 5453 9e3e bdd3 86be 2a45 69be
-0.33285552 -0.26737514 -0.15808856 0.34610376 0.07556082 -0.7059978 0.37019143 -0.20484464
0.13578652 0.058073163 0.12174852 -0.32783452 -0.29804674 -0.12418895 -0.30699098 -0.030612273
-0.056495853 0.16405523 -0.24927741 0.023468599 -0.810738 0.27926552 0.19119792 0.0023767843
-0.25130764 0.11755799 0.30637282 -0.04347429 0.40645033 -0.018570455 0.15200849 -0.38836914
0.034808632 -0.09398233 -0.088274 -0.08686386 0.0768231 -0.10537669 0.37083766 -0.0015434469
0.11225513 0.102164395 -0.3381667 0.2896389 -0.19963537 0.08372119 0.11874807 0.19217327
-0.040996876 0.06467143 0.19461711 0.087457106 -0.06641744 0.06564754 0.008522497 -0.23282863
0.35167485 0.047829732 0.13753143 -0.012482158 -0.0063371733 0.2341597 0.051206697 -0.13566758
0.13400654 0.10705024 -0.021423766 -0.11054987 0.60774034 -0.3984644 0.17975023 0.67260075
-0.3217631 0.3869777 0.07022743 -0.26835275 -0.1680229 -0.009935853 -0.5846099 -0.17679937
-0.008798326 -0.1552749 -0.052488055 -0.09781409 0.1942156 0.24052897 -0.2545617 -0.17927021
-0.16005334 0.072366 0.018466422 0.47237524 -0.02962264 -0.6588329 0.2317674 -0.07007647
0.13680774 -0.026364643 0.040713176 0.13572554 -0.41205144 -0.004067878 -0.30288246 0.4865364
0.008955625 0.009102512 0.015073636 0.3115357 -0.33714393 0.081984505 0.004356499 -0.22907744
0.2491322 -0.09092595 -0.19829406 0.15378158 -0.076828025 0.07993705 0.16796418 -0.5088093
0.19590852 0.47736794 -0.10149006 -0.12352142 0.0025309846 0.15067358 -0.17159137 0.008813973
-0.053187393 -0.372629 -0.050183795 0.032420423 -0.042616986 0.55980474 -0.18931848 0.025929585
0.22301544 0.11181918 0.018970162 -0.20953085 0.07076761 0.3228658 0.32460886 0.14504468
0.40736243 0.44935238 -0.057323374 0.030209975 -0.045473594 0.230919 -0.13353302 -0.01098577
-0.12321944 -0.057347704 0.55571365 0.42430136 -0.074669376 0.18710259 -0.22585177 -0.2760057
-0.091677025 0.27698368 -0.40219164 -0.3172474 -0.1198701 -0.39749622 0.24498338 0.14447787
-0.11584224 0.08040293 0.31037232 0.034168232 0.30866626 0.0030798875 0.49901682 -0.15007143
0.0820077 -0.20647456 0.32604405 0.22623767 0.026429204 -0.38690776 0.4765804 0.17461184
-0.43307194 -0.51328117 -0.2019804 0.18687803 -0.10545854 0.23786229 0.119009145 0.31394985
0.4266469 -0.08755053 -0.40538183 0.075087324 -0.2145294 0.16110645 -0.21153165 0.17833477
-0.32959276 -0.24280803 -0.041427005 0.09057593 -0.06224615 -0.072519764 -0.0071934904 -0.11591211
0.054386918 0.05568312 -0.1275578 -0.098402575 0.13697097 0.06977746 0.3032399 0.113663055
-0.09636287 0.17830898 -0.011698193 0.2000869 -0.0006562965 -0.24290153 -0.10391129 -0.14092018
0.022627596 -0.20817828 -0.0020778396 -0.08778167 -0.20003957 -0.27454507 0.09344241 0.1649786
0.30282915 -0.086233154 -0.06556735 -0.03441734 0.5527498 -0.46275768 -0.12119192 -0.06282886
-0.16147804 0.27054048 -0.33994445 -0.12735717 -0.13962892 -0.06707723 -0.119983815 0.00013035761
0.17903578 -0.08155366 -0.10088472 -0.20703247 0.2200348 0.3092295 -0.26333418 -0.2278029

nee_decoder.0.bias f4 [16]
00000000: feaf 8abb 6a6a 9e3c 2114 043d e2fc 7e3c
00000010: 99ac 0e3c b75c ab3c e4df a83c c78f 9bbc
00000020: e392 883b 5666 6abc 1fb0 1f3a 0009 133c
00000030: a90a aa3c 8bcd 88bc e3a6 64bc 989a d23c
-0.0042324057 0.019337852 0.03224576 0.015563222 0.008708143 0.020918233 0.020614572 -0.018989457
0.004167901 -0.014306625 0.0006091613 0.008974314 0.020757036 -0.016699573 -0.0139558045 0.025708482

nee_decoder.2.weight f4 [16, 16]
00000000: b5fe b6be bae4 96be 814e 10bf 85f0 00bf
00000010: ff01 393e 6194 a8bc 3143 a73d 7136 40be
00000020: 2f4b a53e c307 06be 03a6 a43e c743 4ebe
00000030: 4329 7c3d 6bb1 dc3e 5f4a b33e a005 943e
00000040: 54eb 9d3d 8e6c 2e3f 80b2 25be 1276 3dbd
00000050: 2483 413e 8ed5 11bf 5c7e c93e 6e89 683e
00000060: 72ba be3d bc82 e23d ea6b c23c c551 31be
00000070: 7d9a 0c3e 7d6f 733f a599 b6be 4f1a 0dbf
00000080: a2f3 1bbf c103 dc3e 6029 6dbe 1ef2 193f
00000090: 6f5c 1d3e 8e8f a93e 321c c13d ba35 d4be
000000a0: a86f 71be 4fec 9fbd afd0 a53e 4f82 293e
000000b0: f4b1 473e 1316 8bbe afa2 ca3e 5c5b 9c3e
000000c0: b72a 81bd 1717 c7be 89f4 d0be 89ad 243f
000000d0: 616c 923e 344a d43e b62c 9dbe cc07 08be
000000e0: 2655 11bf 5d63 e13e af02 173e 7c2e a7be
000000f0: f4f7 703d 30b6 4bbf 560f 423e 103f b73e
00000100: 7f2b 2dbf 2678 103f 48cc 05bf 97bf 5bbe
00000110: f054 843e d125 61be 07c5 ae3e 51e7 2ebd
00000120: 512f 763f dcf6 3d3e fc70 473e 02d4 353e
00000130: 1aa0 c13e 465d 323c 716a 56be f269 d8be
00000140: b575 15bf 192d 6e3f 6feb e2be c143 683d
00000150: 105b a7be da26 d43c 42db ec3c fdbf a9be
00000160: 5d94 3d3c d921 01bf 6f8f 1dbf 81c2 3f3d
00000170: b2ad 793e 34e9 04bf 17f7 de3e 97f2 1a3e
00000180: edf3 153f d751 afba d8dd d5bc 30bc 4b3e
00000190: 069b bfbe d3b6 5fbe 7695 ef3d 7e33 453e
000001a0: 5286 25bf 1ca6 843e c3e6 3a3e 4270 98be
000001b0: 2a73 2a3f 1741 98be 7e94 49be 8a1a 12bf
000001c0: d8fd 4f3e 2d0b 85be b886 183e c210 08bf
000001d0: 471b d03d 3e7f ad3d 726c 2fbf 2346 043f
000001e0: 210d 583f 89bf 603d 7aee ccbe 1b0c c63e
000001f0: 6adf 5c3e 3fb5 853c e4a7 34bf f8ca a1be
00000200: 9be2 5f3e d0be 65bd bc6b 05bf 068a ca3d
00000210: 8cd9 3b3f 6b88 b13d dcec 653e 9d63 513e
00000220: 8a97 5e3e effb 0cbf c0dd 40bd 0716 d0bd
00000230: e861 19bf 9701 c7be 7938 8c3e 3af4 fcbe
00000240: 280c 8b3e b795 833e 1baf 063e 71aa 00bd
00000250: 5dd9 ab3e c907 5fbe f9d2 83be 456b 7b3e
00000260: 6afa af3d 744c 61be d456 763e 7cfd b83e
00000270: 8252 ebbd 742d b4bd cf0a c6be 84ff d53e
00000280: 41b1 1cbf cea3 203f d6a5 bcbd 9db3 57bd
00000290: c17c 2d3f 288c 0f3e 43a0 213f e14c 30be
000002a0: 2fe9 073f c9db bebe cd6f 2c3e de14 003d
000002b0: 727e 24bf 122d 383e eb9f 6e3c 760b 6cbf
000002c0: db63 75be 0cc7 253f 7e44 83be 4f95 a9be
000002d0: 9492 18bd c50e 473e c724 9c3e 2a47 963c
000002e0: 0709 943e 81b5 13bf 6b31 813d b6fc 0ebe
000002f0: a81d 073f 1abf 71be 8bdc c43d c2a2 8dbe
00000300: e91e b43e 5ba8 973e fb33 bb3e 9a66 8cbe
00000310: b4ab db3c c60d 023e c771 a6be 544a bbbe
00000320: 650d 9e3e 0ed7 89bc 6f95 0abf 2ab4 6e3e
00000330: a9e5 99be fa26 07bf 6c9c 4d3e 9732 00bf
00000340: 3909 3e3f e2b4 a53e 6e35 cfbd 4da3 82bc
00000350: 91ce efbe e7f6 ecbe 4a6e ba3e e966 8d3e
00000360: 5788 e13c dc31 013e c041 a33d 68d9 e03e
00000370: 79af a63e e6d1 57bc c27a 30be 732f 94be
00000380: e159 c73e e11b ecbd 66e9 803d a500 843e
00000390: b059 d13e 3b48 843d 7606 8dbe 627f eabe
000003a0: 195c 813d 1432 0e3d 4cb0 f13d efdc 0d3f
000003b0: c492 9d3e 6c33 6e3e 458d 223e a1ae 863e
000003c0: 2617 ce3d e88f 953e b84d a3be 6d36 afbe
000003d0: dcc6 8b3d 752c 943c f14c 863d 1575 0d3e
000003e0: e00b 253e 49aa eebe 477a 633e fcda dc3d
000003f0: 7500 24bf 3010 663e 2926 e1bc 3847 7c3e
-0.357412 -0.2947138 -0.5636979 -0.50367004 0.18067168 -0.020578565 0.081671126 -0.18770768
0.32283923 -0.13088898 0.32157907 -0.20143043 0.061562788 0.4310411 0.35017678 0.28910542
0.07710901 0.6813439 -0.16181374 -0.04625518 0.18897682 -0.56966484 0.39354217 0.22708675
0.09312905 0.11060092 0.023733098 -0.17316349 0.13730808 0.9509199 -0.35664096 -0.5511827
-0.6091863 0.42971614 -0.23160315 0.60135067 0.15367292 0.33117336 0.09429206 -0.4144724
-0.2357775 -0.07808744 0.32385775 0.16553615 0.19501477 -0.2716528 0.39577243 0.30538452
-0.06306975 -0.38884804 -0.40811566 0.64327294 0.28598312 0.41462862 -0.30698174 -0.13284224
-0.5677055 0.4402112 0.14747117 -0.32652652 0.058830217 -0.7957487 0.18951163 0.357903
-0.67644495 0.5643333 -0.52264833 -0.21459804 0.25846052 -0.21987082 0.34134695 -0.04270107
0.9616595 0.185512 0.19476694 0.17756656 0.3781746 0.010886496 -0.20939042 -0.4226833
-0.5838273 0.93037564 -0.44320247 0.05670524 -0.32686663 0.025897432 0.028913144 -0.33154288
0.011571017 -0.5044227 -0.6154699 0.046816353 0.24382666 -0.5191834 0.4354789 0.15131603
0.58575326 -0.0013375831 -0.02610676 0.19896007 -0.3742296 -0.21847086 0.11698429 0.19257924
-0.6465808 0.2590798 0.18252091 -0.29773146 0.66581976 -0.2973716 -0.19685552 -0.57071745
0.20311677 -0.2598509 0.14895141 -0.5315057 0.10161453 0.08471535 -0.6852485 0.5166952
0.84395033 0.054870162 -0.40025693 0.3868111 0.215696 0.016321776 -0.7056868 -0.31600165
0.21863787 -0.056090176 -0.52117515 0.09889607 0.73378825 0.08668598 0.22453636 0.20448156
0.21737495 -0.5507192 -0.047086477 -0.101604514 -0.5991502 -0.388684 0.27386835 -0.4940508
0.27157712 0.2570016 0.13152735 -0.031412546 0.33564273 -0.21780314 -0.25746897 0.24552639
0.085926846 -0.22001821 0.2405656 0.36130893 -0.114903465 -0.08797732 -0.3868012 0.41796505
-0.6120797 0.62749946 -0.09211318 -0.052661527 0.67768484 0.14018309 0.63135165 -0.17216827
0.53090185 -0.37277058 0.16839524 0.0312699 -0.6425544 0.17985943 0.014564495 -0.9220499
-0.23963873 0.64756846 -0.25638193 -0.33121726 -0.037249163 0.19439228 0.3049681 0.01834448
0.28913137 -0.5769883 0.06308254 -0.13963589 0.52779627 -0.23608056 0.09612378 -0.27663237
0.35179833 0.29620633 0.36563095 -0.2742203 0.026815273 0.12700567 -0.3250868 -0.36580145
0.30869594 -0.016826179 -0.5413427 0.23310915 -0.3005803 -0.5279385 0.20079201 -0.50077194
0.7423282 0.32364565 -0.10117613 -0.015947009 -0.46837285 -0.46282122 0.3641227 0.27617577
0.027530832 0.12616676 0.07971525 0.43915868 0.3255575 -0.013172602 -0.17234328 -0.2894245
0.3893576 -0.11528755 0.06294517 0.25781742 0.4088874 0.06459089 -0.27543992 -0.4580031
0.06316394 0.034715727 0.11801204 0.5541524 0.30776036 0.23261803 0.15874203 0.26305106
0.10063009 0.29211354 -0.31895232 -0.3422121 0.06825039 0.018087605 0.06557644 0.13814195
0.16117811 -0.46614292 0.22214614 0.107839555 -0.640632 0.22467113 -0.027484016 0.24636543

nee_decoder.2.bias f4 [16]
00000000: 932d eabb 84e7 93bc 8988 953c e9f9 943c
00000010: b8c4 953c 7f97 943c 5b4e 953c 1f94 95bc
00000020: 9258 96bc 811d 8f3c 7797 933c 1423 953c
00000030: 4882 97bc 4781 94bc 6ecb 94bc 1273 95bc
-0.007146546 -0.018054731 0.018253582 0.018185573 0.01828228 0.018138645 0.01822584 -0.018259106
-0.01835278 0.017470123 0.01801656 0.018205203 -0.01849474 -0.01812805 -0.01816341 -0.018243346

nee_decoder.3.weight f4 [1, 16]
00000000: 8ccb 343d c2f7 9abe 1214 6d3e 9bd0 eb3e
00000010: 33d6 633e 4ed1 f83e cd2b 413f 05ad dfbe
00000020: abd2 30be 7e54 9e3d 526f f13d 84c4 0a3f
00000030: 1f1d 06be 5eb9 77be ef63 14bf b714 e0be
0.04413943 -0.3026715 0.23152187 0.4605759 0.2224968 0.48597187 0.7545746 -0.4368669
-0.17267863 0.07730959 0.11788811 0.5420611 -0.13097046 -0.24191806 -0.57964987 -0.43765804

k_decoder.0.weight f4 [16, 32]
00000000: c5d1 3dbe d877 b23d aaf5 d5bd 0bb1 c73c
00000010: a640 2e3f 4e9f a53e 0c07 1bbf a262 c83d
00000020: 5207 30bf 7771 35be 8d8a 5c3e fd44 073d
00000030: 0685 38be f00c e83e b371 493d 6abf 853e
00000040: bb22 703a 0b83 773e e4f2 2dbe 0cd4 c6bd
00000050: 621c 663e 749b 303d d86a fb3d e095 e7be
00000060: ca38 8a3e a5f8 8a3e c2c3 a23c 2b2c 8abd
00000070: 912c 923e 37f8 9f3e d169 0bbf 2c24 1b3e
00000080: 6d3c 94bd 7942 a4bd f774 d03b f7f2 553e
00000090: 23c8 6e3e b446 583e 19c8 d93d 2ee4 f1be
000000a0: 504f dcbe 9739 abbb a183 a6bd 1d16 acbb
000000b0: 104f 823e 7c99 a7bd 8f4e 7ebe ecc0 383e
000000c0: 466d 173d bb94 9c3e d1ef 633e e966 77be
000000d0: 5e85 91bd 7f48 fabb 2c5c 27be d8df 8e3e
000000e0: 3c99 f6bd e8be 2cbe 91f4 82be d952 c03e
000000f0: 0977 a5bd dedb 8a3e c4bf c1be 23e5 61be
00000100: 9e9d 113f a380 e1bc 70e7 b9be c10e 9e3e
00000110: 78aa 3ebe c70b ca3d 669a 37bd f609 67bd
00000120: 65b2 543e 807c 463d 598b 013e b488 333c
00000130: 69ee c6be e5b0 ffbd 2340 2abe e10b 51be
00000140: 8187 803d 75d7 6e3e a47e 063f 2593 70bd
00000150: 8c17 f43d 6524 babe 3d39 823e 2365 9ebe
00000160: b8d9 1abd 8462 5dbe 0719 663d e651 c6be
00000170: 1aac ecbc f3a6 0d3f 7b1f cd3d 1eca 29be
00000180: 95cb 623e 9563 c13d 10a6 dc3e 254c a5be
00000190: 7d6c 0abd f196 b2be aeb8 8cbc ac33 57be
000001a0: b3ab 103e ee94 fbbe 21b1 88bd 6d53 19bd
000001b0: 621e cc3d 5f36 6a3e aa90 ce3d 0c39 683d
000001c0: 4be1 84be ed56 8b3d 88ac 203d 1d89 973d
000001d0: df7b 3a3d e01d 5a3e 7188 fb3d f993 b5bb
000001e0: 6021 a33e 35bb 0e3e 13ec b4bd 899c a13e
000001f0: a0cf db3d 8571 b03e 04b2 823c f75d 153d
00000200: 2ac2 933e 16a9 6c3e fcf6 5fbe b77f 483e
00000210: a5c3 ad3e a0fe f2be 8ed6 f13d 8060 733e
00000220: a3d8 fe3e 9945 b83e 1c81 30be f893 253e
00000230: 4ee4 1dbe c4bc b7be faa9 1fbe 5d82 013f
00000240: b950 a33e 30da ed3e d2d2 2e3e 3b65 9dbe
00000250: b583 d43e a835 093e d843 4e3e 527e 423e
00000260: 8b4b 06bf 71eb 08be 0291 c5bd 566a 263f
00000270: db8e b6bc 4dcb 93bd 965d 693e e87d f03c
00000280: edcb 84bd e2b4 5d3e ef67 48be c2f7 013d
00000290: d524 aebd 863d a5be 08cc 0e3e 95cd 6abe
000002a0: 8e32 e4bd 4e9e f83e ae84 863e 7300 87be
000002b0: f0c5 b6be 21dc d6bb 8ec5 e03e 8be8 78bd
000002c0: 10ae fdbd d70e 5a3f 1362 173c e45c 2cbe
000002d0: ffbc c8be c89a a6be 3588 863e 44a6 483e
000002e0: 18f1 5f3d 9e43 a5bd a42f 45bd 4996 3abe
000002f0: 346d 2ebe 0904 7dbe 0156 123d 1984 2dbe
00000300: 00ef 0e3e 3867 cd3d bcac 5c3e a059 703d
00000310: b7a4 613e 3f53 503e 8394 ed3d de16 a5be
00000320: 87fd edbe 79f2 b53d 3a2a 123e 85ad abbe
00000330: 66c5 9a3d 7d86 a63c d988 ec3d 4968 debd
00000340: 4574 f2be a36f 22bd f1af b7be 4e89 13bf
00000350: b4af 84bd 7bf9 973e d94f f23d 0910 703e
00000360: 892c 69bb 75ad 73bd 5a83 133f 378a b33b
00000370: 51d2 77bd 1140 693e 6d04 993b 2bcb e8bd
00000380: 999b 263e c55e 2bbe 58f5 a4bd 1c9d 843e
00000390: 1c91 c33e da5d ab3c 970b 2ebe 1355 a13e
000003a0: 63de 55be 35e2 29be 65dc b8be efd3 143d
000003b0: 7d94 a8be fa73 8cbe 0236 7bbe 8319 02be
000003c0: 6556 2d3e 4eb0 0b3e 8110 b63d 4dd1 5bbd
000003d0: d3b4 313f 78bc 72bd 630b f23d 4b26 b2be
000003e0: 85bd b7bc 0b26 f1be 0a9f 893c 0b38 8fbd
000003f0: 7333 aa3e e7fc 1dbe 23e2 883e 7782 543e
-0.18537052 0.08714265 -0.10447247 0.024376413 0.68067396 0.32348102 -0.6055763 0.09784438
-0.6876117 -0.17719065 0.21537228 0.033024777 -0.18019494 0.4532237 0.049180698 0.261226
0.00091604487 0.24171083 -0.16987187 -0.097084135 0.22471765 0.043117 0.12276238 -0.45231533
0.26996452 0.27142826 0.019868735 -0.067467056 0.28549626 0.3124406 -0.5445834 0.15150517
-0.07238088 -0.08020491 0.0063615995 0.20893465 0.23318534 0.21120721 0.10633869 -0.472444
-0.4302926 -0.005225371 -0.08130575 -0.0052516595 0.25450945 -0.08183572 -0.24834655 0.18042344
0.036969446 0.30582222 0.22259451 -0.24160351 -0.07105516 -0.0076380367 -0.16343755 0.27905154
-0.12040946 -0.168697 -0.25577214 0.37563208 -0.08079345 0.2712087 -0.37841618 -0.22060065
0.5688113 -0.02752716 -0.36309385 0.3087063 -0.18619716 0.098655276 -0.04482498 -0.056405984
0.20771177 0.048458576 0.12650813 0.0109578855 -0.38853768 -0.12484912 -0.16626029 -0.20414688
0.06275845 0.23324378 0.5253699 -0.058734078 0.11918554 -0.36355892 0.25434294 -0.30936536
-0.03780529 -0.21619612 0.05617621 -0.3873436 -0.028890658 0.5533287 0.1001577 -0.16581008
0.22147973 0.09442822 0.43095446 -0.32284656 -0.03379487 -0.34880784 -0.017177906 -0.21015805
0.14127998 -0.49137062 -0.0667441 -0.037433077 0.099667326 0.22872303 0.10086186 0.05669503
-0.25953135 0.06803689 0.03922704 0.07399199 0.04552829 0.21300459 0.122818835 -0.0055413214
0.318614 0.13938601 -0.0883409 0.3156474 0.10732961 0.3446161 0.015954025 0.036466565
0.28859073 0.23111376 -0.21871561 0.1957997 0.33938327 -0.47459888 0.11808501 0.2376728
0.49774656 0.359906 -0.17236751 0.16169727 -0.15419123 -0.35886204 -0.15592185 0.50589544
0.31897524 0.46455526 0.17072609 -0.30741295 0.41506734 0.13399374 0.20143068 0.189935
-0.5245902 -0.13371064 -0.09646799 0.65006006 -0.022284916 -0.07216511 0.22789606 0.029356912
-0.06484208 0.21651033 -0.19570898 0.03173042 -0.08503119 -0.322735 0.13945019 -0.22929986
-0.11142455 0.48558277 0.26273102 -0.2636753 -0.3569789 -0.006557003 0.43900722 -0.060768645
-0.123867154 0.85178894 0.009239691 -0.1683231 -0.39206693 -0.32539964 0.26275793 0.19594675
0.054673284 -0.080695376 -0.048141137 -0.18221392 -0.17033845 -0.2470857 0.03572655 -0.16944923
0.13958359 0.10029453 0.21550268 0.058679223 0.2203549 0.20344256 0.11600592 -0.3224401
-0.4648249 0.088841386 0.1427392 -0.33530822 0.07557182 0.0203278 0.11549539 -0.108597346
-0.47354332 -0.039657246 -0.3587642 -0.57631385 -0.06478825 0.29682526 0.11831636 0.23443617
-0.0035579524 -0.059491593 0.576223 0.005479123 -0.060503308 0.22778346 0.004669717 -0.11366876
0.16270293 -0.1673537 -0.08054608 0.25901115 0.38196647 0.020918775 -0.16996609 0.3151022
-0.20885615 -0.16590197 -0.36105648 0.036334928 -0.32925788 -0.27432233 -0.24532321 -0.12705044
0.16927488 0.13641474 0.088898666 -0.0536664 0.6941654 -0.05926177 0.11818578 -0.3479484
-0.022429237 -0.47099337 0.016799469 -0.06993111 0.33242378 -0.15428506 0.2673503 0.20752893

k_decoder.0.bias f4 [16]
00000000: 6f05 0f3c 23d1 13bd 75a6 7b3c c944 8fbc
00000010: d896 d73c 3b4d 1bbd f676 d43c 3c72 f93c
00000020: fb00 e93c d431 e2bc 0200 ac3c bc97 82bd
00000030: a36c ffbc f20f d7bc deca 90bd 411e c1bd
0.008729323 -0.03608812 0.015359511 -0.017488854 0.026317045 -0.03791545 0.025935631 0.030449979
0.02844285 -0.02761165 0.020996097 -0.06376597 -0.031179732 -0.02625272 -0.07069944 -0.094295986

k_decoder.2.weight f4 [16, 16]
00000000: 8cc9 ab3e 4325 cf3d 2ee9 313e 6c97 6ebd
00000010: b237 033d 0db2 e2be 8ee2 693e 27c5 123f
00000020: 3471 0abe 7b0d 993d 4f15 173f 4cd4 2cbe
00000030: 4273 063e 7c6c dfbc 72a6 9d3d da92 7bbd
00000040: f4f8 a13d 6332 143f e682 97be 800a ca3e
00000050: 011c c63e ca3b 9bbe cf20 623e 5439 b93d
00000060: 90af c1bc c777 333f 63ea a93e 6fa9 883d
00000070: 0965 0fbf 6e7a a63f fa05 513e 5451 493f
00000080: afe3 173e e442 57be 7903 963d 2c74 8e3e
00000090: 59f4 11be a182 48bd 95fe 84be 00e1 093f
000000a0: 40a7 c53e 6a9b d8be 3f74 293d 1bcb 15bf
000000b0: 6fa3 f53e def1 9d3e 9be5 653d 6aeb 0b3f
000000c0: a880 653e 4f60 79be f48b 883e e510 153e
000000d0: ab74 683e a58d 2b3d 3449 693e cec7 a7be
000000e0: 2667 623e 3833 ae3d d95d c73d 18d7 973e
000000f0: 3fd6 30bf ec48 d63e c44b 16be e0f9 a4be
00000100: 70e8 833e 236e a0be 1d34 593f 3397 843e
00000110: bee9 00bf fcc0 14be a406 313e 9924 abbe
00000120: cac7 96be c720 823e 5f47 903e d24e 4bbe
00000130: 573a 6cbe fbf9 37bf 8075 3bbe 792b 663f
00000140: 2c09 24bf a87e 85bd cc12 cdbb 3598 8fbd
00000150: a278 b53e 4fbf afbe ccd8 01be 4e82 593f
00000160: 30d2 cbbd 2eda cdba 5ac7 9c3e 4f64 fbbd
00000170: c8b0 11bf 53d0 24bf 92cf 87be d799 8abe
00000180: 818d e03e 47b0 373c ff3a 24bf 3fec d7be
00000190: 3745 8f3e 4f9d 1abe 5252 fcbd 8b6d 8a3e
000001a0: d8a6 efbc 6310 123f e181 4dbe 14ae 8f3d
000001b0: 9b6b ebbe c531 89be 54a8 5dbd 5ba9 083f
000001c0: d65b a13e 73e8 82be 6189 c7bd af6f 76be
000001d0: 4d6f 67bd a046 5bbe 53be eebe 93b5 75be
000001e0: 956d c03d c4f4 a7bd ed11 d5bd a299 073f
000001f0: 02ad 24be f4f9 a23d e4ba 33be 945d 58bf
00000200: b39a 01be 482a 133f 5953 e13e 75a2 e9bc
00000210: 2302 5bbf 591d b43e ec68 523d 6daa 833e
00000220: dbd6 dbbe 4736 ddbc 7534 033e 8864 a1be
00000230: 39fc e73e 599f efbe 8f02 eb3d 57d1 4c3d
00000240: ba0f c43e b2a8 c03e ae65 eb3d dcc5 4bbe
00000250: 7c88 cb3d c34a 43bd d2fd 983d bb39 ad3c
00000260: b2e5 d8bd 5c95 bb3e 1c6c d7bb d5a7 023e
00000270: 86a5 213e 6c35 93bd d426 efbc d9dd febe
00000280: e270 88be ac91 e33e e9b6 1fbd 10cb 003f
00000290: 56dc e63c 507d cebd 3639 a73e 709b 053f
000002a0: d5d2 a2be 9e9e 023e 84dd f73d 6cc7 e53e
000002b0: b5e4 4c3e 5a8f dc3d c836 9dbe 2657 91be
000002c0: d0d4 103f 98f3 b0be a1c4 e93d 586f d83e
000002d0: bc0d 41bf 9625 c2bd 1adb a73e 7709 e8be
000002e0: e520 28bf dd51 c93e 71eb a73d c2f1 583e
000002f0: 628d c8bd a766 843e 7608 463e b0f9 abbd
00000300: 61cd 2d3d a66f 19bd 6651 453e c3ec ffbe
00000310: dbfa f9bd f58e b9be 4a63 443e d2b3 39bf
00000320: 5ea6 45bf 9fec 47bc 4252 0b3f 2898 973c
00000330: 5664 023f b0c1 cf3e 335c ba3e f968 b0be
00000340: dee7 d53d c7fc 74be c01e 0abf f688 72be
00000350: 8a8f 4ebd 7c4a dcbd 95a3 edbd 8efc 25be
00000360: bd23 1e3f 6241 233e 4a2c edbe c57b 3b3d
00000370: dbf7 7abb 70db debc 6229 133e a71b 88bc
00000380: 4937 f2be 3c69 63be fcbd f83e 3622 31bd
00000390: a4aa 343e 20b5 e9be c4f0 d5bd 16b8 9bbd
000003a0: eee2 813e 6276 70be 8c50 693e 75b1 653e
000003b0: 03d8 85be f4b1 9d3e 1146 3b3f e656 d8bc
000003c0: cbb7 12be 5450 e23d 017e fabe 6937 b9be
000003d0: ed13 61be 18c2 fa3d 0e9a c83e bf6a f9bc
000003e0: bde9 3fbe 2759 13be ce28 38be 3bc5 283e
000003f0: 4af0 b13e 508a acbe ac0d f2bd 0534 b0bd
0.33552206 0.10114529 0.17374107 -0.058249876 0.032035537 -0.44276467 0.2284033 0.5733208
-0.13519746 0.07473274 0.5901689 -0.1687786 0.13129905 -0.027273409 0.076977625 -0.061419345
0.07908812 0.57889384 -0.29592055 0.39461136 0.3869324 -0.30319053 0.22082828 0.090441376
-0.023643285 0.7010464 0.33186635 0.06672942 -0.5601354 1.3006113 0.20412436 0.7863972
0.14832948 -0.2102161 0.07324881 0.27823007 -0.14253367 -0.048952702 -0.2597548 0.5385895
0.38604164 -0.42306072 0.041370627 -0.5851304 0.47976252 0.30848593 0.056127172 0.5465609
0.2241236 -0.24353145 0.26669276 0.14557226 0.22700755 0.04188313 0.22781831 -0.32769626
0.2210966 0.08505863 0.09734697 0.2965629 -0.69076914 0.4185251 -0.1467734 -0.3222189
0.25763273 -0.31334028 0.84845144 0.25896606 -0.5035666 -0.14526743 0.1728769 -0.3342636
-0.29449302 0.25415632 0.28179452 -0.19854286 -0.2306913 -0.71865815 -0.18306541 0.89910084
-0.64076495 -0.065182984 -0.0062583443 -0.07011453 0.35443598 -0.34325644 -0.12680358 0.84964454
-0.099521995 -0.0015705281 0.30620843 -0.12274992 -0.5691037 -0.6438038 -0.2652555 -0.27070495
0.4385796 0.011211461 -0.6415252 -0.4217243 0.27982494 -0.15099071 -0.12320389 0.270367
-0.029254362 0.57056254 -0.20069076 0.07015625 -0.45980534 -0.26795784 -0.05411561 0.53383416
0.31515378 -0.2556797 -0.09743 -0.24066041 -0.05650263 -0.2141366 -0.4662958 -0.23995046
0.09395901 -0.08200982 -0.1040381 0.529688 -0.16081622 0.07957831 -0.17551762 -0.8451779
-0.1265667 0.5748639 0.44008902 -0.028519848 -0.85550135 0.3517864 0.051369593 0.25715962
-0.4293736 -0.02700342 0.1281298 -0.31522012 0.45309618 -0.4680126 0.114750974 0.05000433
0.38293248 0.37628704 0.11494003 -0.19899696 0.09938142 -0.04767872 0.074702874 0.021145692
-0.10590686 0.3663739 -0.006574167 0.12759335 0.15785798 -0.07187924 -0.02919332 -0.4977863
-0.26648623 0.44447076 -0.038992796 0.5030985 0.028181236 -0.10082495 0.32660836 0.52190304
-0.31801477 0.1275582 0.121027976 0.4487871 0.2000912 0.1076953 -0.30705857 -0.283868
0.56574726 -0.34560847 0.11414457 0.4227245 -0.7541158 -0.09479825 0.3278435 -0.4531972
-0.65675193 0.3932027 0.08199204 0.21185973 -0.09792592 0.25859568 0.19339165 -0.083972335
0.042432193 -0.037459992 0.19269332 -0.49985322 -0.1220605 -0.3624188 0.19178501 -0.7254001
-0.7720698 -0.012202411 0.5442239 0.018505171 0.5093435 0.4057746 0.36398467 -0.34455088
0.10444616 -0.23924552 -0.5395317 -0.23685059 -0.05042986 -0.10756394 -0.116034664 -0.16209623
0.6177328 0.1594291 -0.46322852 0.045772333 -0.0038294706 -0.027204245 0.14371255 -0.016614748
-0.47307804 -0.22208112 0.48582447 -0.043245517 0.17643219 -0.45646 -0.10446313 -0.07603471
0.25368446 -0.2348266 0.22784632 0.22430976 -0.26141366 0.3079983 0.7315379 -0.026408624
-0.14327924 0.110504776 -0.48924258 -0.36175087 -0.21980257 0.12244052 0.39180034 -0.030446408
-0.18741508 -0.14389478 -0.17984316 0.16481487 0.34753639 -0.33699274 -0.11819014 -0.08603672

k_decoder.2.bias f4 [16]
00000000: 7e13 863c 99f4 a53b 88c7 24ba dcc3 b73d
00000010: 24b9 68bb 2e5b ac3b 166e 3fba 3185 6dbc
00000020: 4bc4 dbbc 364e 203c 86c9 42bb 5e74 e13a
00000030: e7c1 abba 4ddf 863b 806b 24bc c4cd d9bb
0.016366716 0.0050645587 -0.0006285836 0.08972904 -0.0035510743 0.005259893 -0.0007302476 -0.014497087
-0.026826998 0.009784272 -0.0029722168 0.0017200818 -0.0013104052 0.004115975 -0.010035396 -0.0066468436

k_decoder.3.weight f4 [4, 16]
00000000: 1adf 103f 2839 1c3f 73da 833f c68d cf3e
00000010: 5d36 033f 60f3 a33d 11b7 75be ba52 d2bd
00000020: 8c5c 27be 822c 923e d06b 0c3e 28dc bfbd
00000030: abfe 80be 11b5 103f 757e 1a3e 9b9f 82be
00000040: 1a64 eabd 20bc b1bc 565e eabe 4217 623d
00000050: 42a3 8dbe db25 2abf 183f a83d 2a95 fcbd
00000060: 855c 33bf 9195 bb3e ee0b 273f 5e70 05bf
00000070: e1e4 a0bd 04e2 c9bc a56f e93d 2b98 1ebf
00000080: d2c5 b23e 9cc9 2ebe 5507 09bf 6dd4 5f3c
00000090: 1b6e 2fbf ea3f 8c3e 7724 1abf 22ed 57bd
000000a0: 5627 9c3d c9b1 bd3e c0d0 2dbe 15eb e13e
000000b0: 33f0 28be 2934 8c3e 77da a0bd 060c c0be
000000c0: 73ef 713f 8be8 743e 686a 863e 1fb5 ec3e
000000d0: 57b7 d4be f742 4a3f 62fb df3e 6327 6dbe
000000e0: 8a96 ebbe 1f0a bc3e b5d2 25bf b5df 913b
000000f0: 8fd0 e33c 98ee ff3a 0500 b5bd fc1a 9c3d
0.56590426 0.61024714 1.030104 0.40537852 0.51254827 0.080054045 -0.23995616 -0.10269685
-0.16343898 0.28549582 0.13713002 -0.09368163 -0.25194296 0.56526285 0.15087302 -0.25512394
-0.11444874 -0.02169615 -0.45775098 0.05519796 -0.27663618 -0.6646401 0.08215159 -0.12333138
-0.7006305 0.36637548 0.6525258 -0.52124584 -0.07856155 -0.024643905 0.11398248 -0.6195094
0.3491655 -0.17069095 -0.5352681 0.013661486 -0.6852738 0.27392513 -0.6021189 -0.05271638
0.0762469 0.37049702 -0.16974163 0.44124666 -0.16497879 0.27383545 -0.07854169 -0.37509173
0.94505996 0.23916833 0.26253057 0.46231934 -0.41546127 0.7900843 0.43746477 -0.23159556
-0.4601329 0.36726472 -0.6477464 0.004451717 0.02780941 0.0019526063 -0.08837894 0.07622334

k_decoder.3.bias f4 [4]
00000000: bea3 933e b801 f63c 4683 2f3b 03ac 293e
0.28835863 0.030030116 0.0026781126 0.16569524
